backend/inference/models/multicar_multistep_model.pt (torch, 822613 bytes, 10 tensors)

lstm.weight_ih_l0 f4 [512, 10]
00000000: b5fc 3e3d 0e50 16be 3310 f3bd d5c2 a43d
00000010: 6c6c cabe 604c 5f3e 4d58 b7bd 3fd1 a43d
00000020: 5280 43be 95cb 51be 1d60 07bf b2b4 86be
00000030: 5d9a 453e 7d7f 573e 9add eebc b03f 1d3e
00000040: 72d0 123e e605 ec3e 4102 25be baf3 0bbe
00000050: 6451 543c d3dd d5bc 5c7e 933d 729f dcbd
00000060: ce43 b5bd b549 c83d 9991 ce3d 100d 6e3e
00000070: 3391 853d 7c13 a83d 0d97 29be c5c8 5fbb
00000080: 3660 26bd de94 0dbf 398f e2be d756 89be
00000090: aee1 64bf 0aa3 3bbf 1597 bdbe c34a cdbe
000000a0: e645 9c3d 1326 45bf 5c52 9cbd dd76 983e
000000b0: 1caa 043d 0220 9b3e 32e0 89bf e291 66be
000000c0: 19eb 8dbc edf3 063d 5ca5 293e 76a3 553c
000000d0: b1d2 95bd f080 27be 7992 06bc d1e4 fc3d
000000e0: 5c6b eebc 4d8a 9a3e dfe9 ac3c 2bf0 07be
000000f0: 8894 dd3c 0d05 1ebe 7e72 893f 9bc5 a83d
00000100: 16ae 883e c6ff a8be 3ab5 bc3d 631b abbd
00000110: 322e f9be 6ec3 0dbf ba0d a1bc 9f0c 4abe
00000120: 5e8d 8ebd 6a4c dabe 14af a43f 431f d23e
00000130: 8d7f 7a3c 2707 8dbd 88d6 363d 7f7e a03c
00000140: 6e3f 043e 525c 7d3e 76a1 43bd bf6f f13c
00000150: 3df1 9fbb d106 803d 1183 96bd 8160 263d
00000160: 2413 a53d df1e 6f3d 4e2e 283d 744d debd
00000170: 2bb9 bd3e e305 4f3f 3ca3 35be 1b80 88be
00000180: e6a9 a13e d408 133e 38cc 8abc 73f5 a33d
00000190: 348f 503d 7ee0 723e 382d 88bc 4071 1d3d
000001a0: 9686 d23c 2524 09be 5511 72bd 54ab 113c
000001b0: 9422 47bd 119c 3abe e770 453e 8eb4 c43d
000001c0: 331a 28bf 9da4 30bf 0d56 ff3e 9980 2ebc
000001d0: 820a 1a3e 64b1 573e 3917 13bf e573 09bf
000001e0: c650 ee3a 4edc f3be 38ee 9dbc 9ca5 523d
000001f0: ef5a 463d a44c 9fbc 5bff b1bd cde7 65be
00000200: b2a1 133d 2b63 c83c f3c6 a0be f529 75bd
00000210: e64e 39bc db28 683d ed88 29bd 06e4 dd3c
00000220: 1cee 9dbd 5eb8 173e 57a7 eb3e cf7c de3e
00000230: 6561 fb3d 86e4 e7be 3a71 4bbe 9e84 c8bc
00000240: 04c0 aebe 1b45 a23d b026 ba3c ca36 fc3e
00000250: 4cf9 763d e640 df3d b2c0 22bf 552f abbd
00000260: 8cb9 4fbe d5d3 25bd fee3 053f ad1d 173e
00000270: ce5e 3abf 3288 8ebe 9f3c 303d 91a3 603d
00000280: 9fcf 113e bcb8 f6be 2de6 e0bd e3aa 69be
00000290: 692e e53d e28e 44be 57f5 c0bd f9a9 ea3d
000002a0: 8f5d c73d 581f ab3d c617 133e a8f4 193e
000002b0: 33a3 52be 47a4 273e 598b 0b3f 99eb bd3e
000002c0: c920 113e 0a24 78be eacb e63c dbf9 943d
000002d0: 3c1d 153e ca72 053e 8a1b b03d 9acc 423f
000002e0: 27fa fe3d ce1f d13e dc2a 72be 3ac8 633e
000002f0: e267 01be 7ed9 13be 306d b5bc 74e4 84be
00000300: 18e1 2f3e 6c62 943e cfc7 813e c104 acbe
00000310: 287f 0ebe aef3 1c3f c61a 87be bcf4 b3be
00000320: 4d54 b33d 37fa 3fbe e410 88bd d17c 27be
00000330: b3cc 84bc 739a ce3d 300e 573d dce3 86bc
00000340: ef5e 3c3d 2291 6abd 1121 503d 3037 023e
00000350: 071c e5bd c06b d9be d545 3abd 687a 313d
00000360: 3b2b d53d f965 01be ab18 4abd 2cdb cfbd
00000370: d231 a13d 35af 963d a122 453f a6ff 673e
00000380: a1e7 d53d 8b7b 16bf 6b87 babe 4ca8 16bf
00000390: 4c09 8f3d 69da c73d ff54 19be c3cc ebbd
000003a0: b322 bcbe 9f78 39be 1bcf 553c ae5b 8fbb
000003b0: 30c3 74bf d3dd ecbd 4877 24be 8ce2 98bd
000003c0: b61d bfbe a608 0d3e a464 00bd faf2 a53d
000003d0: 68b0 913c c4d4 b73d 4f95 7e3d b313 2b3e
000003e0: 976d e5bd 0ed0 cdbc ef6a ebbd c181 b6bb
000003f0: 8b4b 293c 4f89 a53e d58d 8cbd 9f7a 0c3e
0.04662772 -0.14678976 -0.11868324 0.08044974 -0.39535844 0.21806479 -0.08952389 0.08047723
-0.19091919 -0.20487817 -0.5288103 -0.26309735 0.19297166 0.21044727 -0.029158402 0.15356326
0.14337328 0.4609825 -0.16114141 -0.13667193 0.012958858 -0.02610675 0.072018355 -0.10772599
-0.08850823 0.097796835 0.10086364 0.2324717 0.06521835 0.08206841 -0.16561528 -0.0034146768
-0.040619098 -0.5530528 -0.44249895 -0.26824066 -0.8940686 -0.7329565 -0.3702933 -0.400961
0.076305196 -0.7701122 -0.07632896 0.29778185 0.03238879 0.30297858 -1.0771544 -0.22516587
-0.017324017 0.03294747 0.16566986 0.01303946 -0.07315577 -0.1635778 -0.008213633 0.12348331
-0.029103927 0.3018364 0.021107612 -0.1327521 0.027048364 -0.15431614 1.0738065 0.08240815
0.26695317 -0.3300764 0.09214254 -0.08354833 -0.48668057 -0.5537633 -0.019659866 -0.19731377
-0.069605574 -0.42636424 1.286593 0.41039476 0.0152892 -0.0688613 0.044638187 0.019591568
0.12914822 0.24742249 -0.047761403 0.02947223 -0.0048810528 0.062513 -0.07349218 0.040619377
0.080602914 0.05837905 0.041059785 -0.10854617 0.37055334 0.8086836 -0.1773805 -0.26660237
0.31574935 0.14358836 -0.016943082 0.080058 0.05091782 0.2371845 -0.016623124 0.03843808
0.025698941 -0.13392694 -0.05909856 0.008890945 -0.04861696 -0.18223597 0.1928135 0.096047506
-0.65664977 -0.6900118 0.4987034 -0.010650777 0.15043071 0.21063763 -0.5745731 -0.53692466
0.0018182031 -0.47629017 -0.01927863 0.05142747 0.048426565 -0.019445725 -0.08691283 -0.22451706
0.036042877 0.02446135 -0.31401786 -0.059854466 -0.011310315 0.056679588 -0.04139035 0.02708627
-0.077114314 0.14816424 0.46026108 0.43454596 0.12274436 -0.45291537 -0.19867411 -0.0244773
-0.3413087 0.07923337 0.022723526 0.4926055 0.06029634 0.1090105 -0.6357528 -0.08358637
-0.20285624 -0.040485222 0.52301013 0.14757414 -0.7280091 -0.27838284 0.043026563 0.05484349
0.14239357 -0.48187816 -0.109814025 -0.22819094 0.11190493 -0.1919513 -0.09421795 0.11458201
0.09734642 0.08355588 0.14364538 0.15034735 -0.20570068 0.1637126 0.545095 0.3709381
0.14172663 -0.24232498 0.028173406 0.07274219 0.14561933 0.1303207 0.08599003 0.7609345
0.124500565 0.40844578 -0.23649162 0.22244349 -0.12637284 -0.14438435 -0.022146791 -0.25955546
0.1717571 0.2898134 0.25347754 -0.33597377 -0.13915694 0.61309326 -0.26387614 -0.35147655
0.087563135 -0.18747793 -0.06643847 -0.16356207 -0.01621089 0.100880526 0.052503765 -0.016466074
0.045988973 -0.057267316 0.050812785 0.12716365 -0.111869864 -0.4246502 -0.045476753 0.043329626
0.10408636 -0.12636556 -0.04933993 -0.101492256 0.078708306 0.07357637 0.77005965 0.22656116
0.1044457 -0.5878226 -0.3643144 -0.5885055 0.06984195 0.09758455 -0.1497383 -0.115136646
-0.36745223 -0.1811242 0.013049866 -0.0043749427 -0.9561033 -0.11565747 -0.16061127 -0.074650854
-0.37327355 0.1377283 -0.03134598 0.08102985 0.017784312 0.08976129 0.06215411 0.16706733
-0.11202543 -0.025123622 -0.11495005 -0.005569667 0.010332952 0.3233132 -0.0686299 0.13718651

lstm.weight_hh_l0 f4 [512, 128]
00000000: 1fff aabe 5e58 863b d284 0c3e 066d 50be
00000010: f8fc a73e b393 ffbd 6585 aa3e 96d9 223e
00000020: 5eb6 64be b2b1 cf3e 6081 c43e 94de 593e
00000030: e736 99be b7f8 183e 16d5 d13c a7af acbd
00000040: ef3e 12be f892 05bd 6edb 14be 5947 533d
00000050: 2706 0f3e 6e62 39be ec3b ba3d a36b 51be
00000060: 6281 11be 98fc bc3b c1ed 703e 245c 953e
00000070: 6a48 92bd 63aa b53e 3520 a83e 63c6 2ebd
00000080: 9344 3dbe c504 913e 6b81 bbbe 899e 173e
00000090: f093 15be 7f1c 0ebe 047a 8bbe abc7 edbe
000000a0: 817a fabd 746d d0bc 268f 84be 2785 2c3e
000000b0: 67ed 6ebd f6b6 81bc a95a d1bd fc8c 1f3f
000000c0: bbbd 923c 7edb 573e 2a3e bd3e 3279 a9be
000000d0: 8c8b bb3e fecf febd 17a4 ec3c 4e3e 3bbe
000000e0: 52ee 253d 3835 2d3c a64f 91bd 6f61 cebe
000000f0: 4f8c 853e d0bc 66be de04 ffbc 69e9 15bf
00000100: 96f3 e7ba bf7f 733e 2cf9 e83d 66bd 203f
00000110: 502d 0d3e 0ff6 253e c4dd 843c 34c2 423e
00000120: 0d35 e73e c25b 993d c504 d23e cf2b a2be
00000130: 2a1c 393d 30c6 083d 0a22 d9be 8960 473e
00000140: 27c6 43be 1b55 b6bd 1b44 efbe 436e a5be
00000150: b3ab 9d3e 911b a6be b953 aebc 4e03 103c
00000160: c399 9a3e 3b2d 1cbf ed67 213f 6115 70bd
00000170: 86ae b63d 3433 e9bd c558 31bd 1d1d eb3e
00000180: ae44 bb3d fa88 ce3d b6e3 3d3d 56d6 0bbf
00000190: 825c 41be ee7c 703d 01aa 1a3c ad0c 33bd
000001a0: a5ed c43c b2e1 b2be eade d93e 84d1 bb3e
000001b0: b475 d7bd 41d6 5bbe 21d1 bc3e 227e 87be
000001c0: 876f cabd ef24 b6bc f7e1 3c3d c423 9abe
000001d0: f2db 373e fa6e 39be 94d3 1b3f aa1b cabe
000001e0: 6ce4 bb3e cd96 ae3d 2c7f fa3d 696f 8cbd
000001f0: 9acd bfbe 5d6e b7be 3a3c ba3e f8a4 0f3e
00000200: e2af 9abf 8f3a 08bf 7324 b5be 5532 e6bd
00000210: c4e3 cabe 0e9e 1b3e eab2 23be 090d e93b
00000220: 950b b6be ec50 5ebd 0d5c 80be 44ef f93e
00000230: 0c33 ebbe 2505 2dbe c092 753d 346e d13d
00000240: 325b 0cbf 893d 8b3d 6c9c 2c3e e237 3a3e
00000250: d2b1 be3e f21d f73a aa59 06be 4dd6 efbe
00000260: 9a12 a23e 326b 7dbe 9678 a6be 3860 f4bd
00000270: e917 34bf a7fc dbbd e96d 393d a6b6 a8be
00000280: 1103 b13c 999b ec3e 3d74 b4be 25a5 6dbd
00000290: 68e5 b6be 2e00 91bd 10d5 723c c9c3 913e
000002a0: 1a6b f23e 62f9 c6be 5b30 303c c7ff 10bb
000002b0: e63f 3cbf e65f 04bf f227 113e 1df8 69bf
000002c0: 73c4 9aba 58e9 04bf a52b e1bd 6a6a cbbd
000002d0: 856b 513e 6ea9 5f3e 6f6c 373d b241 f03d
000002e0: 9467 79be 22ee 023f eaeb da3d 2969 db3e
000002f0: 4025 0f3f f166 643e 690e 873b 9624 80be
00000300: 1669 b2be 52c7 4bbe a9b6 babe a861 043e
00000310: 342c 333c c732 04bd 8e4d eabe 98d2 91be
00000320: 71bc 4fbd 5f3f 9b3d 79ad b13e 8bcc 6d3e
00000330: b95f 33be f3e3 113c 5f28 71bc a92b c93e
00000340: e42c d43d 9c1a c8be 97c1 b9be 741d 6e3d
00000350: 193c 6b3e 086a 90be 9ee3 733d 679c 743b
00000360: 62e4 f53e e113 85be cd21 343d 5d25 fcbb
00000370: 111e e93c 2547 8bbd a6b1 903d 36a6 94be
00000380: e4d8 163f a624 d33e dda5 a6be 6e71 09bf
00000390: bdb8 8a3e fd20 e1bd 42de 5a3f 52a4 12bd
000003a0: 8cbd 2ebe 02d7 a8be 1aa0 8dbd 3722 6ebe
000003b0: a92a a9be c62e 32bc 50dd 01bf 0078 f1be
000003c0: 10db 7ebd b1a7 c3be 9454 6fbe 6661 963e
000003d0: 19e1 263e fe5f 87bb 9a44 0dbf eabb 3ebe
000003e0: 7479 f23d 2924 a33d 6bb8 ff3c f954 7ebe
000003f0: e37d 863d db37 cabc 0963 fdbd abc4 2f3c
-0.33397767 0.0040998897 0.13722542 -0.20354089 0.32810187 -0.12479343 0.33304897 0.15903315
-0.22335193 0.40565258 0.38379955 0.21276313 -0.299247 0.14938627 0.025614303 -0.084319405
-0.1428182 -0.032610863 -0.14536831 0.051581714 0.1396719 -0.18103954 0.090934604 -0.20451216
-0.14209512 0.005767416 0.23528196 0.2917186 -0.07142718 0.35481557 0.32837072 -0.042669665
-0.1848319 0.2832395 -0.36622176 0.1480657 -0.14607215 -0.13878058 -0.27241528 -0.46441397
-0.12230397 -0.025442816 -0.25890464 0.16847669 -0.058331873 -0.015834313 -0.1022237 0.623245
0.017912736 0.21079823 0.3696149 -0.33100277 0.36629903 -0.12442015 0.028886838 -0.18285486
0.040510483 0.01057177 -0.0709527 -0.4030871 0.2608361 -0.22532964 -0.03113025 -0.5855928
-0.0017696496 0.237792 0.11375651 0.62789 0.13786817 0.16207145 0.016219027 0.19019395
0.45157662 0.074882045 0.41019264 -0.31674048 0.045192875 0.03339213 -0.42408782 0.19470419
-0.19118558 -0.08902951 -0.46731648 -0.32310686 0.3079506 -0.32442906 -0.021280156 0.00878985
0.30195436 -0.61006516 0.63049203 -0.05861414 0.089200065 -0.11386719 -0.043297548 0.4592065
0.09143959 0.1008472 0.04635974 -0.54623926 -0.18882945 0.058712892 0.009439946 -0.04371326
0.024039099 -0.34937817 0.42552882 0.36683285 -0.10520497 -0.2146845 0.36878303 -0.2646342
-0.098845534 -0.022234408 0.046113934 -0.30105412 0.17954996 -0.1810874 0.6086972 -0.3947423
0.3669771 0.08524857 0.12231287 -0.06857187 -0.3746155 -0.35826388 0.36374074 0.14027774
-1.2084925 -0.53214353 -0.3537937 -0.11240069 -0.39626896 0.15197012 -0.15986219 0.0071121496
-0.3555571 -0.054276392 -0.2507023 0.48815358 -0.45937383 -0.16896494 0.059954405 0.10226098
-0.54826653 0.06798846 0.16856545 0.1818538 0.3724504 0.0018853529 -0.13120142 -0.46843186
0.31654817 -0.24747923 -0.32513875 -0.11932415 -0.70348984 -0.10741549 0.045270834 -0.3295185
0.021607907 0.46212462 -0.35244933 -0.058018822 -0.35721898 -0.070801124 0.014821306 0.28469685
0.47347337 -0.3886214 0.010753716 -0.0022125111 -0.73535 -0.5170883 0.14175394 -0.91394216
-0.0011807814 -0.51918554 -0.10994653 -0.09932406 0.20451172 0.21841976 0.044781145 0.117312804
-0.24355918 0.5114461 0.10689528 0.42853668 0.55916214 0.22304894 0.004121591 -0.25027913
-0.348458 -0.19900253 -0.36467484 0.12927878 0.010935832 -0.032274988 -0.45762295 -0.28480983
-0.05071682 0.075804465 0.34702662 0.23222558 -0.17516984 0.008904445 -0.014719098 0.39291123
0.10360125 -0.390828 -0.3628051 0.058133557 0.22972144 -0.28205895 0.059543245 0.0037324668
0.48025805 -0.2599173 0.043977547 -0.0076948837 0.02845672 -0.06800679 0.07065134 -0.2903306
0.589247 0.41238898 -0.3254842 -0.53688705 0.2709407 -0.1099262 0.8549539 -0.03580124
-0.17064494 -0.32976538 -0.069153026 -0.2325524 -0.3304036 -0.0108754095 -0.5072832 -0.47161865
-0.062220633 -0.38213876 -0.23372108 0.29371184 0.16296805 -0.004131316 -0.551828 -0.18626371
0.118395716 0.079658814 0.031215867 -0.24837102 0.0656698 -0.024684837 -0.12372405 0.010728042

lstm.bias_ih_l0 f4 [512]
00000000: 347c ffbb 8672 e6be 2426 45bf d00c 13bf
00000010: 2274 50be 4552 b9be 705f 31be ba8a 9abe
00000020: 47d9 23bf 8d37 583e 6e7c 3d3e d2f0 e83d
00000030: 7425 25bf abd4 0dbf 93b4 bcbe 72ad 6fbe
00000040: 60a5 30be e632 e3be 2f55 91bd c062 b3be
00000050: f525 5dbf 9951 c8be e4c2 a7be 2b0b aa3e
00000060: e49e f5be 8270 5bbe c273 fabe 143b 92ba
00000070: 8f2b 883e 6076 f2be bb53 58bd e16d dcbe
00000080: 74fa 9cbe 9313 fabe 6920 853e 3ea8 e9be
00000090: f788 3abe 2237 2bbf 099d c23d 44f7 bebe
000000a0: 60f0 9dbe a9ed 8ebd b207 13bf fde2 8cbe
000000b0: 7368 51be 9aec 72bf a4d6 83be 8b00 acbd
000000c0: 5e89 1bbf 2182 f3be 5182 37bf 9aaf c0be
000000d0: a83f 57bd 613d 3dbf 8e88 c03e a50f 773e
000000e0: 850d 56bf 20e9 803f 4f2e 07bf d57e f9be
000000f0: f54e 06be 1d03 6bbf 1f09 c1bd 3a40 bb3e
00000100: e1aa 23bf d6f5 b9be f0c7 8cbf fccc 76bf
00000110: c7a8 24bf 7dde a1be d72d 50be bf18 a0be
00000120: e019 94bd 0a9c 27bf c2c7 dfbe 3b7e 23be
00000130: 091c 343c 0b3e 10bd f8da 5dbd 7972 c9be
00000140: c4e2 24be d177 4abf 6493 29bf d6c7 d7be
00000150: 7b63 fbbe 47f1 1bbf 0aaf b8be 49b2 0fbf
00000160: f1f6 edbd f53b 14bf bf4b 05be 6948 40bf
00000170: 7c77 12bf 4c9e 71bd cea8 eebd 7ed3 ebbe
00000180: d49f d3be 7b64 33bf d736 eebe 113a fabd
00000190: 2231 61be 0d21 4cbf 148b 5abe 0634 0dbf
000001a0: e473 5abe 6783 1bbf 464f aebd 857c 85be
000001b0: 01e2 f6be b7ea 48be a585 01be 0f78 d7be
000001c0: 18ab f1be 834a 1fbe 2c0f a53d e801 b2be
000001d0: 32f2 a3bd 3d36 5dbe dee8 b9be 5a0a fbbb
000001e0: ad24 643e fd37 03bf 7629 eabe 04f4 21bf
000001f0: 9ba6 82be 6877 63bf 2c40 53bf 07a2 43bf
00000200: 81c7 fbbe 4334 0c3f d906 7b3f d01b 05bf
00000210: ccdf f93d 1f85 933f 4204 f23d 7122 023f
00000220: c1a1 3c3f 05c6 393e 846c a63f 50a5 1ebe
00000230: e131 a0be bf3d 503f 5ace 91bf d750 0f3f
00000240: 7fce 23bf 439c 6a3e ef75 52bf f1f1 613e
00000250: 6004 173f a227 5b3f 25f7 123e 4f99 cfbe
00000260: f3c8 1b3f 4a23 36bf 83b5 a33f a5bc 0abf
00000270: 51bd 3d3f fb85 4a3f 938e 10bf 4638 2a3f
00000280: 9d34 54bf 60ee 57bd 481d 6fbf f409 663d
00000290: fcda 273e 2093 bc3e 71d2 c73f 4fdc 843f
000002a0: 9cd0 16bf d0f5 6fbf 4472 8a3d 7e08 17bf
000002b0: 2bd9 4dbf cbc1 3b3e ab1b 01be 7549 3e3d
000002c0: 8bb2 3abe ad76 95be be3c 013f ee7e 83bf
000002d0: 0a2b fabe de5d 30bf 0d1f 66bf dfdc 04bf
000002e0: f483 f23e 6942 053f 019b 763e 4905 093f
000002f0: 0054 81bf c121 d0bd c36f 013f fd61 083d
00000300: bef5 883f 47aa 4bbf 3cb1 6d3d 40ba 0e3f
00000310: 92a6 543f db21 70bf be5c 263e 4ae4 9c3f
00000320: 5789 4d3e 3fb8 5ebf a0b0 64bf 48d0 be3d
00000330: 0fe6 803c 0bf5 e33e 9c94 d2bb 63fb 81bf
00000340: eb66 c43d a592 6d3f 5a22 39bf 4355 933f
00000350: 3e65 443e ef54 1a3e 7df4 d5be 36d1 203f
00000360: b8e9 9bbe 5391 57be d136 363f 0119 d3bd
00000370: 106e 8f3f 0b0e 6d3e 9223 3bbf 68ed 28bf
00000380: 025e 42bd 594b 803d a7aa 0e3f cc8d c83f
00000390: 6806 f0bc 0df2 243e 504f 653f 57b9 56bf
000003a0: 85ce 9e3e ca07 893e d4bd 84bf d750 dc3e
000003b0: f55a 943e 165d 11bf 2f7b ebbd 9de4 00bf
000003c0: 92e0 bdbe be1d 0fbf 3d6e 13bc ae69 e8bd
000003d0: e1de ee3c 43b9 de3e 4f25 a73f 1f05 2cbf
000003e0: b3e3 cc3f b66b 41be 7c34 6fbe 2b28 4ebf
000003f0: 291e bd3f 4e1c 4a3f a4d5 703f 0bd1 7c3d
-0.0077967886 -0.4500925 -0.7701132 -0.57441425 -0.20356801 -0.3619558 -0.17321563 -0.30183965
-0.64003414 0.21114941 0.18504497 0.11374058 -0.64510274 -0.5540263 -0.36856517 -0.23406008
-0.17250586 -0.4437477 -0.070963256 -0.35036278 -0.8638604 -0.39124754 -0.32765877 0.33211645
-0.47972786 -0.21429637 -0.4891644 -0.0011156523 0.26595733 -0.47355938 -0.052814227 -0.4305258
-0.3065983 -0.4884306 0.2600129 -0.4563617 -0.1821631 -0.66881 0.09502608 -0.37298024
-0.30847454 -0.06978924 -0.5743362 -0.27516928 -0.2045 -0.94892275 -0.25749695 -0.08398541
-0.6075648 -0.47560218 -0.7168322 -0.37633973 -0.05255094 -0.7392178 0.37604183 0.24127062
-0.8361438 1.0071144 -0.52805036 -0.48729578 -0.13116057 -0.91801625 -0.09425568 0.36572438
-0.63932616 -0.3632037 -1.0998516 -0.9640653 -0.64320034 -0.31615058 -0.20329987 -0.3126888
-0.07231498 -0.6547247 -0.4370709 -0.15966122 0.010993012 -0.03521542 -0.054163903 -0.39345148
-0.16102129 -0.79089075 -0.66240525 -0.4214465 -0.49099335 -0.60915035 -0.36071044 -0.56131417
-0.11619366 -0.5790399 -0.13017176 -0.7511049 -0.5721357 -0.058988854 -0.11653291 -0.46059793
-0.41332877 -0.70075196 -0.46526214 -0.122181065 -0.21991399 -0.7973793 -0.21342117 -0.55157506
-0.21333271 -0.6074738 -0.08511214 -0.26071563 -0.48219302 -0.19620787 -0.12648638 -0.42083785
-0.47200847 -0.15555768 0.080595344 -0.3476708 -0.080051795 -0.21602722 -0.36310476 -0.007661146
0.22279616 -0.51257306 -0.45734757 -0.63262963 -0.25517735 -0.88854074 -0.82519794 -0.7641911
-0.49175647 0.54767245 0.98057324 -0.51995564 0.12200889 1.1525 0.11817218 0.50833803
0.73684317 0.18141945 1.3001866 -0.15492749 -0.31288055 0.8134422 -1.1391098 0.55982727
-0.63986963 0.22911172 -0.822112 0.2206495 0.5899105 0.8560735 0.1435209 -0.40546653
0.608535 -0.71147597 1.2789768 -0.541941 0.74117 0.7911069 -0.5646755 0.66492116
-0.8289278 -0.052717566 -0.93404055 0.056161836 0.1639213 0.36830997 1.5611097 1.0379733
-0.5891206 -0.93734455 0.06760076 -0.58997333 -0.804095 0.18335645 -0.1260821 0.046456773
-0.18232171 -0.29192105 0.5048331 -1.0273111 -0.4886096 -0.6889323 -0.8989113 -0.5189952
0.47366297 0.5205446 0.24082567 0.5352369 -1.010376 -0.10162688 0.5056116 0.033296574
1.0699995 -0.795567 0.058030352 0.55752945 0.83066666 -0.9380166 0.16246316 1.2257168
0.20071922 -0.8699989 -0.8933201 0.0931707 0.0157347 0.4452289 -0.006426407 -1.0154842
0.095899425 0.92801887 -0.7231804 1.1510395 0.19179246 0.15071462 -0.41788092 0.6281923
-0.3045175 -0.2105153 0.71177393 -0.103075035 1.1205463 0.23149888 -0.7310115 -0.65987253
-0.047452934 0.062643714 0.55729145 1.5668273 -0.02929993 0.1610796 0.89574146 -0.83876556
0.31016937 0.26763755 -1.0370431 0.43030426 0.28975645 -0.5678266 -0.11498105 -0.50348836
-0.37085396 -0.5590476 -0.008998451 -0.11348282 0.029159011 0.43500718 1.3058261 -0.67195314
1.6006988 -0.18888745 -0.23359865 -0.8053004 1.4774829 0.7894944 0.9407599 0.061722796

lstm.bias_hh_l0 f4 [512]
00000000: f56d 313c 61d2 07bf d289 39bf b5bb 08bf
00000010: 3056 81be a817 aabe bd72 1dbe fcee a0be
00000020: 9e8d 0ebf 1618 643e cf72 d43d 0b44 973d
00000030: 4bd4 12bf e86a 0dbf f152 d8be c1b4 9cbe
00000040: 3bb9 3cbe ba18 c7be 7373 eabd 70a3 eebe
00000050: 0608 5dbf 1291 cdbe 06eb aebe d2ad ea3e
00000060: 9235 cabe 5430 96be 098f febe 4df0 0abd
00000070: e320 9b3e 185e f7be 2413 803d 4bfe dfbe
00000080: 9139 9bbe 4687 e8be c805 403e 4700 c7be
00000090: a289 27be 9e77 2ebf 7d80 b23c 2f65 98be
000000a0: 4cdd b9be 8e74 9dbd d71f 22bf bfb3 c9be
000000b0: 4b78 36be 1af4 73bf 44df 9ebe 486d 42bd
000000c0: 5e89 1bbf 3b3f eebe b5f4 3dbf 13fe b1be
000000d0: 5292 1ebe b212 3dbf 9eb4 a93e 9fe3 563e
000000e0: 2e1d 7bbf 26b1 7e3f 4fc8 0bbf ca67 1abf
000000f0: afcf 11be d06f 6bbf 3be1 5abe 12f7 c13e
00000100: ea47 23bf 7be5 9abe 754a 9bbf ad69 79bf
00000110: efeb 31bf 1037 89be 71df 4dbe 2e50 aabe
00000120: 7094 8dbd 186d 21bf bbf8 cebe 9bea 50be
00000130: 0469 993d 56be 853d 4980 a9bd 4584 a2be
00000140: 1fd0 50be f1e9 2cbf bb25 13bf 5312 f6be
00000150: 93e7 12bf 934c 18bf da79 dcbe be00 0fbf
00000160: 3836 06be 23e7 1ebf 44b4 81bd 85e9 3dbf
00000170: 1dde f3be 2a89 3dba 5841 f6bd 668a f1be
00000180: c8e4 d9be 0c55 39bf 0f65 fabe 9136 8abd
00000190: e08e 69be fc22 5cbf 4246 b6be b819 1fbf
000001a0: d54e 44be 4f96 16bf 4b8c b0bd 4cfe 45be
000001b0: 9fce c7be 2a37 47be 11b7 85bd aef6 96be
000001c0: 576d f9be 8f83 57be 934d 7f3c 24ae 83be
000001d0: 83d2 36be 89e4 39be d0ec 9dbe 26aa 2dbd
000001e0: 2c7f 303e dfad 0abf c0c6 e7be 4dfb 1fbf
000001f0: 0bec 90be d67c 58bf 13ca 59bf 9626 5ebf
00000200: d815 efbe 1570 153f 5010 713f 51d9 05bf
00000210: 10fc 523e dac0 933f cbcd b93d e3a5 103f
00000220: 3e19 543f be51 673e 2fe5 943f 4ab7 fcbd
00000230: b165 e0be f6f6 543f 674e 97bf 1fb1 ff3e
00000240: 011c 24bf f22c 903e 0aa3 4ebf 1ea4 6c3e
00000250: 5936 133f 5719 3c3f 3f2c ff3d 1b80 e6be
00000260: a827 2f3f 990c 3abf c38d a43f 7631 09bf
00000270: 4fe4 4a3f a775 553f 0424 0cbf a562 283f
00000280: 84c3 4dbf d6b1 95bc 21d7 6dbf bf85 b9bc
00000290: 73de b93d ca19 c73e 6143 ce3f d289 8e3f
000002a0: f04a 1cbf 7ee3 75bf 3061 813d ea55 12bf
000002b0: 4837 45bf 4286 bf3d 08c1 12be acdd a13d
000002c0: 8bb2 3abe eeef 85be 3bfc 053f e778 7bbf
000002d0: cbc3 0fbf 9916 45bf fbd9 51bf 5564 06bf
000002e0: af68 ce3e 7214 133f 3e85 753e 0f05 1d3f
000002f0: 180a 85bf d733 cbbd 07b6 043f bedd d73d
00000300: 3c34 813f 849d 4abf 3062 e43d 8fff 123f
00000310: bd68 663f 8596 66bf 7e36 1f3e 4e5b 973f
00000320: 0472 173e f313 66bf ec9c 70bf 0bdc 0e3e
00000330: 6dc6 f53d 0f62 fe3e ac85 1ebd d403 7fbf
00000340: b7f8 0a3e b3c3 703f fbfa 34bf 5d76 943f
00000350: f762 883e a915 a93d c667 ebbe 7649 283f
00000360: b2b6 92be 4465 6bbe 2e5e 253f 05b3 b6bd
00000370: 5999 8c3f f870 9b3e 41aa 3bbf 487d 18bf
00000380: 0afb 823d 1bf8 733d d8d5 fd3e 22df c53f
00000390: 36b6 4abd f683 303e 20b5 663f 6220 5cbf
000003a0: 24c8 a43e 1026 623e 305f 83bf d601 b63e
000003b0: 2f6b 813e 6a7d 19bf 7152 61bd 2506 f1be
000003c0: 3f00 c5be 03fa 05bf 8f81 c83c 33a4 15be
000003d0: 98ce 883c 0ba5 eb3e b822 a33f 5eb8 2ebf
000003e0: e4d0 ca3f d569 89be 1c4b a2be 1c47 5bbf
000003f0: f337 bf3f 2d9b 4a3f deff 673f 0363 cf3d
0.010829438 -0.5305539 -0.7247592 -0.5341142 -0.25261068 -0.33221173 -0.153758 -0.3143233
-0.5568484 0.22274813 0.103734605 0.07386025 -0.57355183 -0.5524125 -0.4225078 -0.30606654
-0.18430035 -0.38886052 -0.114478014 -0.46609068 -0.8634037 -0.40149742 -0.34163684 0.4583574
-0.39493996 -0.29333746 -0.49718502 -0.033920575 0.30298528 -0.48313975 0.06253651 -0.43748698
-0.30317357 -0.45415705 0.18752205 -0.388674 -0.16361097 -0.6815127 0.021789784 -0.29764697
-0.3630165 -0.07688247 -0.63329834 -0.39394948 -0.17819326 -0.95294344 -0.31029713 -0.0474675
-0.6075648 -0.46532616 -0.7420152 -0.34764156 -0.15485504 -0.7385665 0.33145612 0.20985268
-0.980914 0.9948906 -0.5460252 -0.6031462 -0.14239381 -0.9196749 -0.21374981 0.37883812
-0.6378161 -0.30253205 -1.2132097 -0.97426873 -0.6950063 -0.26799822 -0.20104767 -0.33264297
-0.06913078 -0.6305709 -0.4042414 -0.20401995 0.07490733 0.06530444 -0.082764216 -0.3174154
-0.20391892 -0.67544466 -0.5747945 -0.48060855 -0.57384604 -0.59491843 -0.43061715 -0.5586051
-0.1310662 -0.62071437 -0.06333211 -0.7418445 -0.47630396 -0.0007230217 -0.12024182 -0.47175902
-0.4255736 -0.72395396 -0.48905227 -0.06748689 -0.22808409 -0.8599088 -0.35600477 -0.6214862
-0.19170697 -0.588231 -0.08620509 -0.19335288 -0.39024827 -0.19454637 -0.06529058 -0.29485077
-0.48716232 -0.2104628 0.01558246 -0.25718796 -0.17853741 -0.18153585 -0.30844736 -0.042398594
0.17236012 -0.54171556 -0.45268822 -0.6249283 -0.28305086 -0.84565485 -0.85073966 -0.8677763
-0.46696353 0.5837415 0.94165516 -0.52284724 0.20603967 1.1543229 0.09072455 0.56503123
0.82851017 0.22589776 1.1632441 -0.12339647 -0.43827584 0.8318933 -1.1820801 0.4993982
-0.6410523 0.2815929 -0.8071753 0.2310948 0.575048 0.73476166 0.12459611 -0.45019612
0.68419886 -0.7267547 1.2855762 -0.53591096 0.7925462 0.8338265 -0.54742455 0.6577552
-0.8037646 -0.018273275 -0.92906386 -0.022646783 0.09075632 0.38886863 1.6114312 1.113581
-0.61051846 -0.9605025 0.06317365 -0.57162344 -0.7703748 0.093517795 -0.14331448 0.07903609
-0.18232171 -0.26159614 0.52338 -0.9823136 -0.5615813 -0.76987606 -0.81973237 -0.52496845
0.40314242 0.5745307 0.23976609 0.61335844 -1.0393705 -0.09921997 0.5184025 0.10540341
1.0094066 -0.791466 0.1115154 0.574212 0.9000357 -0.90073425 0.15548131 1.1824739
0.14789587 -0.8987419 -0.93989444 0.13951127 0.12000737 0.49684188 -0.0387017 -0.99615216
0.1357144 0.94048613 -0.70695466 1.1598622 0.26638004 0.082560845 -0.4597761 0.6573709
-0.2865501 -0.22987849 0.6459683 -0.08920864 1.0984298 0.30359626 -0.7330666 -0.59566164
0.06395538 0.059562784 0.49577212 1.545872 -0.049490176 0.17237839 0.90120125 -0.8598691
0.32183945 0.22084832 -1.0263424 0.35548276 0.25277087 -0.5995699 -0.055010263 -0.47075
-0.3847675 -0.5233461 0.02447584 -0.14613418 0.016700074 0.46024355 1.274497 -0.6825007
1.5844998 -0.26838556 -0.3169793 -0.8565538 1.4938949 0.7914303 0.906248 0.10126307

lstm.weight_ih_l1 f4 [512, 128]
00000000: c409 0abf e502 a53d 23d8 d8bd 802b 663e
00000010: 5775 493f d6c2 0dbe 2370 763e 7fc7 03be
00000020: 2b22 6b3e fb3e 213e 1ad8 463e 5f7e f8b9
00000030: 1cf4 5a3f 7590 ab3e 7482 393e eaa4 b33e
00000040: 1ee3 20bf 42e9 163d 6027 723e 6818 f83d
00000050: c75a f6bc 6416 183e 654d bf3d f46f 33be
00000060: 5487 20bc b933 0f3e 45e7 db3d 45ba b8be
00000070: e6d0 afbd 5371 26bd 5ce7 bebd 1eab a23e
00000080: 88a2 a33e 8bb5 273d 5a34 cabe 0aa9 db3e
00000090: 4601 76be 2561 18be 0a33 91bc 12d8 12be
000000a0: aadb 05bd ae25 7c3c 1282 ce3d 1250 9b3d
000000b0: 91a6 92bc 9eda 0f3e f513 333e 4206 f9bd
000000c0: 0f9f 4f3c d11d c63d c049 633e 0f81 d6be
000000d0: bead 253f d9f7 cebe bbb1 0b3f a477 38bd
000000e0: 8ade eabc 491e ffbd a4ec 2b3e 333a fabd
000000f0: 3f9a 37be ae34 e93e b3b7 03bc 223a c93d
00000100: fe0e cdbe d50a cabb aa84 1bbd 4f78 6e3e
00000110: 80cf 62be baa0 52bc 7536 d93d 3839 10be
00000120: f5bf 833e 7889 723f c037 7fbd 8ec8 063e
00000130: 9849 d9be d6ac ca3e 36d9 68bd 6ccc eebb
00000140: e55c 783c 3e1f 65bc 86d5 cabe 2ae0 47bd
00000150: 35d2 fa3c 30af 243e 42aa d5be e951 83be
00000160: 58c4 9a3e 48bb 373f b8ae 533d 211e e3bd
00000170: 422f bd3e 91e4 f33c cb1b 9ebd 64ea 51be
00000180: b933 d2be 1138 90be 69ee f4be b74e cc3e
00000190: b5b0 eabe 1579 153e bdac 72be 8ce1 09bf
000001a0: e6ee 7b3e 64db bf3d b6bb 303f e663 86be
000001b0: a054 37be 4b19 b83e 1883 a83e 8a0f 8f3c
000001c0: ebea fe3d c7ad 3cbe 8632 86be 614d a33d
000001d0: b41f 2bbd 243b e4bd 86f2 d03b dfde 96be
000001e0: 7291 31be d820 acbe b362 863d a0bd 63be
000001f0: 60b1 f13c 11e6 f53d b052 813c 65cb 913e
00000200: 61b2 95be 63e8 0e3e 4190 dd3e 5372 203e
00000210: b026 0f3f 476b 4bbe 1813 63be d846 17be
00000220: a998 d9bc da63 88bd 8710 f7bc 0d3d af3d
00000230: a902 a4bd eb8a 11be 2eaa a03e 502c d1be
00000240: 52e7 43bd 05ac f33d c793 cbbe 8fa2 243e
00000250: f06d 83bd dd3e 71be 7c82 60bc 2c3a 8c3d
00000260: 9029 bbbd 2c04 c13c 5bd8 d9bd a614 6d3e
00000270: 0d85 313d cbb4 633e d8c9 313d 3138 553e
00000280: 628b 55bd cf9c 203c 6e78 7e3c 1673 59be
00000290: f3fe bd3d f29e 143e bd27 723e 5072 ed3c
000002a0: 5e37 30be 8028 e1be 4743 2ebd 18d4 c6bd
000002b0: 9c8c 5c3e c973 84bd b62d ecbc 2a7f b9bd
000002c0: 0ff1 ac3c f5b0 debd 982c 9c3e 981b 053f
000002d0: f8d2 833e 5bcd 57be 90da 7fbe 7d0c 22be
000002e0: 7fe8 2cbd aea0 81be a1dd e6bd fe3e d2be
000002f0: 072b e5bd 5cfc 1b3e fca9 ff3e 4d2a 26be
00000300: 6059 03be a45a b1bd d43c 8abd 2730 e53c
00000310: e6c7 2cbe 603a ed3e 0bdc c2bd 026a 83be
00000320: e5af 5abe 9408 a4bd 4632 103f e88c 14bf
00000330: 8044 8c3d a928 193d 7420 bdbe 670c 293e
00000340: 7d2f eb3b 67c3 503e e498 ad3e 7193 52bd
00000350: a991 86bd 876a 9dbe 744a 783d d2a2 963d
00000360: 6933 3abd 6711 bfbe d381 483e da71 a83b
00000370: b8f9 a83c da04 b2bd 260e c0be 9621 f63e
00000380: 7564 8e3d 1315 a5be 2e87 69bd 6048 8f3e
00000390: dacc 2c3e b6d6 303d 8385 4c3d 99c1 c83e
000003a0: 50e2 ba3e a84b 6ebd 0c5b f23d 15f2 f43e
000003b0: 7ed8 a63d 39c7 0abd a30a 8fbe 41be 1b3e
000003c0: 28e7 6abd c604 9ebe 93a2 5f3e 4bee d9bd
000003d0: 6df5 3a3e 6515 923d bb6d a1bc 54b1 04be
000003e0: ebb8 8cbd 1eac a73d 87df 67be 8573 473e
000003f0: 6d7b b03d 4ab5 9d3e 644c d2bd 90f3 7cbe
-0.5392115 0.08057193 -0.105881 0.22477531 0.7869467 -0.13843855 0.24066214 -0.1286907
0.22962253 0.15746681 0.19418374 -0.000473964 0.8552873 0.3350865 0.1811617 0.35086757
-0.62846553 0.036843546 0.23647833 0.1211403 -0.030072583 0.14852291 0.09340934 -0.17523175
-0.00979789 0.13984574 0.107374705 -0.36079612 -0.08584766 -0.04063542 -0.09321472 0.31771177
0.3195994 0.040944617 -0.39493066 0.42902404 -0.24023923 -0.14880808 -0.017724533 -0.14340237
-0.03268019 0.015389843 0.10083403 0.075836316 -0.01790169 0.1404824 0.17488082 -0.12159397
0.0126722 0.09673656 0.22196102 -0.4189534 0.64718235 -0.40423468 0.5456807 -0.045035973
-0.028670568 -0.12456948 0.1678949 -0.12218132 -0.17929934 0.45548004 -0.008039403 0.09825541
-0.400505 -0.006165842 -0.037968315 0.23288082 -0.22149467 -0.012855703 0.1060609 -0.14084327
0.2573239 0.9474101 -0.062309027 0.13162443 -0.4243896 0.39584988 -0.056847773 -0.0072875526
0.0151588665 -0.0139844995 -0.3961603 -0.048797764 0.030617813 0.16082454 -0.4173146 -0.2564843
0.30227923 0.71770144 0.051680297 -0.11089731 0.36950117 0.029772075 -0.07720145 -0.20499569
-0.41055086 -0.28167775 -0.47838143 0.39903805 -0.45837942 0.1459697 -0.23698707 -0.5385978
0.24602851 0.09368017 0.69036424 -0.2624809 -0.17903376 0.35956797 0.32912517 0.017463464
0.12447151 -0.18425666 -0.2621042 0.07973743 -0.04177828 -0.11144093 0.0063765673 -0.29466912
-0.17340639 -0.33618808 0.06561794 -0.22240305 0.029503524 0.12006772 0.015786499 0.2847549
-0.29237655 0.13955836 0.4327412 0.15668611 0.5591841 -0.19865142 -0.22175252 -0.14773118
-0.026562052 -0.0665967 -0.030159248 0.085565664 -0.0800832 -0.14213149 0.31379837 -0.4085412
-0.047828026 0.118980445 -0.39761183 0.16077636 -0.06417453 -0.23559137 -0.013702985 0.06847033
-0.09138787 0.02356156 -0.1063697 0.23152408 0.043339778 0.22236936 0.043405384 0.20822217
-0.05213488 0.009803011 0.015531642 -0.21235308 0.09277143 0.14513758 0.23647971 0.028985173
-0.17208621 -0.43976212 -0.04254463 -0.097084224 0.21538013 -0.06467397 -0.02883039 -0.09057458
0.02111104 -0.108735956 0.30502772 0.5199523 0.25746894 -0.2107443 -0.24985719 -0.15825076
-0.042213913 -0.253179 -0.11272741 -0.41063684 -0.111898474 0.15232986 0.49934375 -0.16227074
-0.12827063 -0.086598665 -0.06749883 0.027977062 -0.1687313 0.463336 -0.09514626 -0.25666815
-0.21356161 -0.08009449 0.5632671 -0.58027506 0.06849003 0.037392292 -0.36938822 0.16508637
0.007177292 0.2038704 0.3390571 -0.051410142 -0.06570751 -0.30745336 0.06061788 0.07355274
-0.045459185 -0.37317964 0.19580774 0.0051405253 0.020626888 -0.086923316 -0.37510794 0.480725
0.069527544 -0.3224264 -0.057013683 0.27984905 0.1687502 0.043173514 0.049932014 0.39210203
0.36500788 -0.05817762 0.11833772 0.47840944 0.08146761 -0.0338814 -0.27937803 0.15209295
-0.057349354 -0.30863017 0.21839361 -0.10641154 0.18257685 0.07132987 -0.019705644 -0.1295827
-0.06871208 0.081871256 -0.22643863 0.19477661 0.086172916 0.30802375 -0.102684766 -0.24702287

lstm.weight_hh_l1 f4 [512, 128]
00000000: c7b2 dc3e 667c 473e 2b20 b2be 56dd b0be
00000010: bdc0 353e 8597 ea3e 9672 03bb a42b 9e3d
00000020: 67eb 80be 8c3b 4cbd 3b89 233d 1daa 40be
00000030: ab92 97be 9578 d5be 6f89 2d3e 1118 9a3d
00000040: 17d2 14bf c525 ca3e a0a0 023f db5f acbe
00000050: 8286 dabe faf8 523e 4db3 11be af0a c4bd
00000060: e86d c63a a12d 4abe e883 e93e d66b 85be
00000070: 86bb 55be 16a5 90bc 148f 803e c592 fb3e
00000080: 3240 193e 631c b2be 44e4 013e 5580 51bf
00000090: 95f8 42be 120b 86be d097 e8be b17e 7c3e
000000a0: 9db9 97bb e005 dfbe 9004 a53e 5737 323f
000000b0: 2444 c23d 1692 01bf 7297 01bf 021c c6be
000000c0: d891 7abe f2c1 4c3d b3a3 02be c154 25bf
000000d0: 4b7e 89bd 3838 583f d361 e03e 9633 433f
000000e0: b5b0 7cbe bf4b a7be e2ca ebbe ff5d 013e
000000f0: d75f 9a3d 9c36 d43d 2248 9cbf d2c8 4cbe
00000100: 0317 093d 97bf 1ebf a7ef 93be d8aa afbe
00000110: 0115 1d3f 802d 883e 68c4 4c3e f199 30be
00000120: 9626 0dbf 0635 293d b789 ddbd 5abe 793e
00000130: 6f3a a8bd 01a0 86be 6020 d03e b9d4 a43e
00000140: 907c 333d f562 7d3d 414d dbbe 04a2 3a3d
00000150: d3ae 05bf c6af 953e 137d 27bf c6ee 6b3e
00000160: b5d6 04bf 5b20 523e de49 9f3d ab9d 0ebf
00000170: 8ad1 44bf fe1a e03c 20c6 1a3f 2610 5dbe
00000180: 6a1c c1be 4c29 09bf a60f 34be fbc7 86be
00000190: 0e0d a4be 002b da3d 236c 76be 4f6a 9a3e
000001a0: be0e 42be 3c99 a0be bae1 b13d 5c8a 333e
000001b0: 43c5 00bd b641 4ebe 6b46 47be 0e80 a13d
000001c0: d453 123f 5649 753e e91b bd3e 4dbf 2bbe
000001d0: 4e9a a2bd aec6 8cbd 8e87 983d 00e5 233f
000001e0: 4c95 9d3e c2ef 1ebe e6d0 403c 1a7d aa3e
000001f0: 8562 1a3e 57dd ebbe 1e24 9abe 1c28 40be
00000200: 0ac3 7fbe bd80 f73d c8bd 023d 4da9 56be
00000210: 2671 a93d 11ca 3c3d c02f 1d3e 4572 e43d
00000220: 1a32 b93d 0f63 803c f74c d2bd e502 a23e
00000230: 2131 6dbd 82cf cc3e 9f9d 24bd 7c77 923e
00000240: 3168 553d 8220 e13d 309b 94be 1df3 863d
00000250: bd29 74be 1955 1ebe 46d5 b53d 440f 8a3e
00000260: 27a6 a2bd da22 503e af49 1e3e 1402 16be
00000270: 00b7 863e 63b5 283f 6ff6 493e af81 8d3d
00000280: 2d4a d43e 22da b93d 6e88 353e 1326 943e
00000290: 8578 ec3d c991 f0be e6ed 773d 64fe 85bd
000002a0: 12a3 e13b bce5 83be 4d2f 29be 2185 06be
000002b0: 3049 8dbc 8ab3 ee3d 7ce7 10be ad37 e1bd
000002c0: 57e1 fe3d 38cc 473e f39d ff3c bc79 cfbe
000002d0: 987f 2b3d 6c79 f3be 874d 91be 3118 923c
000002e0: fa2e 38be 87c7 67be db08 9a3e 7ba3 4dbe
000002f0: a509 bebe 7259 d83e 6e2a 25be 4170 5b3e
00000300: 505a 7abe 4d57 55bd 0c82 2f3e 7f9f 513e
00000310: 9601 9d3d 89d2 113e 80eb ba3d d9e8 f9bd
00000320: 7902 5dbe 5400 a3bd f189 2dbe 5e8c cbbc
00000330: c4d0 0f3e 84e4 abbd 010d 09be 341d 5f3e
00000340: c580 993e e470 0dbd 4090 1fbe 0607 4fbe
00000350: b9b5 4d3e 8c7b f03d 8c38 b7bd 190c c4bd
00000360: 5ecd a9be fd31 42bd 1f3b f53e deef fd3c
00000370: ee7a 3a3e b861 a0bc 79ef 913d 35a7 d03d
00000380: 4a1c c9bd 50a3 27bd cb6f 4f3e bcbc 3bbd
00000390: e0db 30be 5601 38be 158f e33d 6240 86be
000003a0: 8f40 9b3e 67f7 4ebc 34a3 e5bc 7bdf 2b3e
000003b0: 381a 6cbe e2e8 a83e 534b 17be e50c 363e
000003c0: e3eb b43e 1fe0 7cbd a788 c4bc 3720 073e
000003d0: 432a d3be 8d70 8fbd a4a2 063e 0412 1c3e
000003e0: d3b6 ffbd 9703 0e3e 0fab 86be 12ff f63c
000003f0: a0c8 bc3d 32da a53d 82ba 4d3e d46e 8fbc
0.43105146 0.19481048 -0.34790167 -0.34543866 0.17749305 0.45818725 -0.0020057312 0.077231675
-0.25179598 -0.049861476 0.039925795 -0.18814893 -0.29604086 -0.4169356 0.16946958 0.075241216
-0.5813307 0.3948194 0.51026344 -0.33666882 -0.42680746 0.2060279 -0.14228554 -0.0957235
0.0015138956 -0.19743969 0.4560845 -0.26058835 -0.20872316 -0.017656844 0.2510916 0.49135414
0.14965895 -0.34787282 0.12684733 -0.81836444 -0.19040139 -0.2618032 -0.45428324 0.24657704
-0.004630281 -0.4355917 0.32230043 0.6961569 0.09485653 -0.50613534 -0.5062171 -0.38693243
-0.24469697 0.04998965 -0.12757759 -0.6458245 -0.067135416 0.84460783 0.43824634 0.7625059
-0.24676783 -0.32674977 -0.46053225 0.12633513 0.07537811 0.103619784 -1.2209513 -0.19998482
0.03346921 -0.6201109 -0.28893778 -0.3431003 0.61360174 0.26597214 0.19996798 -0.17246224
-0.55137 0.041310333 -0.10817283 0.2438902 -0.0821427 -0.26293948 0.406497 0.32193545
0.043819964 0.06186195 -0.42832378 0.045564666 -0.52219886 0.29235667 -0.65425223 0.23040304
-0.51890117 0.20520155 0.07777761 -0.5570933 -0.7688223 0.02735662 0.60458565 -0.21588191
-0.3771699 -0.5357864 -0.17584094 -0.26324448 -0.3204121 0.10652733 -0.24064688 0.30159232
-0.18950936 -0.3136691 0.08685632 0.17533249 -0.031438123 -0.20142254 -0.19460456 0.078857526
0.5715916 0.23953757 0.36935356 -0.16772194 -0.079395875 -0.06873833 0.0744773 0.640213
0.30777967 -0.15521148 0.011768555 0.3329857 0.15076645 -0.46067306 -0.3010568 -0.187653
-0.24976745 0.12085102 0.03191927 -0.2096302 0.082735345 0.046091143 0.15350246 0.11154608
0.09042759 0.015672235 -0.10268586 0.31642833 -0.05790818 0.40002066 -0.04018938 0.28606784
0.052101318 0.109925285 -0.2902465 0.06589339 -0.23844047 -0.1546215 0.08878569 0.26964772
-0.07941847 0.20325795 0.15457796 -0.1464923 0.26311493 0.65901774 0.19722913 0.06909501
0.41462842 0.09074809 0.17727825 0.28935298 0.11546425 -0.46986225 0.060529612 -0.06542662
0.0068858946 -0.2576121 -0.1652195 -0.13136722 -0.017246813 0.11655338 -0.14150804 -0.109969474
0.12445324 0.19511497 0.031203246 -0.40522563 0.04186973 -0.47553575 -0.2837946 0.017833801
-0.1798667 -0.22634707 0.3008488 -0.20081894 -0.37116733 0.4225574 -0.16129467 0.2142954
-0.24448514 -0.05208521 0.17139453 0.20470999 0.07666318 0.14240469 0.09126949 -0.12202615
-0.21582974 -0.07959047 -0.16947152 -0.024847206 0.14044482 -0.08393195 -0.13383867 0.21788484
0.29981056 -0.03453149 -0.15582371 -0.20217523 0.20088853 0.11742315 -0.08946332 -0.0957262
-0.33164495 -0.047410954 0.47896668 0.030998167 0.18210956 -0.019577846 0.07125754 0.10188142
-0.09819849 -0.04092723 0.2025749 -0.045834288 -0.17271376 -0.1796926 0.11111275 -0.26220995
0.30322692 -0.0126322275 -0.028031923 0.1678447 -0.23056877 0.32990175 -0.14774828 0.17778356
0.35336217 -0.061737176 -0.023990942 0.13195883 -0.4124318 -0.07003889 0.1314798 0.15241247
-0.12486043 0.13868557 -0.26302382 0.030150924 0.09217954 0.08098258 0.20090678 -0.017508902

lstm.bias_ih_l1 f4 [512]
00000000: ea54 51bd 0f3b 0b3e bea5 99be ce92 2abe
00000010: 5951 bfbe 181b 823e 9cad 87be 9aea 823d
00000020: d0c0 b6be 09d0 8fbd 9b30 51be 68ea 223d
00000030: 32f1 86bd bcc2 663d 5ae9 50be 0816 45be
00000040: 308c e2bd 5b75 08bf 37fe c4bd 2749 ae3d
00000050: d54f 9d3e f0f2 93be d01d 0dbe 4401 5c3b
00000060: 6f57 debc 3fea cebe 0d65 9ebc dfb6 0abf
00000070: 7017 cc3e 5552 5e3c 23c3 c53c 82dd 423e
00000080: 575e 0ebd e8fd 33be 780c babe ce8e 333e
00000090: 0039 8b3e 03d0 11bd 2b77 f8bd 7f20 323e
000000a0: c057 3d3d d9f8 ff3c 0e77 57be d313 233d
000000b0: 358a d8bd 8be1 a0be a7c5 af3e 81e2 263e
000000c0: 3603 f6bb c7d9 d2be 8af4 46be 4137 5b3e
000000d0: f4ea b13d d94b d2be 030f 133d 29c1 e43c
000000e0: 9e89 a4be e919 3dbe e3cc d9bd 60f9 55be
000000f0: d732 3fbe c89f dbbd 6722 783e 964a 5fbc
00000100: 020d 68be d467 e9bd b6c3 433e 38e7 99be
00000110: c60a 34be b699 27bf 458c 3cbe 05d2 783d
00000120: ee61 313e cc9b f6bd b1b4 57be e64e 09bf
00000130: 6d68 803d 238a d0bd 1f8b 66bd 28f2 c3be
00000140: 44b8 efbd 54ac 0a3e e268 603e 0954 84bd
00000150: 7739 0ebf 7110 bdbe 5920 f2be e84d d8be
00000160: 5afb a03e 2190 dabd d604 5c3e b68e 9c3c
00000170: 1c0d 983e c56e ec3c b5b6 853e c226 443f
00000180: cc5c 97be 6011 a93c 20e9 e7be a362 12bf
00000190: c32e 95bd d91f 213e 6f7b 74be 7cb4 243e
000001a0: 7e84 febb 1d35 b7be 3112 983d f1ea ecbe
000001b0: 1a41 9e3d 0773 7f3b 6472 d9bd 2e29 a33e
000001c0: 0a45 5d3e d92e 7a3e 6309 99bd 8caa d2bd
000001d0: 8f67 7a3d 6b33 d7be 450b 98bd cbc2 88bd
000001e0: 545a 5d3e 2daa f0be 4db5 dfbe 2eff 81be
000001f0: 84e9 f5be 7f0f 723e f364 adbe 2798 29be
00000200: 4b8e 0fbe 824a 83be 387b 02be c551 473e
00000210: 004b 373e 5be3 a1bd c9c9 d7be 7c34 ab3d
00000220: 0e33 0a3f 8092 8e3c b011 a13d 8ab0 26bd
00000230: 2278 50bc e1c8 e73e 7a4d 2b3f 0cab 963c
00000240: 8b2a 863e 3fda b13e 8140 9bbe 7643 b63e
00000250: 28b1 1e3c cd97 63bb a097 153e 4d13 dcbe
00000260: cc6a aabe b911 ae3e 32a1 b83c 6342 fb3e
00000270: f6ed dfbe 35b2 d43e 2792 3abd a4e5 a83e
00000280: f27d 06bf 6308 75be dcee 033e e718 063d
00000290: 757a e4be 09fa 8dbe 27ed 01be feed e8be
000002a0: edf4 03bf ce89 f53e 695c 1c3f 5665 a53c
000002b0: 73e3 04bf 38d5 4f3d 35f9 38bf 83f9 91bc
000002c0: d205 7f3d 1ef3 d23e a040 e23d ec37 adbe
000002d0: b643 b1be d9fc 1b3f 868e bcbe e509 153f
000002e0: acc5 c13e c996 963e 2de0 82be 2dd5 843e
000002f0: 8fbb 5f3d 0b73 343d 5361 0bbf d965 7a3e
00000300: 0d71 b3be 741c 963e 47fd 65be c6b8 793d
00000310: 25a9 dbbe e1bd c83e 1e85 e63e 6745 803e
00000320: bb2d c1be f24d 33bc b6a8 4c3d 18aa c23d
00000330: c617 d23e 7fe3 48be fe2f b5bc 06a2 c5bd
00000340: 1bce 81be ef17 b53d bb05 f43e d993 fbbe
00000350: 27c9 433e 70ae af3e 1c51 533f 3644 073f
00000360: 4f46 9e3d e48e c7be 9ff9 8bbe 78d5 ca3d
00000370: 0eba c7be 9b59 99bd 80ec b7be 1c9a 933e
00000380: 8065 43be cdf8 b4bc c053 0b3f b0c4 193f
00000390: 3eb4 8ebe 8665 ae3e dc8b 9cbe ae19 c7be
000003a0: 6c67 513f 1fba e9bd f898 d13d c713 073f
000003b0: cb65 833e afc6 eebe e478 bd3e cba5 12bf
000003c0: 77c9 26bf 9d33 12bf 27eb c7be 51fd d6be
000003d0: 51bf af3e 295f fc3e c600 8d3e a764 93be
000003e0: 5d11 bebd 4388 f63e 8c19 de3e ac44 b5be
000003f0: fc09 363f f5e0 82be 5d7e 013d 9af5 96be
-0.05110637 0.13596748 -0.30009264 -0.16657564 -0.3736675 0.25411296 -0.2649964 0.06392403
-0.3569398 -0.070221014 -0.20428698 0.03977433 -0.06588973 0.056338057 -0.20401517 -0.19246686
-0.11061895 -0.5330407 -0.096188 0.085100465 0.3072497 -0.28896284 -0.13780904 0.003357009
-0.027141301 -0.4041309 -0.019335294 -0.5418529 0.3986163 0.013569434 0.0241409 0.19029811
-0.03475794 -0.17577326 -0.36337638 0.17534944 0.27191925 -0.035598766 -0.121321045 0.17395209
0.046226263 0.03124659 -0.2104151 0.039813828 -0.10573236 -0.31422076 0.34330484 0.16297342
-0.007507707 -0.41181776 -0.19429222 0.21407796 0.08687392 -0.41073492 0.03590299 0.027924137
-0.32136244 -0.18466915 -0.10634782 -0.2089591 -0.18671738 -0.10723835 0.24231873 -0.0136286225
-0.22661212 -0.11396757 0.19117627 -0.30059218 -0.17582235 -0.6546892 -0.18412884 0.060747165
0.17322513 -0.12041435 -0.21065022 -0.53636014 0.06269918 -0.101825975 -0.05628502 -0.38270688
-0.11705068 0.135423 0.2191501 -0.06461341 -0.55556434 -0.36926606 -0.47290304 -0.42246938
0.31441766 -0.10672022 0.2148622 0.019111019 0.29697502 0.028861413 0.26115957 0.7662164
-0.29562986 0.020638168 -0.45295048 -0.5718176 -0.0728431 0.15734805 -0.23875211 0.16084474
-0.007767259 -0.3578271 0.07425345 -0.46272996 0.07727261 0.0038978474 -0.106175214 0.31867355
0.21608368 0.24431933 -0.074724935 -0.102864355 0.061133917 -0.42031416 -0.074240245 -0.06677779
0.21616489 -0.47004834 -0.4369301 -0.2539 -0.4802972 0.23638724 -0.3386608 -0.16561948
-0.14019124 -0.25642782 -0.12742317 0.19464786 0.17899704 -0.07904693 -0.42146137 0.0835962
0.53984153 0.017403841 0.07864702 -0.040695705 -0.012723954 0.45270446 0.66915095 0.018392108
0.26204333 0.3473682 -0.3032265 0.35598344 0.009685792 -0.0034727931 0.14608622 -0.42983475
-0.33284605 0.33997896 0.022537801 0.49074087 -0.43736237 0.4154221 -0.045549538 0.32987702
-0.5253593 -0.2392898 0.12884086 0.032738592 -0.44624677 -0.27729824 -0.12688123 -0.45494074
-0.515456 0.479567 0.61078507 0.020189922 -0.5190956 0.05074045 -0.7225526 -0.017819172
0.06226141 0.4120111 0.110474825 -0.33831728 -0.34621972 0.6093269 -0.36827487 0.5821822
0.37846124 0.29411915 -0.25561658 0.2594389 0.05462223 0.044055026 -0.5444538 0.24452914
-0.35047188 0.29318583 -0.22459899 0.06096723 -0.42902485 0.39207366 0.45023435 0.2505295
-0.37730202 -0.010943877 0.049965583 0.09505099 0.41033763 -0.19618033 -0.022117611 -0.09650044
-0.25352558 0.088424556 0.47660622 -0.49136236 0.19119702 0.34312773 0.8254564 0.52838457
0.07728254 -0.38976204 -0.27338883 0.09903997 -0.39009136 -0.07487794 -0.35922623 0.28828514
-0.19081688 -0.022091294 0.5442467 0.60065746 -0.2787189 0.3406183 -0.30575454 -0.3888678
0.81798434 -0.11412453 0.102342546 0.5276455 0.256636 -0.4663596 0.37006295 -0.5728423
-0.6515116 -0.57110006 -0.39046595 -0.4199014 0.3432565 0.4929135 0.27539653 -0.2878773
-0.092806555 0.48150834 0.43378866 -0.35403955 0.71108985 -0.25562254 0.03161465 -0.29484254

lstm.bias_hh_l1 f4 [512]
00000000: 4436 6ebc d645 013e 1f3e 86be 472b 1cbe
00000010: ce9a b8be 092c 453e 056c 6fbe 875a 0fbd
00000020: a270 a2be 4b6d 44bd ae60 54be dea2 69bd
00000030: 33b4 8bbd f5e9 43bd 55b8 f4bd 4f21 62be
00000040: 2b60 14bd c0d0 0bbf 131d 30be c37c 353e
00000050: e58c bb3e 55eb 89be a118 4ebe 0b92 9c3d
00000060: f090 f2bc 61f8 bfbe e87f 97bd 291b 09bf
00000070: fe30 b13e a426 9d3c c4e3 4fba e8d0 e03d
00000080: 30b4 b8bd 34ab 4abe 8e43 efbe 1f7d 603e
00000090: 7077 8d3e 0953 ffbc 6baf 10be 8f5f ec3d
000000a0: 293d e5bb a929 333d 5323 e0bd 6ccb d6ba
000000b0: 47f6 2abd 9f02 b4be 93a9 ba3e 7cdc 493e
000000c0: 6258 1abd 34e9 02bf c587 19be a747 d23d
000000d0: afbf 083e da2c f7be 4728 983d 5024 153d
000000e0: 5cb9 a4be 2c23 edbd 89b4 5dbd 4a33 21be
000000f0: 4cc6 03be ad13 26bd 4f79 693e f0bc babc
00000100: 330d 3ebe bc30 2cbd 56ad 543e 9f05 7fbe
00000110: 8b86 52be 097b 23bf e959 52be 1409 9c3d
00000120: 2532 303e 2f8d 9abd fbba 7bbe 1cde f3be
00000130: 085c 2d3d 733e b9ba fb48 63bd 27b6 bebe
00000140: 1474 13be 437f 2d3e 5bc2 a93e 23fa 72bd
00000150: 70ee 1dbf 66f4 b3be 10a1 16bf 6384 12bf
00000160: 4d95 c13e 6a53 0ebe 9ef7 483e 37a7 9dbc
00000170: 56a3 923e 9651 a13d 44ef 763e caea 373f
00000180: 5e4c 8cbe 114a 9fbc 1921 e4be bd4d 00bf
00000190: ac35 d8bd da92 333e 7f2c 55be d591 373e
000001a0: 2f00 11be bd73 d7be 54ef bc3d 13a8 dcbe
000001b0: 94b8 7d3d fedb babd eb7a e4bd a6dd b33e
000001c0: 2055 943e 3c52 4c3e a09a 15be 2f91 06be
000001d0: fb66 be3d 3bd3 f7be 2453 0f3a ca8a 2abe
000001e0: 9cff 2c3e 0215 10bf 4891 0dbf 0265 a1be
000001f0: c135 03bf 1344 9d3e 9d78 e3be af1e 43be
00000200: 15e9 12be e5db 84be eb54 0dbe e7c4 5e3e
00000210: 0b68 f13d a324 1abe 243e e9be 8c64 c63d
00000220: ad16 0e3f 9a14 27bd b8dc 1c3e 98fe 8bbd
00000230: 5063 c23c b5ae ca3e 2751 163f e5d3 89bd
00000240: 8827 bb3e 0293 af3e dedb 9fbe d4f0 c63e
00000250: 8349 20bd e3de c3bc e8cb 6e3d 1d8a f1be
00000260: 3072 93be 0aab 993e fa4f 393c 19f5 e73e
00000270: 8380 d6be d445 d63e 8d5c e7bc 56a4 9f3e
00000280: 2856 e6be b81a 81be ba23 d83d d834 aabb
00000290: 0f72 b8be 1957 97be c9fb 4fbe 68c4 f3be
000002a0: 8639 19bf 9561 093f d3f6 073f 1e6b f0bb
000002b0: 13f3 04bf 4514 e8bb 3363 42bf 88f8 6ebd
000002c0: 845c 77bc 5b42 a83e c748 cc3d 0336 a6be
000002d0: d54a b7be 818c 2a3f c5e6 a2be a1d9 183f
000002e0: 998e ca3e f450 c63e dba3 9bbe b812 513e
000002f0: cbfd 7cbc 1495 ef3d 2a01 0ebf 0b31 533e
00000300: ca32 b2be abbb 643e b2e6 15be d630 6d3d
00000310: bc1d e8be 8b85 c23e 8634 cc3e ad26 863e
00000320: 5e06 cebe d6a3 0abd d0c3 cabc 2422 a73d
00000330: c6b6 eb3e ab55 4dbe cbf1 163c 0326 0abe
00000340: dccb abbe 87e1 c63d 185b fd3e d7d3 07bf
00000350: fd7a 513e ed14 c03e aa69 4b3f 27bb 133f
00000360: d791 983d 08cb b0be 25ed 8cbe 1b06 033e
00000370: 05e0 debe d56e 41be 5bac ccbe aba8 853e
00000380: a4ad 80be 1bb4 edbb 8a46 103f d4fd 2b3f
00000390: 2c90 99be 33bf b43e b5aa b1be d359 aabe
000003a0: 8460 573f cc7a cbbd 5c17 d63d e9a6 1e3f
000003b0: 2df2 803e deed d9be 59d1 c73e f96e 08bf
000003c0: 3b24 35bf aea4 0dbf 5793 abbe 3206 d4be
000003d0: 6ff7 ad3e 69ed 163f 2439 c53e 660d a0be
000003e0: 3555 41be 5c86 0b3f ea43 fe3e eb9f a7be
000003f0: 066b 253f f487 4bbe 67b0 a13c ce8e adbe
-0.014539305 0.12624297 -0.2621927 -0.15250884 -0.36055607 0.1925508 -0.2338105 -0.034998443
-0.31726557 -0.047955792 -0.20740005 -0.057040088 -0.0682148 -0.04783054 -0.11949221 -0.22083019
-0.036224525 -0.546154 -0.17198591 0.17723374 0.36630931 -0.26937357 -0.20126583 0.07645043
-0.029610127 -0.37494186 -0.07397443 -0.5355707 0.3460769 0.019183464 -0.0007930363 0.10977346
-0.09018743 -0.19791871 -0.46731228 0.2192273 0.27630186 -0.031167524 -0.14129417 0.11541664
-0.0069958162 0.043740902 -0.109442376 -0.0016387529 -0.041738775 -0.3515825 0.364575 0.19713014
-0.037681945 -0.5113709 -0.14993198 0.10267573 0.13354371 -0.48276407 0.07429557 0.036411583
-0.32172668 -0.11578974 -0.05412725 -0.15742221 -0.12868613 -0.040546108 0.22800182 -0.02279517
-0.18559723 -0.042038664 0.20769247 -0.24904488 -0.20559137 -0.6385961 -0.2054211 0.07618919
0.17206629 -0.0754646 -0.24583046 -0.47630394 0.042324096 -0.0014132991 -0.05548952 -0.37248346
-0.14399749 0.16943078 0.33156094 -0.05932058 -0.6169195 -0.351474 -0.5883951 -0.57233256
0.3780922 -0.13899007 0.19625708 -0.019244773 0.2864024 0.078768894 0.2411471 0.71842635
-0.27402014 -0.019444497 -0.44556502 -0.5011862 -0.10557112 0.17536488 -0.20817755 0.17926724
-0.14160226 -0.4208049 0.09225336 -0.4309698 0.061943606 -0.091239914 -0.11156257 0.35130042
0.28971195 0.19953245 -0.14609766 -0.1314132 0.09296986 -0.48403344 0.0005467406 -0.16654506
0.16894382 -0.56282055 -0.55299807 -0.31522375 -0.51253897 0.30716 -0.44427958 -0.19054674
-0.14346726 -0.25949016 -0.13801925 0.217548 0.11787423 -0.15053038 -0.45555222 0.096871465
0.5550335 -0.04079113 0.15318573 -0.06835669 0.023728997 0.39586416 0.5871758 -0.06729869
0.36553597 0.34291846 -0.31222433 0.38855612 -0.039132606 -0.023909992 0.05829993 -0.47175685
-0.28798056 0.30013305 0.011310572 0.45304182 -0.41894922 0.4185015 -0.028242374 0.31180066
-0.44987607 -0.25215697 0.10553689 -0.0051942877 -0.3602452 -0.29558638 -0.20310892 -0.47610784
-0.598534 0.53664523 0.53111 -0.007336988 -0.519334 -0.0070824944 -0.75932616 -0.058342487
-0.015097741 0.32863125 0.09974819 -0.32463083 -0.3579928 0.6662064 -0.31816688 0.59707075
0.39561918 0.38733637 -0.3039845 0.20417297 -0.015441368 0.11698356 -0.55470526 0.20624177
-0.34804374 0.22337215 -0.14638785 0.0579079 -0.45335186 0.3799251 0.39883822 0.26201382
-0.40239233 -0.033847652 -0.024751574 0.08160809 0.46037883 -0.20052211 0.009212921 -0.13491063
-0.3355397 0.09710985 0.49483562 -0.53057617 0.20457073 0.37515965 0.79458106 0.57707447
0.07449692 -0.345299 -0.27524677 0.12795298 -0.43530288 -0.18889935 -0.39975247 0.26105246
-0.25132477 -0.0072541363 0.56357634 0.67184186 -0.29992807 0.35302123 -0.34700552 -0.33271655
0.84131646 -0.09935531 0.10453674 0.61973435 0.25184765 -0.4256429 0.39026907 -0.5329433
-0.7075841 -0.55329406 -0.3351085 -0.41410977 0.3397784 0.5895601 0.38520157 -0.31260222
-0.1888016 0.5450189 0.4966119 -0.32739195 0.6461643 -0.19876081 0.019737436 -0.33898014
