backend/inference/models/multicar_model.pt (torch, 822389 bytes, 10 tensors)

lstm.weight_ih_l0 f4 [512, 10]
00000000: 6a76 5d3a 1296 d13a baaa 703e f3e6 9f3e
00000010: 4e50 42be ce78 f03c 5cbb c2bd 119c 1b3e
00000020: 914e c5bd 81a4 d63c 8f7e b93e ad0a a9be
00000030: 46b5 95be bd13 01be 099c 533f f9dd 54bf
00000040: 99b4 843f 15af bb3e 5a41 db3d d017 223e
00000050: dc15 173e 446b 54bc c1c6 f33e c5c2 94be
00000060: 17c1 cfbe c544 62bd 4dd8 393f 4239 a43e
00000070: 2e4f 0bbd a060 b8bc 91ea a23c 75bb 153c
00000080: b3e7 73be c15c 75be 8f13 bf3e 2800 d33e
00000090: 6633 d1bd ae2e dc3d be19 8b3e 4c96 4f3e
000000a0: ef94 bcbd 3915 06bd acf1 69bf 2e52 a0be
000000b0: 5492 83be a00d d2bd efd3 95be df6e 5a3e
000000c0: cd86 d43d ac24 4c3e a62e 2dbe ab42 7d3e
000000d0: 8fbe 043e ef10 aabd 1040 81bd b366 d43e
000000e0: f7c0 68be 8183 d2bd 0e67 72bc 97a5 fc3d
000000f0: f767 113e 979f d6bd 4987 9abd 724a 05be
00000100: ede3 88bd 467c c5bc b45f 7c3c dcf9 2e3e
00000110: 9656 7e3e b416 5c3e 28c5 fcbc 6fe5 01bd
00000120: 7639 1cbe 5567 9abe e3f8 903e 3fa4 eabd
00000130: 6961 9cbc 2cde bd3e b6d9 67be f085 61be
00000140: c3b2 143f e49e 2d3e 1255 103f 5095 843e
00000150: dc05 bebe 3eb3 6dbe 1170 b33f 3b13 41bf
00000160: 664d 933d a518 da3d 8992 acbe 3e5e 92be
00000170: b771 99bd 6452 78bd 82da 61bd 4170 bfbd
00000180: e6bc 6f3d 5f7d 283f 6894 543e 5986 453e
00000190: d513 dd3e 4b0f 0b3e 8920 9a3e 1173 883d
000001a0: b622 3d3e e145 90bd 705b 84be 16d6 f03f
000001b0: fc28 453e 8484 c53d 7de9 cfbb 8aa0 ccbe
000001c0: 9be0 6fbe f23f ca3e 5068 aabd 071a 123f
000001d0: 654e 36bf 6e64 863f 4a46 933e 63bd ab3e
000001e0: e37b 6b3e 06e9 ce3e 7dde 973e de03 59be
000001f0: 0773 14bf 70cc 8b3f d368 4e3e 8431 af3e
00000200: b9a1 de3d 5aae 473e 92df 82be baa3 bebe
00000210: 6a28 073e 3dc4 43be 6a79 40be 9a73 be3d
00000220: 52d9 65bc 9e2b dd3e a5f1 0f3e 9876 a83e
00000230: 9567 d23e cc44 6ebe 40e2 333e 76e5 663e
00000240: c6cf a03d bef0 48be cc83 21bf d7e7 46be
00000250: ac76 333e 3b00 333e e181 163e 1d40 1bbe
00000260: 5e50 0ebd fe74 a33e 2645 db3e 9252 3ebe
00000270: 3978 ebbd a526 d93d 3269 5a3d ff23 5abc
00000280: 0faf d2ba d771 cfbd dd92 21bc 43bb 713b
00000290: 5974 683d e70a 8f3c b9dd 94bd 3835 9fbc
000002a0: 6d58 f2bd 9149 2dbd f7bc 99bc bf26 263e
000002b0: 40a7 463e 451f 25bf 8ca0 503e b88e b53e
000002c0: 7386 7d3e 0f45 3dbf 617f b33e 2218 703e
000002d0: d3f3 113a 0b9b d03d d4a8 0abf 42a0 303d
000002e0: a059 14bf a1f5 f13d 00ba 94be 8a17 c23c
000002f0: df3e 2f3d 7fff 383e b47d d63d dcec 4a3c
00000300: 3baf 27be 29af 653f 8463 e83c 0967 8cbe
00000310: 8102 cbbe 023b 0dbe 9e37 18bd 4495 3c3c
00000320: c2f3 febe d447 c0be 7fe7 093f 11cb 71be
00000330: cf5a 443e 9603 a33e 94ec c13e af18 f6bc
00000340: 456a 183e 36a5 fd3d a6ca f03e 16ca 9b3c
00000350: a882 29be 9c9c a7bd 85b5 16bd afe0 b43e
00000360: 3e40 123e bfa4 98be d8fa 0abd 358a 4e3d
00000370: c92f d1bd b809 f63d 389b 1d3d a626 76bf
00000380: cbff 1f3e 21bf 18bc d63c ff3d 327c 323e
00000390: d3bb 88bd a220 1fbe d1e7 c83e 90a1 b7bd
000003a0: 3544 97bd 8bd1 a43d 0c64 a53e e4da 4ebe
000003b0: 8934 3f3e 0677 b93e 410d febd bb8f 93bd
000003c0: 2681 38bd 9766 85be ff48 96bd 3953 3b3c
000003d0: 7c9b e7bd 056c 9e3c 5dce 0bbe 27c2 313c
000003e0: de5d 9bbb 3c09 353d 5576 463d 72d0 c5bd
000003f0: 23ac 2ebe 8a95 383e 50f4 43bd 68dc 34bc
0.0008448126 0.0015990159 0.23502627 0.31230888 -0.18975946 0.02935448 -0.09508392 0.15196253
-0.09634126 0.026201488 0.3622937 -0.33015957 -0.29239863 -0.12605186 0.82659966 -0.83151203
1.0367614 0.36657014 0.10705824 0.15829396 0.14754432 -0.012965027 0.47612575 -0.29054847
-0.40577003 -0.055241365 0.72595674 0.32074934 -0.03401106 -0.022507012 0.01988724 0.0091389315
-0.23818855 -0.23961164 0.3731961 0.41211057 -0.102148816 0.10751091 0.27168077 0.20272177
-0.09208094 -0.032735083 -0.91384387 -0.31312698 -0.25697577 -0.10256505 -0.29263255 0.21331356
0.10377274 0.19935864 -0.16912326 0.24732463 0.12963317 -0.08304011 -0.06311047 0.41484603
-0.2272986 -0.10278989 -0.014795078 0.12336271 0.14199816 -0.10479658 -0.07545335 -0.1301668
-0.066840984 -0.02410711 0.015403677 0.17087501 0.24837717 0.21493036 -0.03085573 -0.031712946
-0.15256295 -0.3015696 0.28314885 -0.11457109 -0.019089418 0.37083566 -0.22641644 -0.2202375
0.5808527 0.16955143 0.56379807 0.25895166 -0.37113845 -0.23212907 1.4018575 -0.7541997
0.07192497 0.10649232 -0.33705547 -0.28587526 -0.074923925 -0.06062545 -0.055140026 -0.093475826
0.058529757 0.658163 0.20759737 0.19289531 0.43179193 0.13580053 0.30102947 0.06662572
0.18470272 -0.07044578 -0.2585101 1.8815334 0.19253916 0.09644416 -0.0063449726 -0.39966232
-0.23425524 0.3950191 -0.08320677 0.57070965 -0.7121337 1.0499399 0.28764564 0.33542928
0.22996478 0.40412158 0.29661933 -0.21192881 -0.5798802 1.0921764 0.20157175 0.34217465
0.1087069 0.19500104 -0.25561196 -0.37234288 0.1319901 -0.19117828 -0.18796316 0.09299393
-0.014028864 0.4319734 0.14057024 0.3290298 0.41094652 -0.23268431 0.17566776 0.2254847
0.0785213 -0.19623086 -0.6309173 -0.19424377 0.17525738 0.17480557 0.14697982 -0.15161176
-0.034744613 0.31925195 0.42826194 -0.18586186 -0.1149754 0.10603074 0.05332298 -0.013314246
-0.00160739 -0.10129135 -0.009861675 0.0036885298 0.056751583 0.017461253 -0.07268853 -0.019434556
-0.11833272 -0.042306487 -0.018766863 0.16225718 0.19399738 -0.6450084 0.20373744 0.35460448
0.2475832 -0.739335 0.3505812 0.23446706 0.00055676437 0.10185822 -0.5416386 0.043121584
-0.57949257 0.11814428 -0.29048157 0.023692865 0.042784568 0.18066214 0.10473195 0.012385573
-0.16375439 0.897204 0.028367765 -0.2742236 -0.39650348 -0.13792041 -0.037162416 0.011510197
-0.49795347 -0.375548 0.5386886 -0.2361262 0.19175266 0.31838673 0.37875807 -0.030041067
0.14884289 0.12385027 0.47029608 0.01901726 -0.16553748 -0.08184168 -0.036794204 0.3532767
0.14282319 -0.2981319 -0.03393063 0.050424773 -0.102141924 0.120135725 0.038478106 -0.9615272
0.15624921 -0.009322912 0.124627754 0.17430189 -0.066764496 -0.15539792 0.39239362 -0.089663625
-0.07386056 0.0804778 0.32302892 -0.20200688 0.18672384 0.3622362 -0.12404872 -0.07205149
-0.04504504 -0.26054832 -0.07338142 0.011433416 -0.11308953 0.019338617 -0.1365294 0.010849512
-0.0047414145 0.04419826 0.048452694 -0.096588984 -0.17057852 0.18025795 -0.047840416 -0.011038877

lstm.weight_hh_l0 f4 [512, 128]
00000000: 2c81 753e 8ca2 b7bd b152 15bf eaeb 3f3f
00000010: 56ab 8dbd 81d1 263f 647c fa3d 397a ea3d
00000020: 5a09 87bd 17c7 94be f34b 163f 1bc6 553f
00000030: d4d2 793e 25ce 91bb 7faa fabe 5132 333e
00000040: a909 bbbc 3fa5 cebe d790 a2be 47a9 68bf
00000050: 0c13 c13e 976a a83e 1cc2 00bf df3a 31bc
00000060: dda3 403e c85c 9f3f fb58 72bd bf31 c53e
00000070: a651 77be 73a4 283f 3064 7fbe eba4 e63c
00000080: a34c 48be c408 19bf 3f58 4e3f dcf0 73bf
00000090: 506f 61bf 2dba e7be f8f3 503e 019d 133f
000000a0: 519c 4e3f 9dac 09bf 1570 ce3e aa5c 88be
000000b0: b83c 65be d751 853e 231c 9bbe 2133 1ebe
000000c0: d83a c43e 2949 6b3f 31c9 543f a02c 67be
000000d0: 0328 813d f59b 093f 32f7 8e3e 033c 1abf
000000e0: 2305 1d3f 3a4b 7dbe 2075 edbe 2abb 9dbe
000000f0: 0a1d 9e3c c8c6 87be c21d 3c3f 9ad8 90bf
00000100: 2fa4 323f 63a7 953d 823d 993e cbf2 f23d
00000110: 0e0e 283e 0b2f d23e 8330 03be 53c1 c23d
00000120: 4fd3 4e3e f76b 25bf 1de7 3d3e 4d90 c3bd
00000130: 5fc6 fabe 7fcd 7b3e 3bb8 693e 3066 b33e
00000140: 3204 fa3e 3660 0f3e b194 8dbe a890 ba3f
00000150: 1d5c 7fbf e0ad d2be fc30 43bf cc21 623e
00000160: 51e8 a1be a1e4 c63e 1ff8 283d 964b 72bf
00000170: 45f4 f2be e8b4 67be c7fc 42be 60ff 1bbe
00000180: 5592 2dbe ef63 eabc 0d89 cabd 7099 0abf
00000190: c3ea 19bf 9c2b 5d3f 5fe3 47be 92b8 a9bd
000001a0: d664 7d3e 16f2 0d3f 55ee 37be 4012 e13e
000001b0: d3a9 493e 5471 003f d1b1 2d3d 49d9 2bbe
000001c0: b4ea f73e e040 19bf bc76 03bf 4d96 adbf
000001d0: 69b1 9dbc 2709 5dbe f899 b73e 6c93 85bf
000001e0: c7ed 553e 9752 903c d361 a03c 5867 093f
000001f0: 8169 013d ed91 f4bd 1c03 10be 38e1 dcbd
00000200: 7e60 f53d 6986 69bf 5f9e 68bd fcb4 cdbe
00000210: 637a 5bbe 4826 9a3e d53e f03e 2e03 243f
00000220: c9e1 e53e 1e74 bebf 7683 38bf 73fd 20bf
00000230: 2cf2 8f3e 3d90 153f 48fe 7ebe 17cd 223f
00000240: a6e9 afbd 2b13 173e 6f0f a8be 0941 5ebe
00000250: 14fa 703e 8346 113d 550d e8be d876 5b3e
00000260: 26c0 d4bf cd79 50be 9b04 0ac0 a2ac d6be
00000270: 03a2 20bf 283f c9be ca69 b4be ee95 1d3f
00000280: 2168 0c3d 9077 fbbe b600 99bf 3bba 183f
00000290: 1901 ae3e 30f0 b23f 0e9a 16bf 17d6 2a3c
000002a0: 50ba 0cbe e5b0 653e d773 8d3c 49e1 f4be
000002b0: 9835 983d 5017 fcbe 5259 8c3f dd42 48bf
000002c0: d6fa f3be 1096 8fbe 635e 54bf c8bd 32be
000002d0: b934 a3bd cea2 4b3e 2b4d 88be 3bf1 413e
000002e0: 3589 73bc ef95 783f 3957 a6be cea1 383f
000002f0: 0fd6 173f 2547 c93e afec 9c3e 9f87 e33e
00000300: 59d5 77be 941e 613e 9536 57bd e5f5 5dbf
00000310: debe 66be e36c 0d3f 3d26 fe3d 29a2 5dbf
00000320: 6a64 95be 97a2 a9be c645 153f 13ac 87be
00000330: 9838 463e 9a23 3a3e 0c3f c9bd 2ec9 34bf
00000340: 35c1 a0bd 1f7c 4a3e df76 21bf 0776 17be
00000350: e637 6abe 8bd0 e73d 1330 a9be a4a2 a43e
00000360: 8230 4e3f 93db 67bf 8b10 afbe baee bbbe
00000370: 52dc 4cbf 7813 c4bd 89f0 8c3e f427 61bf
00000380: ef7e b23e a8fa e6be 8d52 a5be e62d 363f
00000390: 8a59 f23e 3399 b0be 42c4 56bf 7120 89bf
000003a0: ac14 a0bf 0551 29be dcf8 5dbf aadf 8abf
000003b0: d9a0 4d3f ac3b 75be 882c d4be d301 283f
000003c0: e199 16bf 1b0f e53e bdca 3f3f a834 aebc
000003d0: 7600 5bbf dcdb 1bbf de81 2b3e 5f4d 503e
000003e0: 57b8 11bf ceb9 153e 561c 38be eefb 343d
000003f0: 8787 893f 765a 8cbe f6e2 9cbf 71ef 3f3f
0.23975056 -0.0896655 -0.583293 0.7496935 -0.06917445 0.6516343 0.12230757 0.11449093
-0.065935805 -0.29058143 0.5870964 0.8350541 0.24396831 -0.004449623 -0.48958203 0.17499663
-0.022831755 -0.40360448 -0.3175113 -0.90883297 0.37709844 0.32893822 -0.5029619 -0.010817259
0.18812509 1.245019 -0.05916689 0.38514516 -0.2415224 0.6587593 -0.24940562 0.02815481
-0.19560485 -0.59779 0.806034 -0.952894 -0.88060474 -0.45259228 0.20405567 0.57661444
0.8070727 -0.5377901 0.40319887 -0.26633197 -0.22386444 0.26039 -0.30294904 -0.15449192
0.38326144 0.9190851 0.83119494 -0.22575617 0.0630646 0.53753597 0.2792297 -0.6024782
0.61335963 -0.24735728 -0.46378422 -0.30806857 0.019300956 -0.26518846 0.73482907 -1.1316102
0.69781774 0.07307317 0.2992974 0.11862715 0.16411611 0.41051516 -0.12811475 0.0950953
0.20197795 -0.64617866 0.18545194 -0.095490076 -0.4897947 0.2459011 0.22824185 0.350389
0.48831326 0.14001545 -0.27652505 1.4575396 -0.9974993 -0.4114828 -0.7624662 0.22083205
-0.31622556 0.38846305 0.04125225 -0.94646585 -0.47451988 -0.22627604 -0.1904174 -0.15234137
-0.16950352 -0.028612105 -0.098894216 -0.5414038 -0.6012384 0.8639467 -0.19520329 -0.08287157
0.24745497 0.5544752 -0.1796201 0.43959236 0.19693689 0.50172925 0.042405907 -0.16782106
0.48421252 -0.59864616 -0.5135305 -1.3561493 -0.019249635 -0.21585523 0.35859656 -1.0435615
0.20891486 0.017617507 0.019577896 0.53673315 0.031594757 -0.11941896 -0.14063686 -0.107851446
0.11981295 -0.9122072 -0.05679166 -0.40177143 -0.21433406 0.3010733 0.46922937 0.6406735
0.44898823 -1.4879186 -0.72075593 -0.6288673 0.2811445 0.58423215 -0.24901688 0.6359419
-0.08589487 0.14753406 -0.32824275 -0.21704496 0.23532897 0.035467636 -0.45322672 0.21432054
-1.6621139 -0.20358963 -2.156531 -0.41928583 -0.6274721 -0.39305997 -0.3523696 0.615569
0.034278993 -0.49114656 -1.1953342 0.59659165 0.33985212 1.397955 -0.5882882 0.01042702
-0.13742948 0.22430761 0.01726715 -0.4782813 0.07432097 -0.49236536 1.0964758 -0.78227025
-0.4765231 -0.28044176 -0.8295652 -0.17455208 -0.079690404 0.19886324 -0.26621374 0.18939678
-0.014864256 0.9710378 -0.3248842 0.72121894 0.59311 0.3931209 0.30649325 0.44439408
-0.2420248 0.21984321 -0.052542288 -0.8670333 -0.22533748 0.5524427 0.12409637 -0.8657556
-0.29178172 -0.3313186 0.5830959 -0.2649847 0.19357526 0.18177643 -0.09826478 -0.70619476
-0.07849351 0.19773911 -0.6307201 -0.14791118 -0.22872886 0.11319073 -0.3304449 0.32155335
0.8054277 -0.9056942 -0.3419231 -0.3670557 -0.8002368 -0.09574026 0.27527264 -0.8795159
0.34862468 -0.4511311 -0.32289544 0.71163785 0.47333938 -0.34491882 -0.83893216 -1.0713025
-1.2506309 -0.16534813 -0.86707854 -1.0849507 0.8032356 -0.23948544 -0.41440225 0.65627784
-0.5882855 0.44738087 0.7491873 -0.021265343 -0.8554758 -0.60882354 0.16748759 0.20342015
-0.56921905 0.1462166 -0.1797956 0.04418557 1.0744485 -0.27412766 -1.2256763 0.74974734

lstm.bias_ih_l0 f4 [512]
00000000: b5bb 35bf 23eb f3be ff0f 90be c122 48bf
00000010: 01ac d8be 2a20 62be a6f7 3abf 8a43 7bbe
00000020: ea13 e6be 4e18 7cbf 5ac2 d63e 96c8 39bf
00000030: c772 95be ca0b 9cbe e42b 63bf 53b9 c73e
00000040: 7a98 9ebe a885 c9be 77cc 47bf 5cf7 9dbe
00000050: c285 51bf eaf2 97be e452 24bf 870d 71be
00000060: d471 29bf 161f f5be 850f acbd 188b 093e
00000070: 6da6 23be df7d aabe d06a 09bf 6e74 b3be
00000080: 551c 3f3e 2af6 67bf 5174 07bf bc9f 493f
00000090: 0047 4ebf 9a0c 38bf b8c9 2ebf c561 debe
000000a0: 95a1 35bd 2a9f 1abf 8cec 95be debe 35bf
000000b0: e255 4dbd 156f 02bf 2d8f 9c3d 6d64 b4be
000000c0: 6c48 5bbf 5dbf 9bbe 0505 a9be b161 31bf
000000d0: 9258 0fbf ee8d d3be e9d6 663e cc87 4bbf
000000e0: 2ad7 f6be 9673 ee3d 7716 02bf e42f a9be
000000f0: 6b82 01be 6df5 26be 9162 b1bd 13df e1be
00000100: 6725 1dbd 3676 aabc 759f 1fbe 46a4 19be
00000110: 32ca 3ebf ce46 82be 27c2 0dbf 21c8 1dbf
00000120: 382b 20bf b639 ecbe 9453 3fbe 11a5 9abe
00000130: 38e9 27be 51c4 88bf 906f 92be ceca 3dbf
00000140: 8d14 01bf 7c8c febe 6068 d3be 8958 87be
00000150: aecd e1be c30a 27bf 3fed d3be e798 a3be
00000160: b371 49bf 6cd6 0bbf d7de fdbe 9c37 3dbf
00000170: f362 2cbf dfae 283d c542 67bf f9fc cdbe
00000180: 3dc9 953e 49a6 2bbf db6f 8fbe b363 59bf
00000190: c338 bfbe 8ab3 41bf ca54 cabe e923 82be
000001a0: ef70 a03e b24e e3bc 7d81 cbbe ee26 75bd
000001b0: 17fc 2bbe 6f5d a8be 3400 31bf db13 7fbf
000001c0: 87ae f9bd a571 08bf 3c8c 07bf ba93 a8be
000001d0: 0c17 05bf 79fb 76bf 141d f8be dd4c 9cbe
000001e0: 0e46 adbe 51ee bbbe 6bb6 1c3e 9ca9 dabe
000001f0: 7c69 09bf ffe4 97be ecb6 3bbe 4b49 67bf
00000200: b873 6bbf 3651 a9be 0105 41bf 3986 ac3e
00000210: b5fa 0fbf 0e93 733d 7d1e 083f 23d1 83bf
00000220: c4a0 c7be 8d34 773e 3628 f73d 3a7f 84bf
00000230: 9e39 b43e 0b6c 09bf 0514 3e3f ff69 5abe
00000240: 8c30 993f c5fc 8ebe ac01 53be eadd 72bf
00000250: b800 abbe ef61 4b3f 489e ce3e eb12 8fbf
00000260: f7d5 933f e1c7 953f ed4c 123f 3c32 1ebf
00000270: cf32 48bf 40eb 143f fd1c 05bd 84de 37bd
00000280: a53d 973e 4b44 443f 108a 1b3f f69f 1e3f
00000290: de43 62bf ad42 e53e 9175 28be fe9a d03e
000002a0: 95aa 5a3d cd0d 363f 081b bd3f eea0 8bbe
000002b0: 4939 88bf 1617 fa3e e584 70be 3880 2ebf
000002c0: ea00 273f 60c2 3fbf d87e 93bf 38d2 05bf
000002d0: 73a4 55be 0ed9 2b3e ced5 963f 1135 433f
000002e0: bb79 213f 4752 f43e 6361 263f b3fe 2c3f
000002f0: 2a8d 043e b1e8 373f f37c 04bf ccf0 363f
00000300: 3e80 0b3f ede8 44bf 30f3 15bf ba89 31bf
00000310: 245e 6d3f e1d9 8b3f 03f5 b3bf e40b 82bf
00000320: 6237 96be eca8 3abf 6606 10bf a215 07bf
00000330: 904a e3ba 5759 483e ee89 6d3e 9464 353f
00000340: 7585 71bf 2344 a1be cca4 48bf 2612 723f
00000350: 794c 273f 8314 14bf 35e1 42be 7dea 943e
00000360: 6412 183e 1752 a33f a688 4fbf 9702 873f
00000370: a218 4a3f 6e66 7cbf 2bf3 c6be 530b 81bf
00000380: 5db2 253f 54ec 23be e8b7 003f 5bdc 413f
00000390: e18a c33d 5774 283f 982d 31bf d312 e73d
000003a0: 148b 24be 3f35 41bf 2737 2a3d f5a1 3dbc
000003b0: 4d4c 163d 2a8e 163f 3743 5a3e e655 313e
000003c0: 0abf 9b3f 7ea2 343f cddb 87bf ff77 863f
000003d0: 61d1 1ebf 2dad 4fbf ef70 c13e 30f3 8d3f
000003e0: ad29 edbe cac9 cdbd 479f 5e3e 058c 923e
000003f0: dbc5 8f3e 85fd 6c3f 661b 99be ac69 a13d
-0.70989543 -0.47640333 -0.28137204 -0.7817803 -0.4231873 -0.22082582 -0.7303413 -0.24537483
-0.44937068 -0.98474586 0.41945153 -0.72571695 -0.2918913 -0.30477744 -0.88738847 0.3900858
-0.30975705 -0.39359784 -0.78046364 -0.30852783 -0.81844723 -0.29677516 -0.6418898 -0.23540317
-0.6618931 -0.4787528 -0.084013976 0.13431966 -0.15981455 -0.33299157 -0.5367861 -0.35049766
0.18663152 -0.9060999 -0.5291186 0.7875936 -0.8057709 -0.7189423 -0.6827655 -0.43433967
-0.04434355 -0.60399115 -0.29282033 -0.70994365 -0.050130732 -0.5095075 0.07644496 -0.3523287
-0.8565738 -0.30419436 -0.33011642 -0.6928969 -0.5599452 -0.4131922 0.22542919 -0.79504085
-0.48211032 0.1164314 -0.5081553 -0.3304435 -0.12647407 -0.1630456 -0.08661378 -0.44115505
-0.038365748 -0.02080832 -0.15588172 -0.15004072 -0.74527276 -0.25444645 -0.5537438 -0.616335
-0.62565947 -0.4613778 -0.18684226 -0.3020406 -0.1639756 -1.0684911 -0.2860074 -0.7413758
-0.50421983 -0.49716556 -0.4129057 -0.26434734 -0.44102234 -0.65250796 -0.41391942 -0.31952593
-0.78689116 -0.54624057 -0.49584076 -0.7391298 -0.67338485 0.041182395 -0.9033626 -0.40232065
0.29255095 -0.67050606 -0.28015026 -0.84917754 -0.37347993 -0.7566458 -0.39517814 -0.25418022
0.31336161 -0.027747486 -0.3974723 -0.05985158 -0.16795383 -0.32883784 -0.69140935 -0.9963967
-0.121914916 -0.5329841 -0.52948356 -0.32925206 -0.5198829 -0.96477467 -0.48459685 -0.30527392
-0.3384251 -0.36705258 0.15303962 -0.42707527 -0.5367658 -0.29666898 -0.18331498 -0.9034621
-0.9197345 -0.33069772 -0.7539826 0.33696154 -0.56241924 0.059466414 0.5317152 -1.0298198
-0.38989842 0.2414114 0.120682165 -1.0351326 0.35200208 -0.53680485 0.742493 -0.21329497
1.196794 -0.27927223 -0.20606107 -0.94869864 -0.33398986 0.7944631 0.40355134 -1.1177648
1.1549672 1.1701623 0.5714863 -0.617954 -0.7820253 0.58171463 -0.03249835 -0.04488994
0.2953922 0.76666707 0.6075754 0.6196283 -0.8838481 0.44777432 -0.16451098 0.4074325
0.053385336 0.7111481 1.4773874 -0.27271217 -1.0642482 0.48845738 -0.23488195 -0.68164396
0.6523577 -0.7490597 -1.1523085 -0.52273893 -0.20863514 0.16782019 1.1783998 0.7625285
0.6307637 0.47719023 0.6499235 0.6757614 0.12944475 0.71839434 -0.5175316 0.71461177
0.5449256 -0.76917917 -0.585742 -0.6935078 0.9272177 1.0925866 -1.4059147 -1.0159879
-0.2933913 -0.72914004 -0.56259763 -0.52767384 -0.0017340947 0.1956533 0.23197147 0.70856595
-0.94344264 -0.31497297 -0.7837646 0.9455894 0.65351063 -0.578438 -0.19031222 0.2908515
0.14850765 1.2759427 -0.81067884 1.0547665 0.78943837 -0.98593795 -0.38857397 -1.0081581
0.64725286 -0.16008121 0.5028062 0.7572686 0.095479734 0.6580252 -0.69210196 0.11282887
-0.16068679 -0.7547187 0.041556504 -0.011574258 0.03669386 0.58810675 0.21314703 0.17317924
1.2167675 0.70560443 -1.0613953 1.050537 -0.62038237 -0.8112362 0.37781474 1.108984
-0.4632086 -0.10048254 0.21740447 0.2862245 0.2808064 0.9257434 -0.29903716 0.078814834

lstm.bias_hh_l0 f4 [512]
00000000: 65ee 2bbf 5654 06bf cc54 6ebe 331c 34bf
00000010: ffb1 aabe 4961 b0be f613 26bf 6213 77be
00000020: 5a01 b9be fab5 6cbf 8c33 b03e fe3c 1abf
00000030: 5447 65be ce9c afbe 4875 5bbf 8fd0 043f
00000040: 705b 4cbe d896 c5be 114e 51bf 7e25 a1be
00000050: f281 4fbf 7097 cabe 44d6 47bf 152d 62be
00000060: 9acf 1fbf f072 efbe a9a3 39bc ab74 ac3c
00000070: 2f59 1cbe 7bf7 debe 65a5 04bf ee0c 8dbe
00000080: 51b6 b13c 1449 3fbf ed52 0ebf c895 383f
00000090: ac6d 4bbf bc63 36bf ca0f 2fbf a1dc f7be
000000a0: b3ae c93b 1622 07bf 2c66 89be 0ad3 40bf
000000b0: 0470 65bc 20c3 d2be d892 ff3d b488 81be
000000c0: d6c7 53bf 07b1 d9be a9e0 9cbe f1f4 16bf
000000d0: b44b 18bf 6ee6 b3be 917d 803e 0402 45bf
000000e0: 56f2 0bbf 2d3f 823d 229e d6be 26c0 b6be
000000f0: a2e8 8fbe ce6a 4bbe 3ec5 23be 5758 cebe
00000100: c8b3 80bd bc5c 973c c9c5 3cbe 5790 5f3a
00000110: e835 4abf f885 4ebe 096f 0cbf fdb5 11bf
00000120: dfbd 07bf ce9f 06bf 2f58 89be 1f7f 6fbe
00000130: 664d a6bd e6ee 74bf 7a62 aebe fc62 4bbf
00000140: 5eeb 0abf ec78 0fbf 74d8 bebe ca2b 99be
00000150: ac99 cbbe a35e 31bf 07e9 d1be f7f1 b2be
00000160: 5583 57bf ca19 2ebf 3c26 e2be 7e5b 2cbf
00000170: 85d5 4abf 159a 0e3d 25fa 5fbf 2dfa d5be
00000180: ec86 a23e 5f50 29bf 73cd 5dbe cb3c 59bf
00000190: 9109 cdbe e2ca 61bf 161d bdbe a824 1dbe
000001a0: 2109 ca3e 5cae 6bbd bf5f 9dbe 8098 b3bd
000001b0: a741 bfbd 1bf9 c0be b8d0 26bf 5da3 80bf
000001c0: f993 16bd 8d26 0abf 80b7 02bf 32a4 a1be
000001d0: 7ce9 24bf cdbd 73bf d804 c4be f5f6 99be
000001e0: 4a9d cbbe bd3a c8be 5b12 073e 84c7 d1be
000001f0: 0035 20bf 474b 56be 065e 1dbe 3302 5dbf
00000200: f2c9 78bf 4269 e8be bfca 26bf d907 bf3e
00000210: 99b4 10bf ea3b cabc a0bd 0e3f af16 74bf
00000220: f001 aabe bd11 a63d f59b 633e b64c 83bf
00000230: 0867 da3e 8358 06bf 61d6 493f d5c6 74be
00000240: 80c9 923f 011c aabe a8ac 54be 1c04 70bf
00000250: a69d a7be db7f 3d3f c05e e93e 3324 8cbf
00000260: 8d69 933f a37f 953f 3f6b 253f 0c1d 35bf
00000270: b13a 51bf f2db 023f 618c 6dbc 8658 81bd
00000280: c9f0 8f3e 4744 3f3f 04a2 083f 0e44 133f
00000290: 865b 5ebf d03f 063f 93c8 48be 9c97 ca3e
000002a0: fd07 bc3c 431c 363f e46f bd3f b4e2 a9be
000002b0: 0340 8bbf 967f 033f e205 d5bd 3a75 12bf
000002c0: c8fe 1e3f 7c60 48bf 567c 85bf e319 c9be
000002d0: accd c8bd 7b66 813e 04fb a33f f5c0 5a3f
000002e0: 37cf 433f f6dd 0d3f 15e1 103f adc8 063f
000002f0: c21e eaba b1d8 2c3f b4c2 e0be 5ae1 243f
00000300: 1f6d db3e 2dcf 1cbf 9863 ffbe 567f 20bf
00000310: 0c59 6e3f fb0c 9a3f ab4e babf 227b 82bf
00000320: 8a3f a8be 7031 16bf bf19 00bf e443 1cbf
00000330: 6462 26be 612f 9f3e 996c f63d 5455 373f
00000340: 81e5 5bbf 13e9 9cbe e68a 3dbf 704b 6a3f
00000350: 3738 3f3f 20aa e7be aaba e5bd d707 a53e
00000360: fc98 173e 259d a43f aeb9 50bf 7d61 873f
00000370: e056 443f 4981 8abf 1fd6 84be edc5 71bf
00000380: 2941 113f de39 15be db38 023f d5c1 453f
00000390: 09ba dc3d a57c 093f beb2 21bf b9c2 353e
000003a0: 6087 1dbe 9db1 45bf f2ec e03c a7c7 8e3d
000003b0: 5ff5 6fbd e829 1b3f 6e64 8e3e d4a6 973d
000003c0: da4e ae3f f20f 523f df6f 90bf fdad 923f
000003d0: b123 13bf 7bca 59bf 5780 df3e 3881 883f
000003e0: b5be 14bf 5eba 0f3d 0ebd 0c3e 81aa 903e
000003f0: 9df6 7f3e 9989 873f de00 a8be 3b19 4fbd
-0.67160636 -0.52472436 -0.23274535 -0.7035553 -0.33338925 -0.34449223 -0.6487421 -0.24128488
-0.36133844 -0.92465174 0.34414327 -0.60249317 -0.22390491 -0.3429932 -0.8572583 0.51880735
-0.19956756 -0.38591647 -0.81759745 -0.31473917 -0.81057656 -0.39568663 -0.7806132 -0.2208751
-0.6242615 -0.46767378 -0.0113305235 0.021051725 -0.15268396 -0.43548188 -0.5181487 -0.27548927
0.02169338 -0.74720883 -0.55595285 0.7210355 -0.7946422 -0.7124593 -0.6838347 -0.48410514
0.006154859 -0.52786386 -0.26835763 -0.7532202 -0.014003757 -0.41164494 0.1247918 -0.2529961
-0.827268 -0.42517874 -0.30640152 -0.589675 -0.59490514 -0.3513674 0.250958 -0.769562
-0.5466665 0.06359706 -0.4191752 -0.35693473 -0.28107172 -0.19864962 -0.1599321 -0.40301773
-0.062842906 0.018476836 -0.18434824 0.0008528283 -0.78988504 -0.20168293 -0.54856926 -0.5691832
-0.53024095 -0.5258759 -0.2682509 -0.23388337 -0.08120231 -0.9567703 -0.34059507 -0.79447913
-0.5426539 -0.5604389 -0.37274516 -0.2991622 -0.3976568 -0.6928503 -0.40998098 -0.3495023
-0.8418477 -0.680081 -0.44169796 -0.67327106 -0.79232055 0.034814913 -0.87491065 -0.4179243
0.31743562 -0.6613826 -0.21660404 -0.8485839 -0.4004636 -0.882002 -0.36936253 -0.15346014
0.3946009 -0.05753933 -0.3073711 -0.087693214 -0.09338694 -0.37690052 -0.6516223 -1.0049855
-0.03676221 -0.53965074 -0.5106125 -0.31570584 -0.6441877 -0.9521149 -0.38284945 -0.30071226
-0.3976844 -0.39107314 0.13190596 -0.4097253 -0.6258087 -0.20927154 -0.15367898 -0.8633148
-0.97183144 -0.45392805 -0.65153116 0.37310675 -0.5652557 -0.024686772 0.55758095 -0.9534711
-0.33204603 0.08108852 0.22227462 -1.0257785 0.42656732 -0.5247881 0.7884274 -0.23903973
1.1467743 -0.3322449 -0.20768988 -0.9375627 -0.32737464 0.74023217 0.455801 -1.0948547
1.1516587 1.1679577 0.6461677 -0.70747447 -0.8173018 0.5111686 -0.014498801 -0.06315713
0.28113392 0.7471356 0.53372216 0.5752572 -0.86858404 0.5244112 -0.19607763 0.39568794
0.022953028 0.71136874 1.4799771 -0.33180773 -1.087891 0.51366556 -0.10401513 -0.57210124
0.62107515 -0.78272223 -1.0428569 -0.39277562 -0.09804854 0.252735 1.2810979 0.8545068
0.7648806 0.5541681 0.5659345 0.52649957 -0.001786195 0.67518145 -0.43898547 0.6440636
0.4285669 -0.61253625 -0.49880672 -0.626943 0.93104625 1.2035211 -1.4555258 -1.0193827
-0.32860976 -0.58669186 -0.50039285 -0.6104109 -0.1624847 0.31090835 0.12032432 0.71614575
-0.8589707 -0.30646572 -0.7404007 0.9152136 0.7469515 -0.45246983 -0.11217244 0.32232544
0.14804453 1.2860457 -0.81533325 1.0576626 0.7669506 -1.0820705 -0.2594461 -0.94442636
0.5674005 -0.14572856 0.50868005 0.7724889 0.10777671 0.5370582 -0.63163364 0.17750062
-0.15383673 -0.7722414 0.027456734 0.069716744 -0.058583613 0.6061082 0.27810997 0.07404867
1.3617814 0.8205558 -1.128414 1.1459347 -0.57476336 -0.85074586 0.43652603 1.0664434
-0.58103496 0.035089843 0.13743994 0.28255084 0.24996419 1.0588866 -0.32813162 -0.05056117

lstm.weight_ih_l1 f4 [512, 128]
00000000: 9e36 d9bd d3dd d8be 3623 50be 2268 36bf
00000010: 3df3 143f 79b2 babe 830e c73c 080f 83bf
00000020: 2153 9a3e 6fa7 e9be 17e1 f6bd ff0e babd
00000030: d419 06be 99a4 203f e7ef e93e da60 f43e
00000040: fdaf 5f3d eb3d a03e 8706 073c 7b75 8fbe
00000050: d777 0cbe 08ef d5be 4f43 eebe 7774 77bd
00000060: d2b2 493e 6671 f3bd adf9 bc3e 672b d03e
00000070: a99c f83e df6a c9be 9f03 6abf e463 c7bd
00000080: a969 a9be 4494 87be 7569 3cbe d040 8c3e
00000090: 2f23 993e 68b8 603e 3943 9d3f 19b0 e63e
000000a0: 9ab7 2e3f ac75 bf3e 0b1e 3b3d 977d 16bc
000000b0: 5905 83bf 3107 0bbe 7951 37be b3a0 8cbf
000000c0: 734f 93be a302 9e3e 4a4e fa3e 69ae efbe
000000d0: 4555 9dbe 1d96 253e bf05 c83e e34f bf3c
000000e0: d446 2c3f 5213 833d 78a0 943e b5c5 883d
000000f0: df18 ef3e 4275 733f 9624 bfbf f416 d13d
00000100: ab19 143f 09fb 623e 6e3e 873e 46a9 3ebf
00000110: 51e0 8b3e 2516 42be 3550 fb3d 1a67 cabc
00000120: 542a bb3e 506f 423f 4057 513e 139d b7be
00000130: eb8a 46be 33ab 88be 0f38 9abe 2870 93bd
00000140: a4ba 18bf be2a 523f 4165 a8bd 5832 af3e
00000150: 70d2 013f 596d 553f aa97 823d bb26 25bf
00000160: 0437 12bf bf68 93be 7b89 9c3e ffb4 2fbe
00000170: a303 e4be d1a4 37bf 26f8 613d 4d07 5fbf
00000180: 4478 5ebe 860f 66be db17 50bf 95bc 7b3e
00000190: cd34 bd3e 1aa7 01bf d9e7 89bf 5d3b 31bf
000001a0: 45d6 10bf 2916 28bc 11ae 3dbe 9734 523e
000001b0: 900a 9cbe ae41 02bf 2e12 54bf 87be c63e
000001c0: 01a9 853e 2418 86be 88f9 b63d 4ac9 91bd
000001d0: 66c9 a33e cb8d ef3d ad2e 873e 0f7a 9fbe
000001e0: a0d4 7c3f a88f 653e 7b6b 92be c64b 2bbf
000001f0: 70e5 08bf 7e6d e9be 9fb7 34be 94e4 e4bd
00000200: 8e11 36bf 7727 c33e d6a2 f33d e396 98bc
00000210: f98f df3e 7ac7 4e3f 1048 01be 2b77 a5be
00000220: d45a 1cbd 41a1 e73e 1c39 58bf 413b fc3d
00000230: ac9a 15bd c1b3 423e 4799 353e 1e4d e3bd
00000240: c55f 673e ed72 233e 1359 513e c866 083f
00000250: 2601 343f 5d84 2fbf c1a5 f53e f94d 363d
00000260: 587a 593f bd42 1bbe bf9a f13e 30dd 36bf
00000270: 84cb 55be a701 9ebe c9ec 3d3d 7552 d1bd
00000280: cd78 de3d 70ef a03b 0212 9cbb b46b b53e
00000290: 6dc7 293e 295c 613e 99d8 c7be 065b 7bbf
000002a0: a601 7f3f e29d d8bc f501 e83d 7874 383e
000002b0: 64e2 0d3f f281 36bd e3c5 f33d 2d50 8b3e
000002c0: f4f9 d9be e6e4 a7be 70ae 02be e3bf d83d
000002d0: 25e1 5c3e d0cb 9ebd e4f1 aabc 120b f03e
000002e0: 6375 2ebe 4fa6 c9bc bb96 4d3f 1db3 a23e
000002f0: e1e7 083e f62c 973e 7a40 0c3e e4a1 0cbf
00000300: a012 28bf a2cf 393f fd42 e73c 3174 d43e
00000310: 85d4 fcbe cd0c 1dbf d341 86bd aef7 afbe
00000320: bbc5 283f 620c 5f3e dcfd ac3e 6c0e 8bbf
00000330: 8439 6e3f b448 173d b177 493f 18e0 2ebf
00000340: 68c3 fc3d c322 7a3e 8d75 81bd 157d c1be
00000350: c199 793e 4f44 9ebe 428e 053e c940 05bf
00000360: a3d3 553f be86 7bbc d59b 0ebc df7a 203f
00000370: 5d4b b73d dd18 363f 1be3 91be 61eb 1cbd
00000380: 4229 a2be ac1e 1dbf 69c8 f23e 9477 70bd
00000390: ae65 373f 7cad a5be 5dba 063f 4021 553e
000003a0: 7b28 06be 57a7 57bf 49be bc3e ed20 31bf
000003b0: 16eb f73d f6da 023b 898f 363f c814 df3f
000003c0: 055a bebd caf9 cd3e 9912 cf3e ac59 9a3e
000003d0: 6efb 58bf ce6e 82bc 7fdd 923f fb7a 053e
000003e0: a5f9 f7be 77a0 22bf 4dac 2abf 200a 1bbd
000003f0: a8a9 063f 7ceb 303e b114 583e d742 f73e
-0.106061205 -0.42356738 -0.20325932 -0.71252644 0.5818365 -0.3646429 0.024298912 -1.0238962
0.30141547 -0.45635554 -0.12054651 -0.090848915 -0.1309579 0.62751156 0.45690843 0.47730142
0.054611195 0.3129724 0.008241302 -0.28019318 -0.1371759 -0.4178393 -0.46535727 -0.060413804
0.19697121 -0.118868634 0.36909238 0.40658113 0.48557022 -0.3933935 -0.91411775 -0.097358495
-0.33088425 -0.26480305 -0.18399604 0.27393198 0.29909655 0.21945345 1.228614 0.45056227
0.68248904 0.37394464 0.045682948 -0.009185216 -1.0236007 -0.13576962 -0.17902173 -1.0986542
-0.28771552 0.30861387 0.48887855 -0.46812752 -0.30729118 0.16170545 0.39066884 0.023353523
0.67295575 0.064001694 0.29028678 0.066783346 0.46698663 0.95100796 -1.493304 0.10209456
0.57851666 0.22166075 0.26414818 -0.7447704 0.27319577 -0.1895376 0.12271158 -0.024707366
0.3655573 0.759511 0.2044344 -0.35862026 -0.1938893 -0.26693115 -0.30120894 -0.071991265
-0.5965979 0.8209647 -0.08222438 0.34218097 0.5071173 0.83369976 0.06376584 -0.64512223
-0.571152 -0.28790852 0.3057364 -0.17158888 -0.44534025 -0.71735865 0.055168293 -0.87120515
-0.21725565 -0.22466859 -0.812864 0.24583657 0.36954346 -0.506456 -1.0773879 -0.69231206
-0.5657695 -0.01025919 -0.18523432 0.20527874 -0.3047681 -0.5088147 -0.8284024 0.38817236
0.26105502 -0.26190293 0.08934313 -0.07118471 0.31989592 0.11696967 0.26402798 -0.3114781
0.9876194 0.22418082 -0.28597626 -0.66912496 -0.53475094 -0.45591348 -0.17648171 -0.1117641
-0.71120536 0.38116047 0.11896293 -0.018626636 0.4366453 0.8077313 -0.12625146 -0.3231748
-0.038172558 0.45240214 -0.8446214 0.12315989 -0.03652446 0.19013883 0.17734252 -0.11098693
0.22595127 0.1596181 0.20444135 0.5328183 0.7031425 -0.68561345 0.47978023 0.044507954
0.84952307 -0.15162177 0.47188374 -0.71431255 -0.20878416 -0.30860636 0.046368394 -0.102208056
0.10862885 0.0049113557 -0.004762889 0.35433733 0.16579981 0.22007813 -0.39032438 -0.98185766
0.9961189 -0.026442472 0.11328498 0.1801318 0.5542357 -0.04455752 0.11902978 0.27209607
-0.42573512 -0.32791823 -0.12761855 0.105834745 0.21570261 -0.07753718 -0.020867296 0.46883446
-0.17036967 -0.024615435 0.8030812 0.31777278 0.13369705 0.2952649 0.13696471 -0.54934525
-0.6565342 0.7258245 0.028230185 0.41494897 -0.4938089 -0.6134766 -0.06555524 -0.34368652
0.6592671 0.21782067 0.3378743 -1.0863776 0.9305651 0.03693457 0.7869826 -0.6831069
0.12341958 0.24427323 -0.06321249 -0.37790743 0.24375059 -0.3091149 0.13042548 -0.5205198
0.83526057 -0.015351949 -0.008704145 0.62687486 0.08949921 0.7113169 -0.2849358 -0.038310412
-0.31672102 -0.61374927 0.47418526 -0.05870779 0.71639526 -0.3235892 0.5262812 0.20813465
-0.1310138 -0.84239715 0.36863926 -0.69190866 0.12105386 0.0019966937 0.7131277 1.7428217
-0.092945136 0.40229636 0.40443876 0.3014654 -0.8475865 -0.015921976 1.1473845 0.13035195
-0.4843265 -0.635261 -0.6666916 -0.037851453 0.52602625 0.1727733 0.21101643 0.48293182

lstm.weight_hh_l1 f4 [512, 128]
00000000: 2e4e 033f aeac 26bc f649 5f3d fe55 193f
00000010: d4b0 1dbf 69af 6dbc c627 d3bf 1e2b a9be
00000020: 71d8 e4be 3607 993e 4ba5 c7be 7b00 66bf
00000030: 59cc 7b3f f2dc 1fbf 0505 9f3b 6c2b b5be
00000040: f470 953e d86d 94bf da69 1d3f 0265 1fbf
00000050: edba ed3e 6231 0a3f 1a1f a3bf 3e41 b73e
00000060: 6c1e a1be e17b c93e 5771 e3be 5ab5 53be
00000070: e286 c83c 9556 9e3f 23ae 503f 1509 45be
00000080: 4573 3bbf 0bbf c93e c463 823e 185f 723e
00000090: 1acd c73e 6e02 97bd 004e f2bb 949d 4bbe
000000a0: d2fa 8fbe 2aad 183f 82e8 733e 5046 89bf
000000b0: 236e acbe 5119 cf3e 5813 e3be 82d9 c8be
000000c0: 764c e23d 4a1d 113e 1529 4b3f 75ca 14be
000000d0: 6d79 afbe 3783 18bf a403 4abe b774 813e
000000e0: 9480 ffbe 5633 b9be ab89 293f 7456 acbd
000000f0: 9858 fa3e 6efd 463f a35d 803f 4a8b 82bf
00000100: 3bda 533e 8ee0 f4be 4759 1fbe b2b3 b9be
00000110: caa4 503f d05c 983e 9583 79be 5ac1 9dbd
00000120: 8391 413e 70b9 c63e c6c0 a03e 9ab0 e93e
00000130: 9069 473f 14da 10bf 9130 3cbf 4f86 d13e
00000140: 5b6a 0d3f 56e5 83be fca3 773c 11c2 a6be
00000150: 1fa3 c5be cb83 fdbe 7ae5 95be 6aae a5bd
00000160: 6e55 df3d 6dcc c43e 904b a8b8 9756 cf3e
00000170: 0ee3 903f 4451 85be 9776 923e 903c 2e3d
00000180: 35b9 853e d461 8a3e 888d c93e 600a 243f
00000190: 2b98 ac3e 5c61 843e 3697 d1be 44c2 4a3f
000001a0: b50c a63e de8a 4ebf faa7 a23e 5365 04be
000001b0: e8ac 1d3e fcc2 cabe 0d8c 353e 59d4 52bf
000001c0: 6138 973f 519b b43f 5f81 0fbf ffe7 2e3d
000001d0: 0f9c 5dbf c68c b13f 99f8 bebd 73c3 56be
000001e0: dde1 4b3f 12ab 4abf babd e3bc 7b16 e03d
000001f0: d5a8 07bf 0a62 2abf e2aa 03bf 91fd 6c3e
00000200: bf35 03be c618 053f f35e 313f dff7 b8be
00000210: e802 443f 06c7 9fbe 1b6e 38bd 14a5 1f3e
00000220: a0ee 8abe 51d8 b23d c56d ccbc a6ac ddbe
00000230: 5a03 15bf b1e8 863e 1a67 14bf ea9a 0e3f
00000240: 74cb ecbe 3bbd 463e 31af 423f dcca 143e
00000250: 2ab2 86bf 9b2a 7d3e 71f0 f03e a2f9 a53d
00000260: 6d86 703e 6439 673f 7cc6 92bd 7e65 f03e
00000270: 438b 643f ad8b b1be 2aa2 b9bf cad7 ed3e
00000280: b34e e03d 566c 5b3f 1ba2 ebbe 6ca0 87be
00000290: 9e98 df3d e298 a13e 61e9 73be 2fab 7e3e
000002a0: 4690 f2bd 7bb2 363e 3844 253e 2b07 86be
000002b0: 2f7d 3fbf b5f3 2bbf 56a9 bf3e 9d35 d23e
000002c0: c328 f0be 2938 ad3e a49f a43d e76a a73e
000002d0: 1a34 4f3e 82b3 10bf dd67 debe 494a 18bf
000002e0: 6135 5e3f 68ea 78be 01fb 46bf c257 073f
000002f0: ebec 783f b6a0 0cbf be13 2c3d 8e69 4b3e
00000300: 085f 1ebf 79b3 e63e 6e60 183f faa0 ab3e
00000310: aee2 63bf 10da 2ebf de38 23bf 7930 e4be
00000320: d7b1 bcbd e670 283f c9cb 08bf 0248 afbe
00000330: 9681 6f3d 1656 69be 6e20 433f 0212 04bf
00000340: 1f7e c33e 195d 0f3f 2b57 243f 4543 5b3f
00000350: d679 723e 8eba 143f e8f5 433e 776a a93e
00000360: e2fa f53e a60a 88be f94d b23f 6194 c83d
00000370: 2c31 5c3f 060c dabd 00e7 e23e 51d7 523d
00000380: b309 e9be ecbf a7bc dc3a 17bf 4019 323e
00000390: 5827 273e 0218 ac3e 129e aebe d362 91be
000003a0: f344 29bd b372 3a3f 4de4 30be 806b 9e3d
000003b0: 895f 18be 2596 dbbe f2f6 99be a542 283f
000003c0: 9544 75bf 80f0 1dbf 455e 203e e18c 21be
000003d0: e3bb 6e3f 0a06 4cbf 6628 5cbf 2cf5 b8bd
000003e0: 9fbe ddbe 3ccc 42bf 061a 2dbc da88 4ebd
000003f0: a646 10bf 48a9 853f af38 4d3f 4e46 d3be
0.5129117 -0.010173006 0.054513894 0.5989684 -0.61597943 -0.014507153 -1.6496513 -0.33040708
-0.44696382 0.29888314 -0.38993296 -0.89844483 0.98358685 -0.6244651 0.0048528933 -0.3538469
0.2918774 -1.1596022 0.6148964 -0.622635 0.46431676 0.539816 -1.2743866 0.35791963
-0.31468523 0.39352325 -0.4442241 -0.20674649 0.02447838 1.2370173 0.8151571 -0.19241746
-0.7322276 0.39403567 0.2546674 0.23669088 0.39023668 -0.0737351 -0.007394552 -0.1988433
-0.28121048 0.5963923 0.23819163 -1.0724583 -0.33677778 0.40449002 -0.44350696 -0.39228445
0.1104974 0.14171329 0.7935956 -0.14530356 -0.34272328 -0.5957522 -0.19727951 0.2528436
-0.49902785 -0.3617198 0.6622569 -0.08414927 0.48895717 0.77730453 1.0028576 -1.0198758
0.20688717 -0.47827572 -0.155614 -0.3626991 0.8150145 0.2975831 -0.24366601 -0.077028945
0.18903165 0.38813353 0.31397074 0.4564255 0.7789545 -0.5658276 -0.73511606 0.40922782
0.5524041 -0.25760907 0.0151147805 -0.32569936 -0.38601014 -0.49514613 -0.2927664 -0.080899075
0.10904966 0.38437214 -8.024939e-05 0.4049575 1.1319292 -0.26038563 0.28606102 0.042538226
0.26117864 0.27027762 0.39365792 0.6407833 0.33709845 0.2585553 -0.40935677 0.79202676
0.3243157 -0.80680645 0.3176878 -0.12929277 0.1539799 -0.39601886 0.17729206 -0.82355267
1.181408 1.4109899 -0.5605678 0.042701717 -0.8656625 1.3871086 -0.0932476 -0.20972995
0.79641515 -0.7916728 -0.02780043 0.10941788 -0.5299199 -0.66555846 -0.5143262 0.23143603
-0.12813471 0.51990926 0.69285506 -0.3612661 0.76566935 -0.3120653 -0.04502688 0.15590316
-0.2713518 0.08732665 -0.024954686 -0.43295783 -0.5820824 0.26349404 -0.5796982 0.5570513
-0.46248972 0.19408123 0.7604857 0.1453051 -1.0523121 0.24723284 0.47058442 0.08104254
0.2348878 0.90321946 -0.07166764 0.46952432 0.89274997 -0.34676877 -1.4502614 0.46453696
0.10952511 0.8571218 -0.46022114 -0.2648958 0.10917781 0.31561953 -0.23819496 0.24869989
-0.11843924 0.17841522 0.16139305 -0.26177344 -0.7480039 -0.6716874 0.3743388 0.4105653
-0.469061 0.3383191 0.080382615 0.32698748 0.20234719 -0.5652391 -0.43438616 -0.5948835
0.868002 -0.24308169 -0.7772675 0.5286828 0.9723651 -0.54932725 0.042011015 0.19864485
-0.61863756 0.45058802 0.5952214 0.33521253 -0.8901776 -0.68301487 -0.6375865 -0.44568232
-0.09213608 0.6579727 -0.5343595 -0.34234625 0.058473192 -0.22786745 0.7622136 -0.5158998
0.3818216 0.5600143 0.6419551 0.8564952 0.23679289 0.5809716 0.19136775 0.3308904
0.4804297 -0.26570624 1.3930045 0.09793926 0.8601253 -0.106468245 0.44316864 0.051474873
-0.45515212 -0.020477258 -0.5907419 0.17392445 0.16323602 0.33612067 -0.34104973 -0.2839571
-0.04132552 0.7283127 -0.1727459 0.07735348 -0.14880194 -0.4288799 -0.30071217 0.6572669
-0.9580777 -0.616951 0.15660961 -0.15776397 0.9325544 -0.79696715 -0.85999143 -0.09031138
-0.43309495 -0.76092887 -0.0105652865 -0.05042348 -0.563578 1.0442286 0.8016462 -0.41264576

lstm.bias_ih_l1 f4 [512]
00000000: 3eae cabe f6e6 95be af92 14bf e5a7 40bd
00000010: 5e1c 47be 7bb6 18bf 0151 ee3b 1030 80be
00000020: e82c 94be 7a5f cdbd ef25 8fbe b29f dabd
00000030: e9fa 003d 0b41 e5be c57f 08bf 81bf 2bbf
00000040: 7c86 193e 1172 89be 853f 373e 85a2 9e3e
00000050: ea21 553d a79f 92bd 0207 3cbe c3c4 34be
00000060: c683 1fbe 8d71 3e3e e3f4 e8bd f3f6 abbe
00000070: 9552 99be b1ec e63d b553 ebbe 5147 bfbe
00000080: 947a cf3d d3db 6ebe a138 f4bd 7eb4 1abf
00000090: 35d0 2cbe 9167 a4be fff1 babe 30d7 9dbc
000000a0: 2df0 50bd 3b99 0c3e 90f3 e9be b259 17be
000000b0: eb6b 1cbe 078a 5abe 4dc5 e9be 8cc8 cdbe
000000c0: 1445 b63c 1bbe a63d 7d40 08bf c5b3 d5be
000000d0: e862 d4be 6378 1cbc 2e3e b0be 4dc7 a6be
000000e0: 3af9 0b3d 1be6 98be 3bed 29be e3b7 b4be
000000f0: f6e4 f6be 8a3a 12bf f53d f5be fc59 adbd
00000100: 6e08 0bbf 183f 7abe de25 3a3d 5041 c0be
00000110: 8f6c 18bf b3a8 6d3e 311c 44be 7f31 78be
00000120: db92 c8be 07d4 1cbd 128a 52be f55f 8b3d
00000130: 8b5c 81be a4f0 07bf f6c4 8fbe 268c 013e
00000140: 739d 92be 6a05 13be 4c1e 32be c01b 04be
00000150: ecc1 a7bd 1f15 34be 5189 333e 0b2d 91be
00000160: abcc dbbe 87a7 8c3e f69d aabe 1df7 edbe
00000170: 1774 2cbe 8680 5e3d dcc7 b9be 7f13 883e
00000180: 8b6e b6bd 1239 47be ead7 07bf b954 2b3e
00000190: ba1a 103e e8b4 a3be 7add ad3e eed5 d7bd
000001a0: d539 16bf 83f2 bb3e 81a7 f9be 70bf c8be
000001b0: a484 dfbc 310d df3d 67c8 dd3c 4c80 bcbe
000001c0: 0304 00be 811b 94bd 7383 a33e f5c6 ce3e
000001d0: ca39 36be fe04 9e3d 497e 22bd 1696 7cbe
000001e0: 1e8e 81be ac3f 0cbe 325c b0bd 1ce1 32be
000001f0: a25c 8fbd 3f1a eabe 9808 bfbc eb1d b73d
00000200: 5d8e f2be b46f 033f afb8 083f 1529 0fbf
00000210: f073 e63d 8496 a8be 60b4 01be e4fc 08bf
00000220: 9b23 38bf e875 d2be 771f 50bf aa91 49be
00000230: 1003 3dbf 1836 99be 9ec3 d2be 65b6 9a3e
00000240: 4cca cf3e d7a7 abbd 7539 4fbe 27e6 033e
00000250: 13cc 2e3e 64b7 b53e 0de6 cebd 98ef 2fbf
00000260: a41c 3dbf a1c9 edbe 8c13 01be 5e1c c4be
00000270: 737f 12be b04c e9be 6a08 5c3e 0954 e73e
00000280: 3aee 8e3d e9ca e7be 4da1 5dbf b4f5 de3e
00000290: a48c a53d da9f a93e 7b57 ef3e ff93 1bbf
000002a0: f13f 85be d710 0dbf 79ca 053f 00af 81be
000002b0: 201c febe 84ef bc3d a058 403f 625b 803d
000002c0: 02c0 053e a0c5 d43e 6b19 e73d a7cc 10bf
000002d0: 2489 d9be 00c5 bebe 4b5c 96be 83d8 23be
000002e0: 8353 fabd 2c6c 28bf 1463 d33d 2f15 9c3e
000002f0: 5518 2d3e b060 003f f274 2b3f e99a 723e
00000300: afc5 8b3e 5eb6 28bf 7bf0 163e a5f8 11bf
00000310: 9b39 1c3f 41d9 02bf 8598 2bbf f4c8 ca3d
00000320: c1f6 80be 07ce 1dbf 7a87 8e3d 029a 0ebf
00000330: 8394 8a3e dc35 1c3f c492 34be 10f2 b8be
00000340: 90c3 683e aded 193e aaf2 34be 2789 d53e
00000350: 7083 0fbf dc48 f9be 3a1b e7be 2629 05bf
00000360: d401 0a3f 91fe dabe adb5 86be 98f7 2bbf
00000370: 06ff 96be 83bd b63e 3e51 34be b1c1 1ebf
00000380: 0e60 45bf 8ee4 e1bd 764b e03e ad6d 2cbf
00000390: 5ac4 d5be 41fc efbe 815c a8be 8d00 e03e
000003a0: c794 2c3f 6a12 1fbf 9c77 d03e 9189 acbd
000003b0: 61c0 fa3d 8f35 f6be eb4e 06bf 244f 8f3e
000003c0: 901c bd3c 367d 85bd 7d1c be3d 6ad0 98bb
000003d0: 69d7 b33c 7f34 953e 8b56 7ebe e541 1cbe
000003e0: 7761 7ebe 27f5 b9bc 603f 6dbe 63dc 0abf
000003f0: 052c 5bbe 26e2 ec3e 0e80 8cbe a851 44bf
-0.3958606 -0.29277772 -0.5803632 -0.047035117 -0.19444415 -0.59653443 0.00727284 -0.2503667
-0.2894051 -0.10027976 -0.2795863 -0.10674991 0.031489287 -0.44776186 -0.5331996 -0.67089087
0.14992708 -0.26844838 0.17895325 0.30983368 0.052034296 -0.071593575 -0.18362048 -0.17653184
-0.15577611 0.18598004 -0.113748334 -0.33586845 -0.29945818 0.11275614 -0.459623 -0.37359098
0.10130802 -0.23326044 -0.119248636 -0.6043166 -0.168763 -0.32110265 -0.36512753 -0.019267648
-0.0510103 0.13730328 -0.45693636 -0.1478031 -0.15275542 -0.21341716 -0.4565834 -0.40192068
0.022249736 0.081417285 -0.532234 -0.41738716 -0.4148171 -0.009550187 -0.3442244 -0.3257393
0.034173228 -0.29863057 -0.16594402 -0.35296544 -0.48221558 -0.57120574 -0.47898832 -0.08464429
-0.5430974 -0.24438131 0.04544627 -0.3754983 -0.5954065 0.23208885 -0.19151379 -0.24237631
-0.39174542 -0.038288143 -0.20560482 0.06805412 -0.25265917 -0.53101563 -0.28079957 0.12651119
-0.2863575 -0.14357534 -0.1739437 -0.12901211 -0.081912845 -0.17586182 0.17532851 -0.28354678
-0.42929587 0.27471563 -0.3332364 -0.46477595 -0.1684116 0.05432179 -0.36285293 0.26577374
-0.08907803 -0.19455364 -0.53063834 0.16731538 0.14072695 -0.31973958 0.33958036 -0.10538851
-0.58681995 0.3670846 -0.48760608 -0.39208555 -0.027284928 0.10891188 0.027073098 -0.36816633
-0.1250153 -0.072318085 0.31936225 0.40386167 -0.17795482 0.07715796 -0.039671216 -0.24666628
-0.2530374 -0.13696164 -0.08611335 -0.17468685 -0.0700009 -0.4572315 -0.023319528 0.08941253
-0.4737424 0.5134232 0.53406805 -0.5592206 0.11252582 -0.32927334 -0.12666464 -0.5351088
-0.7192933 -0.4110558 -0.8129801 -0.19684473 -0.738328 -0.29924083 -0.4116487 0.3021728
0.40584028 -0.08381622 -0.20236762 0.12880765 0.17070036 0.35491478 -0.101024725 -0.68724966
-0.7387183 -0.46442893 -0.12605113 -0.38302892 -0.1430643 -0.4556632 0.21487585 0.451813
0.06979032 -0.45271996 -0.8657425 0.43546832 0.08083466 0.3312977 0.4674643 -0.607727
-0.26025346 -0.5510382 0.52262074 -0.25328827 -0.49630833 0.092253715 0.7513523 0.0626743
0.13061526 0.41557026 0.11284145 -0.56562275 -0.42487442 -0.37259674 -0.2936729 -0.16000561
-0.1222296 -0.6579006 0.10321632 0.30484912 0.16903813 0.50147533 0.6697532 0.23691906
0.27299258 -0.6590327 0.14740174 -0.57020026 0.610254 -0.51112753 -0.670296 0.0990161
-0.25188258 -0.616425 0.06959434 -0.5570375 0.2706643 0.6101968 -0.17634112 -0.3612218
0.22730851 0.15032072 -0.17670694 0.417062 -0.5605993 -0.486884 -0.4513796 -0.5201591
0.5390904 -0.42772344 -0.26310483 -0.67174673 -0.29491442 0.3569146 -0.17609116 -0.620143
-0.7709969 -0.110299215 0.43807572 -0.6735485 -0.41751367 -0.46872142 -0.32883075 0.4375042
0.67414516 -0.6213747 0.40716255 -0.08424676 0.122437246 -0.48087737 -0.5246417 0.27990067
0.023084909 -0.06518023 0.092827775 -0.004663517 0.021953302 0.29141614 -0.24837701 -0.15259512
-0.24841867 -0.022699906 -0.23168707 -0.54242533 -0.21403511 0.46266288 -0.27441448 -0.766871

lstm.bias_hh_l1 f4 [512]
00000000: 8e6c c8be a202 9ebe e992 14bf b1e6 84bd
00000010: 0f8f 95be a126 0ebf 34c1 e43c 1127 83be
00000020: 8a25 a8be ff15 edbd 770c 83be 478b 11be
00000030: 818c b13d 05eb e7be 7f30 efbe f9e6 2fbf
00000040: eda5 f83d 4e1c 4dbe bf12 583e cdec 5b3e
00000050: b9f7 b23d 7ef4 a6bd aae8 23be f09d 84be
00000060: ce3e 23be 5367 453e 180e 4d3d 4d42 62be
00000070: 30a3 85be 64a6 013e 5993 b3be d3e0 c5be
00000080: a923 f53d 772f 11be 5bb4 1bbe be2e 12bf
00000090: 7415 9ebd dda2 98be 914b bbbe b412 da3d
000000a0: 371c c8bd 739f 103e 4ac4 ddbe 8751 87be
000000b0: d5de 05be f701 84be 8b44 f8be 4056 cbbe
000000c0: 525f 87bb a994 c83c 8e4b d8be 410c f6be
000000d0: 16a3 c3be 5728 dcbc 2042 c6be 4769 cfbe
000000e0: b150 a7bd e344 52be 0bd0 47be 7f99 94be
000000f0: 5e13 f4be ae75 0abf 81fa f3be 7fbf 35be
00000100: 6f07 f7be 4c87 4dbe 1e66 443d 66d9 d7be
00000110: 3ba5 28bf 1b1b 683e 21ed 91be 4352 75be
00000120: 7783 9cbe a832 37be 3383 c7bd 7baa 7b3d
00000130: e26c 40be 3856 0ebf 2c2e 8cbe eb9f 4d3e
00000140: f6fd 81be 5eea 25be 8c41 56bd 545c e2bd
00000150: 820c fbbd 44dd 81be 9e4d 0b3e 88a8 46be
00000160: 7152 f5be 31b9 4c3e 16ce 93be 3b9e f7be
00000170: e5a2 25be dbdb 4c3e 5866 c0be 3cd6 4b3e
00000180: 254b a3bd ded8 a7be b654 0cbf 3829 fb3c
00000190: f01b 603e 0e06 ccbe 9052 b73e f720 55be
000001a0: e78c 22bf e738 543e f359 cbbe 8600 f1be
000001b0: 6c08 f13d 123e 743d 9546 073e 7a70 a5be
000001c0: d1bf eabd 9448 a23d 817c 813e 7b09 d03e
000001d0: cc90 30be 6e41 823c 2373 4ebd b0f5 6fbe
000001e0: 7fc4 1cbe f94c 84be 9e1f 01be 0842 8dbe
000001f0: 0c83 0bbe c1bc e7be 0479 49bd 35fd 6b3e
00000200: 0f42 f6be 57b9 e13e 3938 df3e c749 15bf
00000210: 58c4 3c3e ac9c acbe 48f6 01bd b710 fdbe
00000220: b7fe 4ebf 947e d2be 257e 46bf da2a 77be
00000230: 7431 62bf f4f1 bfbe f9bc 00bf 4059 533e
00000240: 88f4 b43e 4dc0 05be 9d31 77be cb8b ec3d
00000250: 5dfc 633e 6665 8a3e 95ac 88bd b690 31bf
00000260: 7251 36bf 0b51 bfbe 76cc 4ebe 48fe abbe
00000270: d724 94be 40c3 eebe aa61 0e3e 8f7f d03e
00000280: 8829 a03d 3034 f4be bb17 45bf d269 cb3e
00000290: 386c 243d fa76 913e 0502 f33e 37e3 1fbf
000002a0: 4826 83be 7ff8 1fbf c171 d33e deb8 98be
000002b0: 2289 d5be 6f4a 263d d2eb 453f a803 323d
000002c0: 54aa d3bc dea6 ae3e dba9 d63d ef68 0dbf
000002d0: ac55 e0be 5cc9 ccbe e00d 74be 0114 6bbe
000002e0: f71e a1bd e6f9 08bf 1e6b 593e bc4b 813e
000002f0: f325 4e3e 9da8 e73e 12a8 273f 2018 3c3e
00000300: 959c d33e e0a7 0cbf 9363 493e 7b07 1dbf
00000310: 5348 173f 8b47 0dbf d2c3 02bf ccc6 743e
00000320: b667 9cbe ad4f 12bf c79c 143e c6c2 15bf
00000330: 7fc2 213e 1962 fc3e 5285 37be 52b2 b0be
00000340: 9a4e 883e 1f01 c93d 3e45 65bd ec50 0e3f
00000350: d277 19bf a551 0ebf e278 b8be 74fb 1ebf
00000360: b059 333f 2152 0fbf 31a3 85be 0cb4 2fbf
00000370: 4ccb bebe ffae d73e 72bd 9fbe f927 44bf
00000380: 1026 52bf 2308 97bc 5612 d33e 1181 27bf
00000390: 4229 d6be 211a 07bf 095a 8fbe 9f26 f83e
000003a0: 2f42 283f 3405 3bbf 1afd a73e 2152 383d
000003b0: c547 d03d 4287 14bf 85f1 11bf 30ce 0c3e
000003c0: a14c 013e 15f2 a53d 4e6a 0f3e 4b57 81bd
000003d0: 84a3 753c 8aa6 a13e 09ba a7be cbc4 59be
000003e0: ed68 89be 2c8c a83b 05f6 1cbe 7589 25bf
000003f0: 5346 28be 00b5 da3e 8c52 8cbe 3c6f 48bf
-0.3914532 -0.30861384 -0.5803667 -0.064893134 -0.29210708 -0.55527693 0.027924158 -0.25615743
-0.3284114 -0.11576461 -0.25595447 -0.14213286 0.08669377 -0.45296493 -0.46716687 -0.6871181
0.12141023 -0.20030329 0.21100901 0.21477051 0.087386556 -0.08152102 -0.16006723 -0.25901747
-0.15941927 0.19277696 0.05006227 -0.22095604 -0.26101065 0.12661129 -0.35073355 -0.3864809
0.11969692 -0.14178263 -0.15205519 -0.5710257 -0.077189356 -0.29811755 -0.3658109 0.106480986
-0.097710066 0.14123325 -0.4331382 -0.26429388 -0.13073285 -0.2578275 -0.48489794 -0.3971424
-0.004131236 0.02448495 -0.42245144 -0.48056224 -0.38210362 -0.026874704 -0.38722324 -0.40510008
-0.081696875 -0.2053409 -0.19512956 -0.29023358 -0.47671026 -0.54085815 -0.47652057 -0.17748831
-0.4824786 -0.20071143 0.04794895 -0.4215805 -0.6587712 0.2266659 -0.28501227 -0.23957162
-0.3056905 -0.17890418 -0.09741821 0.06144188 -0.18791535 -0.5560031 -0.27378976 0.20080535
-0.2538907 -0.16202685 -0.052308604 -0.110527664 -0.12258245 -0.25364125 0.13603827 -0.19400227
-0.4791446 0.1999252 -0.2886817 -0.48362908 -0.1617542 0.20005743 -0.37578082 0.19905943
-0.07973317 -0.32782644 -0.5481676 0.030659303 0.21885657 -0.3984837 0.35805178 -0.20813356
-0.6349625 0.20724832 -0.39717063 -0.47070712 0.117691845 0.059629507 0.13210519 -0.32312375
-0.11462367 0.079239994 0.252903 0.40632233 -0.17242736 0.01590034 -0.05040277 -0.23433566
-0.15309332 -0.25839975 -0.12609717 -0.2758944 -0.13624209 -0.45261195 -0.049187675 0.2304581
-0.48097274 0.44086716 0.43597582 -0.583157 0.18434274 -0.3371328 -0.031729013 -0.49426815
-0.80857414 -0.41112196 -0.7753623 -0.2413744 -0.8835671 -0.37489283 -0.5028835 0.20639515
0.35342813 -0.13061638 -0.2414002 0.11550101 0.22264238 0.27030486 -0.066735424 -0.69361436
-0.71218026 -0.37366518 -0.20195183 -0.3359244 -0.28934357 -0.4663334 0.13904443 0.4072232
0.078204215 -0.47696066 -0.76989335 0.39729172 0.040142268 0.28411084 0.47462478 -0.6245608
-0.25615144 -0.6248855 0.41297725 -0.29828542 -0.41706187 0.04059833 0.7731296 0.043460518
-0.025838055 0.34111685 0.10481616 -0.5523824 -0.43815362 -0.39997375 -0.23833418 -0.2295685
-0.07867234 -0.53506315 0.21232268 0.25253093 0.20131664 0.4524583 0.6549083 0.18368578
0.413304 -0.54943657 0.19666891 -0.6133954 0.59094733 -0.5518729 -0.5108005 0.2390396
-0.30547875 -0.57152826 0.14512931 -0.58500326 0.1579685 0.49293593 -0.17921951 -0.34511048
0.26622468 0.09814667 -0.055974238 0.55592227 -0.59948456 -0.5559333 -0.36029726 -0.62102437
0.7005873 -0.55984694 -0.26101068 -0.68634105 -0.37264478 0.421257 -0.31199223 -0.76623493
-0.8208933 -0.018436497 0.41224927 -0.65431315 -0.41828352 -0.52774245 -0.2799838 0.48466966
0.6572599 -0.73054814 0.3281029 0.0450002 0.10169939 -0.5801889 -0.57009155 0.1375053
0.12626888 0.08102814 0.14005396 -0.06315478 0.014992598 0.31572372 -0.3275912 -0.21266477
-0.26837865 0.005143663 -0.15328224 -0.6466287 -0.16433077 0.42716217 -0.27406728 -0.7829473
