backend/inference/models/new_multicar_multistep_model.pt (torch, 824725 bytes, 10 tensors)

lstm.weight_ih_l0 f4 [512, 11]
000000 e3 99 81 bd d5 7e 35 3e 65 1c 32 bc 97 33 bf bd
       -0.0632818 0.17724164 -0.010871028 -0.09336012
000010 54 f7 78 3d ac c1 14 3e 61 bb 5d 3c 18 5c c5 3a
       0.060782745 0.14527005 0.013533444 0.0015057353
000020 e7 0a eb 3d 8c ab c3 3d cf db 89 bd 70 03 74 bb
       0.11476689 0.09554204 -0.06731378 -0.0037233494
000030 e5 8c 9e 3d 79 bf 01 bd 45 50 d7 3e 9e 1a 2d bd
       0.07741717 -0.031676743 0.42053428 -0.042261712
000040 a6 7a 82 3d 9f f3 6b bd 6e 40 e0 3b 14 1a d2 bd
       0.063710496 -0.057605382 0.006843618 -0.1025888
000050 7b af a9 bd 1a 07 77 bd 12 2b f6 bd c6 9f 1b be
       -0.08285423 -0.060309507 -0.12019934 -0.15197667
000060 c0 9c cd bd de 82 70 3c f8 f6 a0 3c ea a4 9f bc
       -0.10039663 0.014679639 0.019649014 -0.019487817
000070 b4 45 a3 3d b3 69 55 bd 88 db bf 3c 66 4c 40 bd
       0.07972279 -0.052102756 0.02342011 -0.04694786
000080 f7 d3 7f bd bc d1 e1 bd a8 75 a5 bd 68 89 c2 3d
       -0.062458005 -0.11026332 -0.08079082 0.094988644
000090 46 9b 12 3e 91 84 b8 bd ad c3 9b 3b a4 ff 06 be
       0.14317045 -0.0900966 0.004753551 -0.13183457
0000a0 d7 4e b0 bc 79 3b c1 3d 4d ba aa bc 1a 0c 2e 3d
       -0.021521969 0.09435172 -0.020840788 0.04249201
0000b0 5c 94 3e bd b3 53 d5 3c 08 e1 b1 3c 14 2f ea 3d
       -0.046528205 0.026040887 0.021713749 0.11434761
0000c0 19 7d 56 be 0d 0e 05 bd d5 69 d2 bb 15 c0 b8 3c
       -0.20946158 -0.032484103 -0.0064213076 0.02255253
0000d0 37 92 85 3d 59 dd af 3c 5e 26 20 3e 0b db 97 bd
       0.06522029 0.021467851 0.15639636 -0.07414826
0000e0 2a 11 05 bd f9 95 e2 bc 5a 64 a1 3c 58 76 ae bb
       -0.032487072 -0.027659403 0.019701172 -0.0053241663
0000f0 d3 d6 92 bd 51 0b e7 bd f1 22 0f 3d e9 da 8d bc
       -0.07169881 -0.11281455 0.034945432 -0.017316299
000100 99 78 48 bd 95 50 d6 bd 0d e3 9f bc 18 40 aa 3d
       -0.048943136 -0.104645886 -0.019517446 0.08313006
000110 86 7e cb 3d 23 b5 81 3d 84 a6 7a bd 1c ff a0 bd
       0.09936242 0.06333377 -0.061193958 -0.07861158
000120 97 f5 29 3e 50 68 dd 3d ea eb e9 bc 7a 52 2d bd
       0.16597591 0.10810912 -0.028554875 -0.042314984
000130 49 5d 1a 3e 09 c6 c9 3d c4 f4 cd bd 43 09 54 be
       0.15074648 0.09852225 -0.10056451 -0.20706658
000140 63 c4 88 3e 9f 13 80 bd 5b 3b 6b be 74 d3 46 be
       0.2671233 -0.062537424 -0.22971861 -0.194166
000150 4c fc 8b bd 9f 95 07 bd 05 21 06 3e 92 e8 5d 3d
       -0.06835231 -0.033101674 0.13098533 0.054176874
000160 85 6f 3c bd ef df d4 bc c8 f2 d2 3d 46 2e 7f 3d
       -0.04600479 -0.025985686 0.10300213 0.06229999
000170 07 76 bf 3d af 66 04 bd 70 fc 37 3c 78 81 04 3e
       0.09348684 -0.03232449 0.011229619 0.12940013
000180 e5 7b fd bc 7e 35 0f 3d 35 4e bc 3d 1f e2 10 bd
       -0.030942867 0.034963124 0.09194604 -0.035371896
000190 fb d9 a1 3d 7a ed b4 3c ff 0c 00 3d 4c 0f 9a bd
       0.079029046 0.022085894 0.031262394 -0.07522449
0001a0 75 ff ff 3c 55 49 12 3e 89 d4 a2 bd 29 3c 14 bd
       0.031249741 0.14285786 -0.07950694 -0.036190186
0001b0 f4 50 c8 b8 77 b4 36 bd 2b 34 8f bc e7 65 a7 3d
       -9.551822e-05 -0.0446057 -0.01748093 0.08173733
0001c0 ad 11 e3 bd a2 28 78 3c 4d 0d ae bd 5d b4 b1 bc
       -0.11087356 0.015146406 -0.08498631 -0.02169245
0001d0 04 f8 da bc c8 71 4d 3e 6f a9 5a bd 5a 65 5b 3d
       -0.026729591 0.20062935 -0.05338424 0.053563453
0001e0 e8 b3 2b 3e 40 b5 3c 3e cb c0 b0 3c 5e f2 f6 3d
       0.16767848 0.18428516 0.021576306 0.120579466
0001f0 40 10 2b bc c3 0c 0f 3e 45 dc 55 3d 12 74 d9 bd
       -0.010440886 0.13969712 0.05221202 -0.10617842
000200 ef 4a 32 bd 21 71 ef 3d 32 88 0c bc e8 ff cd bd
       -0.043528493 0.116914995 -0.008577393 -0.10058576
000210 01 03 8d bd 69 64 9f bd bb e2 23 be cd 9f 18 3c
       -0.068853386 -0.077828236 -0.1600446 0.009315443
000220 34 91 87 3c 67 fd 1f 3e 7f a5 18 be 81 f0 96 3c
       0.01654873 0.15624009 -0.14906882 0.018425228
000230 30 41 2b 3e d3 c9 cc 3d 68 11 36 3b 7e f1 a3 bd
       0.16724086 0.099994324 0.002778137 -0.08005045
000240 57 f3 53 bd a8 79 cf 3d 13 65 70 3e d5 6a 10 be
       -0.05174574 0.10130626 0.23476057 -0.14103253
000250 80 ca 18 bd fb f5 1f 3e 0c f3 13 bd 1d 81 87 3d
       -0.037302494 0.15621178 -0.03612046 0.06616423
000260 7c 9f bb 3c 86 24 13 3e 5e 4a 93 39 ee 11 37 bd
       0.022903197 0.14369401 0.00028093433 -0.044694833
000270 20 4c 35 3c 7d 12 92 3d 24 77 e3 bd 06 ee c3 bd
       0.011065513 0.071324326 -0.11106709 -0.09566884
000280 40 a0 ca bd 83 b4 d6 3d 41 c9 43 3e d9 cf 6c 3d
       -0.098938465 0.10483649 0.19119741 0.057815406
000290 54 54 d3 3d 42 2f 7c 3d b2 8e 86 3d 1a 09 45 be
       0.10318819 0.061568506 0.06570186 -0.19241753
0002a0 f6 32 72 3d d2 23 a3 3e b1 bd 09 3e 10 8b b2 be
       0.05913063 0.31863266 0.13451268 -0.3487172
0002b0 a0 7f 0c be b3 8f 80 bc 8c fe dd 3d b7 e3 d0 3d
       -0.1372056 -0.015693521 0.108395666 0.10199683
0002c0 b7 9b 79 bd de d9 a6 3d 79 75 05 3e 59 b8 bc bd
       -0.060939517 0.081470236 0.13033094 -0.09214849
0002d0 18 af 21 3e aa 54 7d 3e 3e ac 95 3d 79 59 16 be
       0.15789449 0.24739328 0.07308243 -0.14682569
0002e0 8f b3 00 3d 5a ab 03 bd 11 d5 f4 3d 8a ce 1e 3e
       0.03142124 -0.032145835 0.11954702 0.15508476
0002f0 9d 05 94 bd 45 04 ac bd ca 49 d4 bd 58 aa d6 3c
       -0.07227633 -0.08399252 -0.10365637 0.026204273
000300 bc f3 29 3e 3f 94 8f 3d bf ba c9 3d 87 a5 97 bd
       0.16596884 0.070106976 0.09850072 -0.07404619
000310 76 07 9e 3c 8a 8f 66 3d d0 af 8b 3c 30 97 8b 3d
       0.019290667 0.056289233 0.017051607 0.06815946
000320 b1 34 7d bd 2d 92 cc bd c9 55 2b be 46 e6 83 3e
       -0.06181783 -0.09988818 -0.16731943 0.25761622
000330 53 5a 08 be aa dd c6 bc 08 7a 96 3d 2e ed ee 3c
       -0.13315706 -0.02427562 0.07347494 0.02916583
000340 85 19 2d be 53 1d 76 bd c1 60 99 3c ae 9d 14 3d
       -0.16904266 -0.06008656 0.018722894 0.036283188
000350 87 e6 b7 bd 68 4e c1 3d b5 83 7d 3e b4 3d a0 3c
       -0.089795165 0.09438783 0.24757273 0.019560672
000360 a4 4c 08 bd 7c f9 96 3d bb 68 07 3e 39 f3 a4 bd
       -0.033276215 0.07371804 0.13223545 -0.080542035
000370 57 cf cd 3a eb 3f a5 bd 10 9f 89 3d b3 49 3d 3d
       0.0015702051 -0.08068832 0.06719792 0.046212863
000380 9c e1 81 3d 08 f3 bf 3a 8a 99 0b bb 33 ee 85 3d
       0.0634186 0.0014644573 -0.0021301233 0.065395735
000390 3d 0c 55 3e 54 55 56 3e d8 29 4b 3e 75 c1 04 3e
       0.2080545 0.20930988 0.19840181 0.12964423
0003a0 78 90 d0 bd 1b 38 11 3e 7c 94 78 bd 4d 99 22 bd
       -0.10183805 0.14181559 -0.06068848 -0.03969698
0003b0 4e 3e 8d 3d 0c 25 14 bd 63 ee db 3d 8c 99 e9 3c
       0.06896649 -0.036168143 0.10738828 0.0285156
0003c0 66 bb a6 bd ab de 56 3a de c4 5b 3e 0e ce 51 3d
       -0.08141212 0.0008196632 0.21461818 0.0512219
0003d0 03 2d 0c be e1 85 20 bd a9 15 69 be b3 dd 78 3d
       -0.13689046 -0.039190177 -0.22762169 0.060758304
0003e0 e4 25 3c 3e ab 72 d1 3d 0b 7c 85 bc 91 58 01 bd
       0.18373829 0.10226949 -0.0162945 -0.031578604
0003f0 84 f0 9a 3d 61 50 fc 3d 0f 9c ab bc 9e 9d b2 bd
       0.07565406 0.123200186 -0.020948438 -0.08721469

lstm.weight_hh_l0 f4 [512, 128]
000000 67 a0 17 be a9 3b ba bd 7e d6 23 3d 34 b7 e4 bc
       -0.14807282 -0.090934105 0.039999478 -0.02791939
000010 ac e5 90 3d 08 fc 15 3d 6c 53 06 bd bc 7f 28 bc
       0.070750564 0.03661731 -0.0327944 -0.0102843605
000020 76 c3 92 bc 43 21 14 be 7a 6a 0a bc c0 ff 9b bd
       -0.017915469 -0.14465813 -0.008448238 -0.0761714
000030 8c f7 5f be a2 4d d3 3d 49 2b c1 3d 98 a6 ff bd
       -0.21871775 0.10317542 0.09432084 -0.12482947
000040 ab c0 db 3c 67 c7 a5 bd a0 80 e0 3d 49 bf 9f 3c
       0.02682527 -0.080946736 0.10962033 0.019500392
000050 a6 ed a7 bd 5b 3e 48 be 63 df f8 3d ce 22 42 3d
       -0.08199625 -0.19555037 0.12151983 0.047396474
000060 87 ac eb 3d 00 e7 10 be 4e 88 69 bd 60 d5 9a bd
       0.11507516 -0.1415062 -0.057014756 -0.07560229
000070 09 7e 2b 3e 96 5f 45 3c 9f 12 ab bd 9a 6a 72 ba
       0.16747297 0.012046715 -0.08353161 -0.0009247452
000080 7d 9c 43 bd 28 3a 2a bd 18 28 a6 bd 1a 94 95 bd
       -0.04775666 -0.04155937 -0.08113116 -0.07303639
000090 39 8b 13 be 72 1e 16 3d c3 af ca 3d 1a 45 22 bc
       -0.14408578 0.03665013 0.09896805 -0.00990417
0000a0 2e d5 46 3e 66 85 90 3d 3d 4f 8a 3e d2 85 b6 3d
       0.19417259 0.07056694 0.2701358 0.08912243
0000b0 3b 33 95 bd 03 cc 3a 3d c5 44 d0 3d e3 e5 2c be
       -0.07285162 0.045604717 0.10169367 -0.1688457
0000c0 ac b7 0e 3d f8 90 a5 ba 85 d7 20 3d f5 5a 0b 3e
       0.034843132 -0.0012631705 0.039268035 0.13608916
0000d0 b7 d7 40 bd 70 88 77 bc 70 2e 06 be 91 54 e3 bc
       -0.04708072 -0.015108213 -0.13103652 -0.027750285
0000e0 4f ed 83 3d fa 8c 00 3d a5 0c c5 3c 17 0e 12 bd
       0.064417474 0.031384446 0.024053881 -0.03565797
0000f0 7c aa 6d be 24 3c b4 bc 46 d1 ce 3c 81 cb 94 bb
       -0.23209566 -0.022001334 0.025246274 -0.004540861
000100 ab 2f f0 3d cc 7c 85 bd 67 6d a0 be 83 39 09 bc
       0.11727842 -0.06517944 -0.31333467 -0.008375528
000110 ac c2 b9 3c d6 4a 80 bd db 50 09 3d 71 71 4e bc
       0.022675835 -0.06264274 0.033524375 -0.012600289
000120 3b e0 ab bd e4 48 14 bd a7 d2 9c 3d f1 d9 b4 bd
       -0.08392378 -0.036202326 0.07657366 -0.088306315
000130 cc a1 96 bd af 96 3f bd 17 c6 62 3d 4e 02 b5 bd
       -0.07355079 -0.046774562 0.055364694 -0.0883833
000140 6d d2 e0 bd 3e 29 38 3c 56 79 a4 3d 71 a3 2b 3e
       -0.109776355 0.011240302 0.080309555 0.16761567
000150 46 f0 a8 bc 65 f5 9a 3c eb a7 e3 bc d1 f5 65 3c
       -0.020622384 0.018915841 -0.02779003 0.014035658
000160 4c 99 90 3d 92 03 6d 3d a8 01 bd 3d 6c 3c 82 3d
       0.07060489 0.057864733 0.092288315 0.06359181
000170 a5 ab c6 3d 5a 69 ce bc b9 7a 55 bc b0 2f 3c 3e
       0.09700707 -0.02519672 -0.013029748 0.18377566
000180 0e d2 ad be fe bc 8c 3e bb 0a e4 bd 1e f8 e0 bd
       -0.33949322 0.2748794 -0.11134859 -0.109848246
000190 3f 24 f2 bd cf 41 a3 3d ca ca 24 bd f7 55 27 3d
       -0.1182332 0.07971536 -0.040232457 0.040853467
0001a0 71 90 83 bd 6a d9 14 bd 6c bb 17 3d 89 a4 27 be
       -0.064240344 -0.036340155 0.037043974 -0.16371359
0001b0 98 30 27 be b0 f0 67 be 8b 03 f7 bb cf 20 5c 3d
       -0.16327131 -0.22650409 -0.007538264 0.053742226
0001c0 df 05 3e be 36 ca 55 be c2 a5 af bb b7 23 dd 3c
       -0.18556927 -0.20877919 -0.005360336 0.02699457
0001d0 e3 13 0f be ce c1 c4 3c f7 4b c3 3d a2 1d 9d 3d
       -0.1397243 0.024018195 0.095359735 0.07671668
0001e0 54 cc 92 3c 28 63 e2 bd 7a 65 a4 3d 1f 36 07 bd
       0.017919697 -0.11054069 0.080271676 -0.0330106
0001f0 5a 5a 98 bd 40 90 12 bc 2d 37 2f 3e a8 b6 30 bd
       -0.07439108 -0.008945525 0.17110892 -0.043142945
000200 42 f3 11 3d 23 32 f3 3d d1 81 1b be 61 ea 2c bd
       0.03563238 0.11874797 -0.1518624 -0.04221571
000210 99 3c c2 3d 07 d6 13 3e c1 26 b1 3d c7 98 2a 3c
       0.09484214 0.14437114 0.0864997 0.0104124015
000220 ea 27 98 3d 79 a7 20 3e 3a 47 21 be 16 4e 6f bd
       0.07429488 0.15688886 -0.15749827 -0.058424078
000230 5a 99 0a be 3e 07 16 3e 78 c8 d8 bc 6d 44 c1 bb
       -0.13535061 0.146512 -0.026462778 -0.0058980496
000240 b0 ed 43 3e 8a 94 92 3d e9 d9 77 be 81 f8 5c bd
       0.1913364 0.07157238 -0.2420422 -0.05394793
000250 72 68 d9 bd ed 64 d1 bc e3 5d d0 3d 04 a3 bb 3c
       -0.106156245 -0.02556082 0.101741575 0.02290488
000260 3d e2 3a 3d 3a 54 74 be ac 3b a7 3c 92 98 c8 bd
       0.045625914 -0.23860255 0.020414196 -0.097947255
000270 49 51 51 3c 1f 15 e5 bd 5f ff bb bb 2a 0f 29 be
       0.012775728 -0.11185669 -0.0057372297 -0.16509691
000280 29 6b 25 3e 26 13 f0 3c 11 89 e4 bd e5 8f 65 3d
       0.1615416 0.029306006 -0.11158956 0.05604543
000290 3e 94 00 3d 28 fa e6 bd 47 79 e6 3d 2e 8c e3 3d
       0.031391375 -0.11278182 0.112536006 0.111107215
0002a0 f3 22 14 3e 95 b5 1d 3e 91 f8 c2 3d c2 9b 99 bc
       0.14466457 0.154013 0.095200665 -0.018751029
0002b0 9c 02 62 3d a4 94 89 3d c9 9e cf 3d 03 ed fb 3b
       0.05517827 0.06717804 0.10137708 0.007688166
0002c0 a4 85 33 be 72 41 78 bc 21 4e 12 3e 0e 58 da 3d
       -0.17531449 -0.015152322 0.14287616 0.10661326
0002d0 ab 44 0e bc 60 63 dd 3c f7 10 82 3e ea c4 ff bd
       -0.008683364 0.027024925 0.25403568 -0.1248873
0002e0 7e cf f1 ba 3d 90 67 3c 56 d9 e3 3c ca 04 31 be
       -0.0018448678 0.01413351 0.027813595 -0.17286983
0002f0 cb d7 cc bd 7b 4b d9 bc cc 5a f2 bc a0 1c c4 3d
       -0.10002097 -0.02652525 -0.029584311 0.09575772
000300 16 9f e5 3d 87 c5 46 be 7b 4f 24 be 4e 20 62 bc
       0.11211984 -0.19411288 -0.16045944 -0.013801647
000310 6a 18 86 bd 59 67 8c bd fc 96 13 bb a0 17 e6 bc
       -0.06547625 -0.068556495 -0.0022520414 -0.028087437
000320 87 1c 34 3d a4 ce cf bd db 57 2c bd 69 21 f4 bc
       0.04397252 -0.101468354 -0.042075973 -0.029801087
000330 62 6b ce bd 7c 0f e9 3d f0 ec 06 3e e0 57 34 bd
       -0.100790754 0.113799065 0.13176322 -0.044029117
000340 36 c8 54 3d 06 7f 0e bb f4 22 78 3d 92 83 4f be
       0.05194875 -0.0021743192 0.06058021 -0.20265034
000350 35 29 59 bb 9a 5f f0 bd 4a a6 9a 3d 5a 53 c5 bd
       -0.0033136134 -0.117369846 0.07551248 -0.09635039
000360 2b bd ae bc b1 b6 ee 3d ee c1 4b 3e 08 c8 22 bd
       -0.021330437 0.11655939 0.19898197 -0.039741546
000370 cb af 83 3c 45 f5 2f be 83 1a 31 bd e6 40 e9 3c
       0.016075036 -0.17183407 -0.043238174 0.028473329
000380 39 9d 2c be ab ae a1 3d 62 3b 00 be 74 e7 90 bc
       -0.1685685 0.078946434 -0.12522653 -0.01768849
000390 a6 d8 69 bc 69 92 83 3d ee 67 b9 bb 7b 8f 38 be
       -0.014272844 0.0642441 -0.0056581413 -0.18023483
0003a0 8b 29 ec 3d 16 39 0a 3e 1f 09 1a 3d 95 23 7a bd
       0.11531361 0.13498339 0.037606355 -0.06106909
0003b0 5d c6 32 3e 18 80 19 be cf 10 82 3c b6 c4 b4 bd
       0.17458482 -0.1499027 0.015877156 -0.08826582
0003c0 5e 30 17 bd 74 57 00 bb b8 96 84 3d 9f c2 a8 3d
       -0.03691136 -0.0019583376 0.0647406 0.08240246
0003d0 40 08 44 bd 3d 92 f6 3c 7e 8c f0 3d fa 9a 25 3e
       -0.04785943 0.030099029 0.11745547 0.161724
0003e0 b6 4b 8f 3d a8 cd ea 3d 2d 31 e8 3d f0 bb 22 bd
       0.069968626 0.11465007 0.113375045 -0.039730012
0003f0 7c 61 cc 3c b5 88 93 bd 25 86 24 be e6 0e 49 be
       0.024948828 -0.07203809 -0.16066797 -0.1963459

lstm.bias_ih_l0 f4 [512]
000000 ed 9e 73 3d 72 13 f9 bd cd 69 c2 3c 10 a7 4b 3e
       0.059477735 -0.12161912 0.02373209 0.19887948
000010 e4 e5 5c 3e cf fa 36 3d 8c 18 83 bd 2b e8 25 3e
       0.21572071 0.044672783 -0.06401166 0.16201846
000020 4d 00 d9 bd 55 86 58 bc e7 f3 9d bd 0e 6b 2a 3e
       -0.105957605 -0.013215621 -0.07712536 0.166424
000030 32 3b a7 3c f0 29 28 be f9 46 0a 3e 48 9d 26 3d
       0.020413969 -0.16422248 0.13503636 0.04067734
000040 36 96 3c bd 77 28 71 3d ef 0a 8f 3c b4 87 ea bc
       -0.04604169 0.05887648 0.017461268 -0.028629161
000050 42 a8 34 3e d9 aa 33 3c 82 74 18 be 0b 71 cc 3d
       0.1764231 0.010966026 -0.14888194 0.09982499
000060 d8 d4 c0 bb 9b 1f 70 3d 1f ad 99 3c fe 7e a0 3d
       -0.005884748 0.05862389 0.018759308 0.07836722
000070 5a 06 24 be 76 73 8b 3d 9a 74 20 bd 97 61 00 3d
       -0.16018048 0.06809132 -0.0391737 0.03134307
000080 7a a0 a0 3d 1f 51 65 be a6 52 2d be af 82 11 be
       0.078431085 -0.22394226 -0.16926059 -0.14210008
000090 da 56 fe 3d 1f 3c b4 bc 44 bd 0f bd 1d a9 e8 3d
       0.12418909 -0.022001324 -0.035092607 0.11360381
0000a0 87 df ba 3d cb c8 56 bd b0 bf 9f 3e 46 4a ac bd
       0.09124666 -0.052437585 0.31200933 -0.08412604
0000b0 9a e4 09 3e 7f 7d 99 3d fe 6b 06 3e b6 97 f1 bd
       0.13466111 0.074946396 0.13127133 -0.11796515
0000c0 8a dd 4e bc 2b 70 09 be 12 05 89 3d 76 64 03 3e
       -0.012626061 -0.13421695 0.0669042 0.12831292
0000d0 53 68 51 bc 1c 78 f2 bc c9 62 f6 3d e3 fc ef bb
       -0.0127812205 -0.029598288 0.120305605 -0.0073238476
0000e0 34 39 bc bb 5b de 11 bd f4 fd 07 3d 0b 38 a1 bd
       -0.005744124 -0.035612445 0.033201173 -0.078720175
0000f0 0f 98 2f 3e 40 f1 97 bd d1 84 c2 3d c1 39 2f 3e
       0.1714785 -0.07419062 0.09497989 0.17111875
000100 7b b9 43 bd c1 fa 28 3e c7 cf 18 3e 40 52 d3 bd
       -0.04778431 0.16501905 0.14923011 -0.10318422
000110 95 4a 96 3d 94 15 12 be c5 94 85 3e b8 ca 0f bd
       0.07338444 -0.14266044 0.26090065 -0.035105437
000120 76 bc d6 3d c2 4e df bc a3 e3 48 bd eb 60 8e bd
       0.10485165 -0.027259234 -0.049045216 -0.069520794
000130 c6 d8 b3 bc bc 91 20 3c a5 0a fd 3d a1 62 2f be
       -0.021953952 0.009800371 0.12355546 -0.17127468
000140 80 3a f7 3d 24 09 66 be cf df 30 bd 38 04 db bc
       0.12071705 -0.22464424 -0.04318219 -0.02673541
000150 e1 c7 2e be 78 6c 38 3c 58 71 d7 3d ec b9 62 be
       -0.17068435 0.01125633 0.105196655 -0.22141236
000160 70 aa 0d be 2b 32 2f be 13 50 b2 3d cd d1 9e bd
       -0.13834548 -0.17108981 0.08706679 -0.0775486
000170 01 45 3e 3e ca f3 de bc f7 38 b0 bd d7 13 17 3d
       0.1858101 -0.027215857 -0.08604615 0.036884155
000180 3b b1 fc 3d e9 5b 63 bd 2f d2 b4 bc 56 15 9f 3c
       0.123384915 -0.055507574 -0.02207288 0.019419353
000190 49 69 42 be 33 7d f9 bb d2 6c 77 3e da 34 f7 39
       -0.18985476 -0.007613802 0.24162605 0.0004715089
0001a0 2d 37 e2 bb d1 cb 51 3d 84 ea 05 3d 57 2b dd bd
       -0.00690355 0.051219765 0.032694355 -0.10799282
0001b0 52 1f 00 be 71 ac f7 3d 25 68 bf bc 80 18 a6 3d
       -0.12511948 0.120934375 -0.02336509 0.08110142
0001c0 07 5a 6c 3e 51 9c 04 bd 15 dd cb bc 6c 3b 0f 3d
       0.23081218 -0.032375637 -0.024885694 0.03496878
0001d0 bf 05 c8 3d 9d 10 47 3e 7c 55 97 bd 7f 8a a6 bb
       0.09766721 0.19439931 -0.07389352 -0.005082428
0001e0 82 b1 01 be 77 3f c1 3c bf 7a 05 bd b7 14 d9 bc
       -0.1266537 0.023589833 -0.032587763 -0.026499135
0001f0 1a e5 02 bd 13 69 0f be 4f 9b 82 bc bd 50 90 bd
       -0.03195677 -0.14004926 -0.015943198 -0.070466496
000200 17 cb 6a 3d ab ce d3 3c e3 3b 5e 3e 23 2e fd 3d
       0.057322588 0.025855383 0.21702532 0.123623155
000210 30 e6 5e bd 8b 14 f4 3c dc 76 ba bd 86 7d bb 3d
       -0.054418743 0.029794952 -0.09104702 0.09154801
000220 24 bd 36 3e 51 33 56 3d 8d 7c b3 3c 9b dc 01 bd
       0.17845589 0.052295033 0.021909976 -0.031704526
000230 e8 9a 8c 3e 64 0b d2 3b af ef fd bd cd 63 43 3d
       0.27461934 0.0064100493 -0.12399232 0.0477026
000240 3e c2 b0 3d 14 b6 ca 3e 60 f7 90 3d 37 28 c8 3d
       0.08630799 0.3959204 0.07078433 0.097732954
000250 9a 99 a8 bd 29 26 3e 3e b8 bd 3e 3c 0d e1 91 bd
       -0.08232422 0.18569244 0.011641912 -0.07123003
000260 c8 cd 00 bd ce a0 55 3e 09 9f d6 3c 44 d7 97 bd
       -0.03144625 0.20862123 0.02619888 -0.074141055
000270 11 b3 7e 3e be d2 ac bd 9e f2 4e 3e af f6 16 3e
       0.24872996 -0.084386334 0.20209739 0.1474254
000280 22 de 32 be 4d 5b 3b bd d3 3b 4b 3c c4 cd 3b bd
       -0.1746755 -0.045741368 0.0124044 -0.04585053
000290 2a 1e 47 be 6b ed 12 3d fb 7d c2 bd f9 c7 28 bc
       -0.194451 0.03587095 -0.09496685 -0.010301583
0002a0 94 48 a1 3c 9c dc ea 3c b8 aa f0 bd ec b2 1e bb
       0.019687928 0.028669648 -0.11751312 -0.0024215532
0002b0 b3 e6 fe 3d c5 bb 4a bd 5b 93 9c bd a3 39 1f 3e
       0.12446346 -0.049495477 -0.07645293 0.1554933
0002c0 c0 75 26 3e 16 35 21 3e 92 cf 7f be 2a b8 25 bd
       0.16255856 0.15742907 -0.24981526 -0.040458836
0002d0 9e 51 12 3e c7 c5 51 bd d0 2c 8b 3e 15 7f 5e bd
       0.14288947 -0.051214006 0.27182627 -0.054320414
0002e0 f7 49 11 3e f1 8b 63 bd ae f9 c9 bb 52 2a c2 3d
       0.14188372 -0.05555338 -0.0061637973 0.09480728
0002f0 b4 c4 6a bd cf 17 25 3d e7 21 b8 be 2e 1b 42 3e
       -0.057316497 0.04030591 -0.35963365 0.1895568
000300 3f 78 70 3e 22 cc c3 3c 9e 66 ed 3d 46 88 c6 bc
       0.2348337 0.023901049 0.11591838 -0.024234902
000310 1f 10 ca 3d a8 38 38 3e 4b 25 06 3d 66 27 9e 3e
       0.09866356 0.17990363 0.03275041 0.30889434
000320 ae 25 17 bd 79 af e9 3c 06 2f 83 3c 3c e8 ce 3d
       -0.03690117 0.028526055 0.016013633 0.10102889
000330 0c 1a 9c 3d 69 e8 92 be 26 e7 3c 3e 11 68 9a 3c
       0.076221555 -0.2869294 0.18447551 0.01884845
000340 fe 41 51 3d 2c cb 02 3e 13 78 8a 3e 76 ab 77 3e
       0.051088326 0.12772816 0.27044734 0.24186501
000350 b6 bc c8 3d a2 89 03 3d f4 fc c9 bd e5 0a 0e be
       0.09801619 0.03211368 -0.098627 -0.13871343
000360 8f 21 84 3d 0d 0d 0b 3e e8 60 8a 3e ed c4 cc 3d
       0.06451713 0.13579197 0.2702706 0.09998498
000370 68 ed 89 be 7d 4c bb 3d e2 ed 3c 3d 65 e9 85 3d
       -0.2693894 0.09145448 0.0461253 0.06538657
000380 8e d2 15 3c 93 a0 53 3e 68 6a 25 3e ea 1c 32 be
       0.009144438 0.20666723 0.16153872 -0.17393842
000390 18 fb 55 3d 7e 8c 14 3e 69 b6 49 be f7 e0 7f 3e
       0.052241415 0.14506719 -0.1969849 0.24988161
0003a0 cf 78 48 3e 7c 8d 44 be 62 b7 bc 3d b4 d1 c9 3d
       0.19577335 -0.19194597 0.09214665 0.09854451
0003b0 b7 af a3 3d da 01 76 3e c6 9e 66 3e 9b a9 42 bd
       0.07992499 0.24024144 0.22521505 -0.04752503
0003c0 dc 88 92 bc 9a d2 2f 3d 69 34 51 bc 52 e5 83 3e
       -0.017887525 0.042925455 -0.012768843 0.25760895
0003d0 f4 c3 cd 3d 45 9d 84 be 05 27 ff 3d c4 51 45 3e
       0.10047141 -0.25901237 0.12458614 0.19269472
0003e0 b0 de 74 bd 7f ae 8e 3d ac 38 8c 3d 01 91 15 3e
       -0.059782684 0.06966876 0.06846747 0.14606096
0003f0 7b 7e b9 3c 8b a8 14 3c ff 46 54 3e 9a 73 4b 3e
       0.022643318 0.009073387 0.20730208 0.19868317

lstm.bias_hh_l0 f4 [512]
000000 de 0c 2f 3d 4b 51 5c bd 12 f8 e2 bc 4c 58 04 3e
       0.04273688 -0.053788465 -0.02770618 0.12924308
000010 13 f8 e3 3d 83 03 25 bd d2 35 bb bc 55 58 29 3e
       0.11131301 -0.040286552 -0.022852812 0.16537602
000020 ee 10 25 be 60 ea ac 3c 67 7d ba bd 52 81 1c 3e
       -0.1611974 0.021107852 -0.0910595 0.15283707
000030 ce 69 25 ba 6d a2 ce bd 6e 6c 30 3e 01 21 9e bc
       -0.00063100166 -0.10089574 0.17228863 -0.019302847
000040 a4 25 b7 bc 6f f0 a4 bd a1 43 16 3d b1 c6 90 3c
       -0.022356816 -0.080536716 0.03668559 0.017672868
000050 7a e1 2d 3e 23 f5 dc bd 65 76 22 be c2 40 31 3e
       0.16980544 -0.107889436 -0.15865476 0.1730986
000060 85 4a 72 bd 73 f0 3f 3b a1 a9 a0 bd 62 18 09 3e
       -0.0591531 0.0029287606 -0.07844854 0.13388208
000070 b0 c5 d6 bc 87 ec a9 bc d0 d4 8c bd d2 ce fc bc
       -0.026217312 -0.020742668 -0.06876528 -0.030860338
000080 c2 49 3c 3e 39 f8 48 be 67 50 42 be 63 c2 3f bd
       0.18387511 -0.1962594 -0.18975984 -0.04681624
000090 e0 1c 8c 3d 4e c2 3a bd c3 f0 fd bd a2 fd 94 3d
       0.06841445 -0.04559546 -0.12399437 0.07274939
0000a0 cb 17 95 3d 2b 28 b4 3c 24 de b4 3e 18 66 3c bd
       0.07279929 0.02199181 0.3532573 -0.0459958
0000b0 0d 00 cc 3d ab 70 a7 3d a4 7e 0b 3e f0 ad 27 be
       0.09960947 0.081757866 0.13622528 -0.16374946
0000c0 99 09 bc 3d 20 04 d4 bd 59 3d fa 3c ed 2d 32 3e
       0.09181518 -0.10352349 0.030546831 0.17400332
0000d0 21 6d 54 3d 96 05 64 bc ea 63 de 3b 45 d8 f6 bc
       0.051861886 -0.013917347 0.006786813 -0.030132422
0000e0 b7 1c 21 bc f6 f2 4a be ad 45 ed 3d b6 96 33 3d
       -0.009833506 -0.19819245 0.11585555 0.0438449
0000f0 13 88 89 3d c8 47 0c be 2b 86 75 3d 3f d0 49 3e
       0.06715407 -0.13699257 0.059942406 0.19708346
000100 ef 3e f1 bc a7 57 29 3e 5c 7a 3d 3e 4e cc c7 bd
       -0.029448954 0.16537343 0.18503708 -0.09755765
000110 cd 63 27 3e a1 a8 07 bc 0a 44 f5 3d 4e 78 2d bd
       0.16346665 -0.00827995 0.11975868 -0.04235106
000120 67 c7 d3 3d a6 87 76 bc 51 17 01 be bb 2b 07 bd
       0.10340767 -0.01504699 -0.12606551 -0.03300069
000130 32 dc c8 3b 08 db 02 3e 6f dd a2 3d 48 04 95 bd
       0.006129765 0.12778866 0.07952391 -0.07276207
000140 74 97 65 3c 1a 33 69 be 80 38 fc bc ea 9c 99 bd
       0.01401316 -0.227734 -0.03078866 -0.07500632
000150 99 66 c0 bd b8 37 87 3d e5 cf 93 bc ff 3d e8 bd
       -0.09394569 0.066024244 -0.018043468 -0.1133995
000160 52 64 fc bd 25 a4 1b be cf d2 ba 3d 79 bb 8b bd
       -0.12323822 -0.15199335 0.0912224 -0.06822867
000170 d7 b7 54 3e 6c 94 12 3d 11 7a 12 be 2d 1d e9 3c
       0.20773254 0.035786077 -0.14304377 0.028456295
000180 ea 31 06 3e 0f 80 c2 3c 84 be c7 3c 0c e5 64 bd
       0.13104978 0.023742704 0.024382837 -0.0558825
000190 93 f6 5d be bc 6d cc 3d 01 b6 18 3e b5 08 de 3b
       -0.21676092 0.09981868 0.14913179 0.0067759403
0001a0 3f 3b d2 3a 4e 58 ce 3d 90 27 b4 bc 41 48 6c 3d
       0.0016039385 0.100754365 -0.021991521 0.057686094
0001b0 e2 94 50 be 81 f7 d5 3d d2 82 de bd 9b d8 19 3e
       -0.20369294 0.10447598 -0.10864796 0.15024035
0001c0 f1 40 32 3e 95 d9 8c bc 7d 6a b9 bc 29 ed dd bb
       0.17407586 -0.017193595 -0.022633785 -0.0067726565
0001d0 31 c6 21 bb f5 7c 40 3e 97 23 a9 bd 15 62 c1 3c
       -0.0024684782 0.18797667 -0.08258741 0.02360634
0001e0 0b ca 90 bc e1 8d 37 3d 98 9a d7 bc f4 14 8d bd
       -0.017674467 0.04481304 -0.026318833 -0.06888762
0001f0 ca 1b 44 be a3 d7 23 be 3f 7d b4 3c 19 91 80 bd
       -0.19151226 -0.16000228 0.022032378 -0.06277675
000200 f3 a9 71 3d 93 f2 4a 3a 63 0b f1 3d ab 8d 2a bc
       0.058999967 0.0007741835 0.1176975 -0.010409753
000210 b2 6c f2 bc 46 99 b5 3c fd fe c5 3c 53 3a 15 3e
       -0.029592846 0.022167813 0.02416944 0.1457303
000220 83 bb eb 3d 52 a8 df 3d 22 56 08 bd 8d 51 23 bc
       0.115103744 0.109207764 -0.033285268 -0.009968174
000230 b9 72 65 3e 82 6e ef 3d 1a ad fa bd 3a b8 8a 3d
       0.22407044 0.116909996 -0.12240048 0.0677342
000240 c6 f2 13 3b 86 c6 8e 3e a7 9e 47 3d 84 48 4a 3d
       0.0022575124 0.27885836 0.048735287 0.049385563
000250 2f 1d 96 bd 03 98 a8 3e 31 a7 72 bd 25 8c 97 bd
       -0.07329785 0.32928476 -0.059241477 -0.07399777
000260 c3 bf c9 3d 43 31 c9 3d 55 1f cb bd f1 32 20 be
       0.09851029 0.09823849 -0.099180855 -0.15644433
000270 e0 41 65 3e bd 36 85 3d 9d 6e 67 3e de e6 22 3e
       0.2238841 0.06504581 0.2260079 0.15908381
000280 b0 59 84 bd 33 7b b2 bd 19 5c 99 bd 41 43 11 bd
       -0.06462419 -0.08714905 -0.07488269 -0.03546453
000290 c9 81 46 be 84 12 cd 3d 3a ef f5 bd 00 aa 12 3d
       -0.19385447 0.10013297 -0.120085195 0.035806656
0002a0 2d 24 fa 3d 7d c8 0e bb f3 1e 4c be 6c 2f 21 bd
       0.12213931 -0.002178698 -0.19933681 -0.039351866
0002b0 0e 44 0f 3e 19 43 83 3c 93 a9 72 bc 6d 6b 15 3e
       0.13990805 0.016023206 -0.014810937 0.14591761
0002c0 0c 39 15 3e 11 6f 07 3e 7b fc 19 be 5e 6d 2f be
       0.14572543 0.13225962 -0.1503772 -0.17131564
0002d0 8b 5c 53 3e 1e 6b 4b 3d f4 6a 8a 3e f6 6e a6 3d
       0.20640771 0.0496627 0.27034724 0.08126633
0002e0 34 3e ea 3d 3f 49 4a bd 7b 59 e4 bc 1d 33 4b 3d
       0.114376456 -0.04938626 -0.027874699 0.049609292
0002f0 c6 49 2d be 08 04 7b 3b 25 63 af be 01 88 29 3e
       -0.16922674 0.0038301963 -0.3425533 0.16555788
000300 02 7b 27 3e 9d 15 eb bc 3c 1d 83 3d 6e 06 f7 3a
       0.16355518 -0.02869683 0.064020604 0.0018846521
000310 90 e4 3b bc 9e b9 4e 3d 10 73 75 bd c4 63 4e 3e
       -0.011468068 0.050469987 -0.059924185 0.20155245
000320 3b 61 47 bc 95 e0 17 3e ba 82 ec 3d ea 85 56 3e
       -0.012169178 0.14831765 0.115483716 0.20949522
000330 27 c5 2b 3e 1e a8 1e be d3 8c 02 3e 90 eb db 3d
       0.16774426 -0.15493819 0.12749033 0.10738289
000340 a6 c9 f2 3d d4 9b fd 3c ca 9a 07 3e ab ab 4f 3e
       0.11854868 0.030958094 0.13242641 0.2028033
000350 0a e5 fe 3d 24 49 b7 3d 69 81 ec bb 1d 96 5b 3c
       0.124460295 0.08949497 -0.0072175753 0.013402489
000360 fc 23 0a bd 60 25 ce 3d 5b e6 82 3e 37 86 1e 3e
       -0.033725724 0.100657225 0.25566372 0.15480886
000370 9d 0a 57 be b2 30 00 3e ef 6b f1 3c 2b 95 48 3c
       -0.21000142 0.12518576 0.029470412 0.012242596
000380 92 8c 3b bd 91 9c 03 3e 97 d0 de 3d c1 29 88 be
       -0.045788355 0.12852694 0.10879629 -0.26594356
000390 86 26 00 3e 48 8c 3c 3d b4 1b 39 be e3 20 03 3e
       0.12514696 0.04603222 -0.18076974 0.12805514
0003a0 f8 0a 6c 3e 4a 16 2f be 3f bb cb 3d 81 48 79 3d
       0.23051059 -0.17098346 0.09947824 0.06086016
0003b0 44 79 d8 3d 36 ba 1e 3e c5 b9 49 3e da 25 b4 bd
       0.105700046 0.15500721 0.19699772 -0.08796282
0003c0 0d 20 4c bd ee a5 9f ba a2 7d 6e bd ee 09 2c 3e
       -0.049835254 -0.0012180188 -0.05822528 0.16800663
0003d0 57 cc d7 3d 30 9c 8f be a5 45 70 3c 16 fe c4 3d
       0.105370216 -0.2804885 0.014665042 0.096187755
0003e0 21 e3 43 3d 92 04 9d 3d de 66 0b 3e ad c7 67 3d
       0.04782403 0.07666887 0.1361346 0.05658691
0003f0 bf bd 80 3d fc 4d 85 bc 14 80 60 3e eb 12 bd 3d
       0.06286191 -0.016272537 0.21923858 0.09232124

lstm.weight_ih_l1 f4 [512, 128]
000000 a6 1d 32 bd cf 86 5a bd 69 15 a8 3d c1 2c 22 3e
       -0.043485306 -0.05335122 0.08207209 0.15837385
000010 e8 c6 a3 bc 63 f5 8b be ed 69 d5 bd ed 15 f4 3d
       -0.019992307 -0.27335653 -0.10420594 0.119182445
000020 db 52 e4 bd 9d 99 2a bb 0d 82 e5 3c e1 08 01 3d
       -0.11148616 -0.0026031502 0.028016115 0.03150261
000030 4f c8 7f bc d2 86 b9 bd 34 9c ee 3d 63 e0 36 bd
       -0.015611722 -0.09058918 0.11650887 -0.044647586
000040 66 c1 17 be 1a d6 85 bd 56 e9 e6 3d 49 1c 84 3e
       -0.1481987 -0.06534977 0.11274974 0.2580283
000050 68 9e 84 bc 02 6f 65 3d 63 8b 8f 3d d8 52 c8 3d
       -0.016188815 0.05601407 0.07009008 0.09781426
000060 15 56 d4 bd be 9d e4 3d 48 8a 4f be e1 1f 0c 3d
       -0.10367981 0.111628994 -0.20267594 0.03421009
000070 76 24 12 3e 07 30 c9 3d 23 41 88 bd 94 9d 97 bb
       0.14271721 0.098236136 -0.06653049 -0.004626939
000080 dc 23 00 be 35 b6 c5 3d 9b da 8c 3e c7 14 d4 bd
       -0.1251368 0.09653894 0.27510533 -0.103555255
000090 35 36 20 ba 88 f6 3b 3e 7e c5 2e 3d 96 fb 10 be
       -0.0006111593 0.18355763 0.042668812 -0.14158472
0000a0 47 74 25 3e 9c b2 83 be bc 90 9c 3d 66 03 1c 3d
       0.16157638 -0.25722206 0.076447934 0.03808918
0000b0 95 b6 25 be e7 62 ce 3d 1f 40 14 3e 30 f1 e7 bd
       -0.16182931 0.10077458 0.14477585 -0.113253
0000c0 40 ca 9c bb b7 4d 59 bd 77 f3 94 bc 4b b1 e9 3b
       -0.0047848523 -0.05305263 -0.0181825 0.0071317307
0000d0 30 88 36 bd 3c 1f 3c 3e 0b ec 67 be 38 34 40 be
       -0.044563472 0.1837129 -0.22648637 -0.1876992
0000e0 1b e8 b3 bc 30 fc c8 bd 21 05 91 3c 7f 43 c4 bc
       -0.021961262 -0.09813726 0.017702641 -0.023957966
0000f0 a9 2d 53 3d 3c d5 3f 3e 81 fe 92 bd 5a 4b 9c be
       0.051557217 0.18733686 -0.07177449 -0.3052624
000100 1f 4f 1d bc 07 4b 01 3e 2f 28 af 3d 0d 58 44 bd
       -0.0096013835 0.12626277 0.08552586 -0.047935534
000110 5d e1 da 3c 65 c6 03 bc a8 e5 2d 3e 6f b0 ab bd
       0.02671879 -0.008042906 0.16982138 -0.083832614
000120 be f3 b2 be a0 59 00 bd 28 b0 69 3e 65 59 cc 3c
       -0.34951586 -0.031335473 0.22821105 0.02494497
000130 e5 d7 7c bd 30 fa 46 bc 9e 80 fb bd 27 0b 4a bd
       -0.06172933 -0.01214461 -0.12280391 -0.049327042
000140 2d d2 2e be 00 e9 e9 3d 59 c1 a7 3d 09 32 06 3e
       -0.17072363 0.11421394 0.08191175 0.13105024
000150 a9 07 26 be ed 6c 89 3e f2 d4 3d bd 71 77 9b bd
       -0.1621386 0.26840916 -0.04634566 -0.07591141
000160 4d cc 82 bd 05 30 7d bc 0d 49 6a be ac ce 33 3e
       -0.063866235 -0.015453343 -0.22879429 0.17559308
000170 c7 9c 59 3e 07 94 51 3e bd d5 2e 3c 89 ce a3 3e
       0.21251212 0.20466624 0.010671076 0.3199351
000180 3a 82 52 be f2 97 4f 3d 5d fb a3 bc d9 6a 54 be
       -0.2055749 0.050682016 -0.02001732 -0.20743884
000190 e8 d1 91 bd 97 e5 b9 bc 61 8a 6d bd f4 9d 40 3e
       -0.071201146 -0.022692485 -0.057993297 0.18810254
0001a0 dc f3 cb bd 60 67 8e bd 8e 12 ee 3d fa 3f 12 be
       -0.09958622 -0.06953311 0.11624633 -0.14282218
0001b0 d3 7e 1f be fa 53 ac 3e bf be f4 bd ce f6 41 3e
       -0.15575723 0.3365782 -0.119504444 0.18941805
0001c0 7f 21 e5 3d ed 99 d7 bd d2 d0 ff bd 9a d2 54 be
       0.111880295 -0.10527406 -0.12491001 -0.20783463
0001d0 2e ef a6 3d 07 45 0d 3e 59 18 1d be 76 f7 f0 bd
       0.08151089 0.13795863 -0.15341319 -0.117659494
0001e0 79 47 64 bd 4a 78 e0 3d 62 0f c5 bc 12 b4 d2 3d
       -0.055732224 0.10960443 -0.024055187 0.10288252
0001f0 a5 62 29 bd 5d bb 23 bd 7f ef e1 bd b6 bf 40 3e
       -0.04135384 -0.039973605 -0.110320084 0.18823132
000200 1b 2c c1 3c 28 be 4f 3e 0b 91 cc 3c f8 ad 7c 3e
       0.023580601 0.20287383 0.024971506 0.24675739
000210 84 55 62 3e ca 01 3b be 14 12 af bc 67 b9 30 3d
       0.22102934 -0.18262401 -0.021370925 0.043145563
000220 cb a2 52 bd c7 57 33 3d 39 a7 40 3d 54 7b 29 3e
       -0.051424783 0.043784883 0.047034476 0.16550952
000230 45 78 b6 3e 39 58 fc 3d 72 40 1e be 84 7e a4 bd
       0.35638633 0.12321515 -0.15454271 -0.080319434
000240 60 95 39 bd 78 17 4b 3d c8 d6 e3 bc a9 b6 cf 3d
       -0.04530847 0.04958293 -0.027812377 0.101422615
000250 03 4e f4 3c e0 23 fe 3d 6c 6a 19 bd 13 18 57 3e
       0.029822355 0.12409186 -0.037455007 0.21005277
000260 8c 5a 28 bc 1a 1a f4 3d 70 e4 46 3d b2 18 9e 3e
       -0.010275494 0.11919041 0.0485577 0.30878216
000270 0c 27 2b be 06 4f 87 3e 39 37 84 3e 28 39 3f 3d
       -0.16714114 0.26427478 0.25823382 0.046685368
000280 64 07 9d be a1 d1 23 3d c4 23 8b 3d 33 2e 7f be
       -0.306697 0.03999484 0.06793931 -0.24919967
000290 a7 10 66 3e da 2f 52 bd 94 70 b2 bd 1a 20 27 be
       0.2246729 -0.051315166 -0.08712879 -0.1632084
0002a0 83 ca 38 3c 8d 65 ca bd 4e 3c 17 3e ad 3d 29 bd
       0.011278751 -0.098826505 0.14769098 -0.041318584
0002b0 6f af ca bd d7 03 cd bd d3 ce 17 3d e0 a2 fe 3d
       -0.098967426 -0.10010498 0.037062477 0.1243341
0002c0 f4 41 1d bb e1 1d 12 3e 23 a4 68 be d8 38 2e be
       -0.002399561 0.1426921 -0.22718863 -0.17013872
0002d0 53 ff 99 3b 34 dd ed 3b d3 4f a1 bd d7 a8 8f bd
       0.0046996265 0.0072590355 -0.078765534 -0.070146255
0002e0 4b e0 de 3d ad e5 7e 3d e3 15 88 bd 23 ab 59 3d
       0.10882624 0.062230755 -0.066447996 0.053141724
0002f0 c6 bd 62 be 8b d5 9d bd a9 46 89 bd 29 c1 86 be
       -0.22142705 -0.07706746 -0.067029305 -0.26319245
000300 e9 bf e2 bd b7 9c a5 bd a3 ea bf 3b 94 66 61 bc
       -0.1107176 -0.080865316 0.0058568283 -0.013757367
000310 15 82 0a bd 0d 6e 22 bc 49 d8 df 3d f7 8e 8a 3e
       -0.033815462 -0.009913933 0.10929925 0.270622
000320 0f c0 ce bd 43 29 4b 3d 08 8e 04 3e 23 42 05 3e
       -0.10095226 0.049599897 0.12944806 0.1301351
000330 33 b0 c8 bb dd f7 1c be dc e9 93 be 50 42 06 3d
       -0.00612452 -0.15328927 -0.28889358 0.032778084
000340 6d b2 ad bd 8f 6d 71 bd 6d f0 33 bd 57 76 48 be
       -0.08481298 -0.058942374 -0.04393046 -0.19576393
000350 4b ce d0 bc 32 cc 9c 3b 9f 44 b5 bc e6 d2 45 bd
       -0.025488993 0.004785084 -0.022127448 -0.04829683
000360 0e 06 25 bd 3e 87 19 3d a4 96 0d be c1 20 26 bc
       -0.040288977 0.037482493 -0.13826996 -0.010139645
000370 b2 df 80 3e 4f 75 d2 bd d5 b3 d9 bc 73 3c fd 3d
       0.25170666 -0.10276281 -0.026575008 0.123650454
000380 db 19 b2 3d 28 6b ab be 01 93 b2 bb f2 66 72 be
       0.08696338 -0.3348019 -0.005449653 -0.23672083
000390 79 a9 cf 3d 9a 08 b2 bd 4a 9b 26 be 39 04 f1 3d
       0.10139746 -0.08693047 -0.16270176 0.117683835
0003a0 82 fa 0c be 7b 4f a1 be af 9d 0b be 9e ef 77 3c
       -0.13767436 -0.3150595 -0.1363437 0.015132813
0003b0 04 04 99 3d 53 31 56 3e 01 c3 f7 3d b7 0d 9d bd
       0.07471469 0.20917253 0.12097741 -0.076686315
0003c0 05 a6 73 be c3 9a 07 3e 52 59 32 be 5c 04 39 be
       -0.237938 0.1324263 -0.17416885 -0.18068069
0003d0 ee db a8 3d 54 86 3b 3e 50 94 14 be 30 2f f6 bd
       0.08245073 0.18312961 -0.14509702 -0.12020719
0003e0 2b 1d c7 3d 71 6b 27 3e c7 fe 2a be 9c a1 b4 3d
       0.0972236 0.1634958 -0.16698752 0.08819887
0003f0 eb b2 ba 3d a2 12 ad 3d bd 26 05 be d9 dd 89 3d
       0.09116157 0.084508196 -0.13003059 0.06731767

lstm.weight_hh_l1 f4 [512, 128]
000000 7c 69 0e 3e ea b9 4a be 59 98 1f 3e c4 1b 0b 3e
       0.13907427 -0.19797483 0.1558546 0.1358481
000010 56 0f b1 bd a1 e9 3a bd 22 20 34 3d 92 ff f3 3c
       -0.08645503 -0.045632962 0.043975957 0.029784951
000020 6a 53 16 be 5b 91 16 3e b9 47 bb 3d 1d db 7a bd
       -0.14680257 0.14703886 0.091445394 -0.06124412
000030 6d 89 ab 3d 9a 8a 52 3d b4 c8 1e 3e 29 06 36 3e
       0.08375821 0.051401712 0.1550625 0.17775787
000040 f3 c3 ff ba a3 de db 3d b4 7b 65 3e 58 b6 7d 3d
       -0.0019513353 0.10735824 0.2241047 0.061941475
000050 5c 77 5f 3e 4b cb 7d 3d 03 1a 63 bd 35 32 45 3d
       0.21822876 0.061961453 -0.05544473 0.048143584
000060 6e 80 71 bc 2f 4d fd ba 3b 5b 3a 3e 21 12 3d bd
       -0.014740093 -0.0019325371 0.18198864 -0.046159867
000070 23 5d 32 be 18 94 12 3d 20 3d f2 bd 30 fb 7c 3d
       -0.17418341 0.035785764 -0.11828065 0.06176299
000080 af 08 f0 3a c7 4d 76 bd 27 4c cd 3d 2b 60 88 3d
       0.0018313135 -0.060132768 0.100242905 0.066589676
000090 0a 3d 3c 3d 62 4d dc 3c 71 b5 8a bc b7 12 fa bd
       0.04595665 0.026892368 -0.016932221 -0.12210601
0000a0 af f2 53 3d 74 d7 af bd 4b 61 c7 3d 35 a3 a4 3c
       0.051745113 -0.08586016 0.09735354 0.020097354
0000b0 22 0d 74 3d 38 3a 69 be 7a e2 a5 3d 2a 34 8c bc
       0.059582837 -0.22776115 0.080998376 -0.017114718
0000c0 9b 62 63 bd c7 1a e0 3d e8 77 84 3c 2f aa a3 bb
       -0.05551396 0.109426074 0.016170457 -0.0049946527
0000d0 b2 5f 0e 3e a7 ae 8c 3e 15 7e ca bd a1 af 16 3d
       0.13903692 0.27477 -0.098873295 0.036788587
0000e0 7d 40 15 3e 70 56 00 3e e8 0a 15 3d 48 2a 96 bd
       0.14575382 0.12532973 0.036387354 -0.07332283
0000f0 b6 d4 75 bc a2 43 12 3d 0d 71 be bc 1a 42 b4 bd
       -0.0150043275 0.03570903 -0.023247266 -0.0880167
000100 30 09 df 3d 95 21 09 3e 48 44 97 bd f6 f3 7a 3e
       0.10890424 0.13391717 -0.073860705 0.24507126
000110 4e ef ce bd a0 7e 84 3c 54 2a 9a 3d 06 c3 a6 3d
       -0.101042375 0.01617366 0.07527605 0.081426665
000120 ce 8b bb bd 1f c7 d4 3d 4f f6 49 3d ba 35 5f 3d
       -0.09157525 0.10389542 0.049307164 0.054494597
000130 7e c7 cb bc 11 65 98 bd 67 88 ad bd ac 17 2f 3e
       -0.024875399 -0.07441152 -0.08473282 0.17098874
000140 ad 69 81 3e 63 10 c4 3d a7 93 0d be a0 89 49 3e
       0.25275937 0.09573438 -0.13825856 0.19681406
000150 13 b6 aa bc 1a 59 77 3c 3f 3e 4b be 67 2f 04 bd
       -0.020838773 0.015096927 -0.19847964 -0.03227177
000160 f1 2d 1b 3d 5a 25 8c bd e7 83 57 3d 51 0b ba bd
       0.03788561 -0.06843062 0.052616026 -0.0908419
000170 ea b8 59 3d 33 86 b1 3c 54 fa e7 bd b9 45 34 be
       0.053154863 0.021670436 -0.11327043 -0.17604722
000180 98 19 88 3d 85 1c bd bd 00 76 50 bd e7 b6 77 3e
       0.066455066 -0.09233955 -0.050893784 0.24190865
000190 09 de e0 3c 76 a9 86 3d f1 c1 bd 3d 70 bf 3d bd
       0.027449625 0.06575291 0.09265507 -0.046325147
0001a0 5e 2f 4c bd 01 ec 24 3d 60 30 0c 3d de d5 2f bd
       -0.04984986 0.040264133 0.03422582 -0.04292857
0001b0 09 3f be bc d8 7a 3c bd d4 05 e6 bd 0a 1e 84 be
       -0.023223417 -0.04601559 -0.112315804 -0.25804168
0001c0 b6 e2 66 be 6b ef 84 bc 62 37 0e be 42 06 99 3d
       -0.22547421 -0.016227445 -0.13888314 0.07471897
0001d0 9c fd e2 bc 1a ff d4 bd 27 b9 fd 3d a4 9b 8e bd
       -0.027708821 -0.10400219 0.12388831 -0.0696328
0001e0 e5 5c b6 3d 3b a9 dd 3c 22 6c d0 bd 8c a7 75 3b
       0.08904437 0.027058234 -0.10176875 0.00374839
0001f0 ef 7a cc 3d f2 2e a7 bb 0e 9e 2b 3e 37 a4 19 3d
       0.09984385 -0.005102032 0.16759512 0.037510123
000200 9a 34 0c 3e c2 2e 66 bc 35 6f 9f 3d 32 95 90 3e
       0.13691941 -0.014049234 0.07784883 0.28238827
000210 8c 8b c1 bd 58 3d 97 bd d8 4b ec 3c cb 82 d5 3d
       -0.094504446 -0.07384747 0.028844759 0.104253374
000220 af 26 5e bd 9b 8b d7 3d 2a 9d 12 bc 12 44 08 bd
       -0.05423611 0.105246745 -0.008948604 -0.033268042
000230 43 f2 d1 3c f5 a9 26 3c b3 fa a4 3d 32 89 35 3e
       0.025628215 0.010172357 0.080556296 0.17728117
000240 8f f5 c1 bd ee 58 b8 3d df 23 e8 3c 4d c5 86 be
       -0.09470665 0.09001337 0.028337417 -0.26322404
000250 c4 6d 40 3e 86 a5 ee bc 68 18 bc 3d 4b 5c 3c 3e
       0.18791872 -0.029131662 0.091843426 0.18394582
000260 da 51 3b bd 23 a3 9e bd 84 92 e2 3d 9d 7a a0 3d
       -0.045732357 -0.077459596 0.11063102 0.078358866
000270 7e 9d b4 be 8c 4c a9 3c e8 07 af bd b7 a9 27 be
       -0.35276407 0.020666383 -0.0854643 -0.16373335
000280 26 ca 47 bd 94 15 8c 3c 47 a0 f2 3c 50 69 87 3d
       -0.04877677 0.017100133 0.029617442 0.06611884
000290 a4 52 50 3d 69 92 b2 bd 06 ce 11 3e e5 6e 99 3d
       0.050860062 -0.08719332 0.14238748 0.074918546
0002a0 e2 e5 d4 ba 0c a0 fc bd ce 42 15 be 0b b1 d7 bc
       -0.0016242827 -0.12335214 -0.14576265 -0.026329538
0002b0 30 9c 0d be 9e 55 54 be c6 11 9b 3e 60 b8 97 3e
       -0.13829112 -0.20735785 0.30286998 0.29632854
0002c0 e7 e4 86 3e 62 78 2d be 00 f5 08 bc 48 3c 98 3d
       0.26346514 -0.16940454 -0.008359194 0.07433373
0002d0 a5 49 89 3c a8 3a 2b 3e 18 10 03 3d 75 63 42 be
       0.01675875 0.16721594 0.03199777 -0.18983252
0002e0 24 30 4a 3e 5b 63 2c be 01 1b 7f be e9 2f 6b 3e
       0.19744927 -0.16834776 -0.24912645 0.22967495
0002f0 c3 f5 00 bd e5 69 b2 bc 05 29 00 be fb 5b 2d 3d
       -0.031484377 -0.02177901 -0.12515648 0.042324048
000300 79 51 3c 3d c5 1c 06 be 26 d4 7a be b1 8a c4 3e
       0.045976136 -0.13096912 -0.2449499 0.38387063
000310 ee be fa bd 3d 21 17 ba ae bf 11 3e eb 71 04 3c
       -0.12243448 -0.0005765146 0.14233276 0.008083801
000320 8e c7 b2 be 07 e7 8e 3c fc c5 9a 3c fa d8 7d 3e
       -0.34917873 0.017444147 0.018893234 0.24789801
000330 2c 2a 3a be 71 6b 49 3d 96 d7 ce 3d 29 73 ce 3d
       -0.1818015 0.04917473 0.100997135 0.10080559
000340 b1 50 c3 3d 11 93 d9 bb 14 26 f9 bc fa 3f 60 bd
       0.09536875 -0.006639846 -0.030413665 -0.054748513
000350 c5 a9 53 bd d8 dd ee 3d f3 2b 51 3d 67 e1 0c 3c
       -0.051675577 0.11663407 0.051067304 0.008598662
000360 c1 1a b7 bd 28 08 01 be 94 24 b8 3e af 67 0d bd
       -0.0894065 -0.12600768 0.35965407 -0.03452271
000370 8e 78 27 be f3 e2 8f bc dd d2 3d 3e 16 82 01 bd
       -0.16354582 -0.017564273 0.18537469 -0.0316182
000380 0b e1 2e be 4a fb f0 bc d2 0f 67 3d 8b 05 3f 3e
       -0.17078035 -0.029416699 0.05641157 0.18654458
000390 79 33 12 3e 0f 4c 04 3e 84 80 17 3e 18 58 62 bd
       0.14277448 0.12919639 0.14795119 -0.055259794
0003a0 18 ba 24 be 41 b5 e6 3d a6 31 6c bc d3 3e 8d be
       -0.16086614 0.1126504 -0.014416134 -0.27586994
0003b0 f3 97 02 bd d0 8e bd be 06 35 19 be 79 77 57 3d
       -0.03188319 -0.3702302 -0.14961633 0.052604172
0003c0 43 c8 a4 bd 9e 6c be 3d ec 79 25 bd 11 ea d1 3d
       -0.080460094 0.09298061 -0.040399477 0.10249723
0003d0 75 49 16 bc ea 88 db bd 33 ea 19 3e 95 3a 06 be
       -0.009172787 -0.10719474 0.15030746 -0.13108285
0003e0 fc 1b 8c 3d 94 e1 f4 3c 05 0e d5 3d 25 9f de bb
       0.06841275 0.02989272 0.10403065 -0.006793874
0003f0 3e 01 ca 3d ee f7 5b bd 4e 79 b1 3c bc ed 60 bd
       0.09863518 -0.05370324 0.021664288 -0.05491422

lstm.bias_ih_l1 f4 [512]
000000 6c 3d 25 3d 33 c2 ed bb 0e ee cc 3d b5 c0 b0 3c
       0.04034178 -0.0072558164 0.10006343 0.021576265
000010 04 0f 42 3e f9 8a 02 bc 38 3a b6 3c 5d 76 a8 3d
       0.1895104 -0.007967704 0.022244558 0.08225701
000020 f9 67 60 3e f3 d5 cc bb 26 d8 b9 bc 0f b0 46 3e
       0.21914662 -0.0062510907 -0.022686075 0.19403099
000030 9f 2d 5f 3e 41 5f 27 3c c9 b0 29 3e 83 47 a9 3d
       0.21794747 0.010215581 0.16571344 0.08265593
000040 21 05 b1 3d db cd 1c bd fa e4 c6 3d 5f b5 0d 3d
       0.086435564 -0.038282257 0.097116426 0.034596797
000050 ab 6b 04 3e 59 28 32 3c ce f0 c6 bc e2 25 a3 bd
       0.12931697 0.010873877 -0.024284746 -0.0796621
000060 d0 1d 80 bd ac 61 91 3c 9c fe 96 bc 3e 31 e3 bd
       -0.06255686 0.017746769 -0.018431954 -0.110933766
000070 97 4d 5f 3d fe e6 23 3d 5d 0b b8 3d da 03 60 bb
       0.054517355 0.040015213 0.089865424 -0.0034181983
000080 46 ea e7 bc 08 fc 05 3e a3 aa cd 3d f0 cc ae 3d
       -0.028309952 0.13084424 0.10042312 0.085351825
000090 7d 91 91 3d 89 17 23 3e 3a 4e 32 3e 4d 22 32 3d
       0.07107828 0.15926947 0.17412654 0.043489743
0000a0 29 20 40 3d 00 26 21 3d 25 64 37 bd e8 43 94 bd
       0.04690567 0.03934288 -0.04477324 -0.072395146
0000b0 e6 ff 3a 3e e4 92 78 3d 75 3b 33 3e a3 09 bf 3d
       0.1826168 0.06068696 0.1750315 0.0932801
0000c0 b4 32 1f 3e f5 ab f2 bc 87 66 b8 3c e0 24 f9 3a
       0.15546685 -0.029623011 0.022509826 0.0019008182
0000d0 3a 11 a3 3c a6 0f cb bd 07 82 66 3e 44 b0 d5 3b
       0.019905675 -0.09915094 0.22510539 0.0065212566
0000e0 49 8f 52 3e da 02 bd 3d b5 e4 d4 bd e5 1f 4a 3d
       0.20562471 0.092290595 -0.10395185 0.049346823
0000f0 a4 c0 52 bd 57 7b 34 3d 13 09 e0 3d 95 a5 f5 3d
       -0.051453248 0.04406294 0.10939231 0.11994473
000100 6f b8 1c 3e ab 6b 46 3e 53 24 b1 3d 9b 6e 91 3d
       0.15304731 0.1937701 0.086495064 0.071011744
000110 c6 22 11 3e c3 7b 14 3e d0 49 ce bc c9 a8 20 3e
       0.14173421 0.14500336 -0.02518168 0.15689386
000120 6c 73 eb 3c f7 79 98 bd fd 07 16 3e 22 25 d3 3d
       0.02874156 -0.07445138 0.14651485 0.10309817
000130 c5 25 c3 3a c4 6e a8 bd c8 9e a5 3e 2f a6 82 3e
       0.0014888576 -0.08224252 0.32347703 0.25517413
000140 39 d6 ca 3d 4c 44 f7 bd 78 f2 42 3d f0 2d 88 3d
       0.09904141 -0.120735735 0.047594517 0.06649387
000150 f6 09 96 3d 06 9e 11 bc 81 ae 8a bd 60 05 40 3e
       0.07326119 -0.008887773 -0.06771565 0.1875205
000160 d7 73 ae 3d 31 6c 2d 3d 59 09 dc bc 14 11 8a 3e
       0.085181884 0.042339507 -0.026859926 0.26966155
000170 e0 59 19 3e 28 5e 16 3e 7d 9d ab 3d c4 98 bc 3c
       0.14975691 0.14684355 0.08379648 0.023022063
000180 b0 06 50 3e fc a6 f4 3c 09 87 a8 bc c7 95 c5 3d
       0.20315051 0.02986478 -0.020572202 0.096477084
000190 23 5c 5d 3e d9 9f 8f 3b c9 43 86 3e c1 65 0e 3e
       0.21617179 0.004383069 0.2622359 0.13906004
0001a0 89 4a 06 3e ff 6d 57 3c e4 ef 0d 3e 27 aa 37 3c
       0.1311437 0.013148784 0.13861042 0.011210001
0001b0 ac 86 bc 3d 66 0a 01 bb 50 16 05 3d b9 24 ac bd
       0.09205374 -0.0019690036 0.032491982 -0.08405442
0001c0 19 79 04 3c f1 36 40 3d b2 35 f4 3d 80 1b a0 bc
       0.008085513 0.046927396 0.11924304 -0.019544363
0001d0 07 a3 5e 3d 3e b8 8a 3d 4e 37 af 3d 71 23 f8 bc
       0.054354694 0.06773423 0.085554704 -0.030290337
0001e0 4d 21 c3 3c ef e1 7d 3e 53 f1 49 3e 44 e4 47 3c
       0.02381959 0.24793218 0.19720964 0.012200419
0001f0 c0 05 ca 3c 02 53 f5 3d 0f 5b 40 3e 10 65 30 3e
       0.024660945 0.11978723 0.18784736 0.17226052
000200 4a 7f e2 bb 27 03 71 bd 09 98 2e 3e 1d 39 1d 3e
       -0.0069121467 -0.058840897 0.17050184 0.15353818
000210 09 90 bf 3d 7a ef cc 3d d1 21 15 3d 06 cc 6f 3e
       0.093536444 0.10006614 0.036409203 0.23417673
000220 20 fc 41 be 61 74 26 3e 95 ef 30 3c a9 f9 26 be
       -0.18943834 0.16255333 0.010799308 -0.16306175
000230 25 a7 7f be b7 a1 56 bd a6 e6 9a bd 4e be 7c 3e
       -0.24966104 -0.052400317 -0.07563524 0.2468197
000240 1c 01 4d 3e b4 50 e9 3d 07 2e 04 bd eb 2d b1 bd
       0.20019954 0.11392346 -0.032270458 -0.08651336
000250 2c 1f 82 3d 30 f9 1f 3e e5 8b e5 3b 40 f3 b8 3d
       0.06353602 0.15622401 0.007005202 0.09030771
000260 be ae 25 3d 6d d8 a1 bd 82 64 56 bd 47 71 6b bd
       0.04044985 -0.07902608 -0.052341945 -0.057481077
000270 b4 91 6b 3e 71 60 80 bb a6 da 2d 3b 45 dd a6 3e
       0.230048 -0.0039177467 0.002652803 0.3259069
000280 a5 2e c3 3d cd c0 51 bd 2b 11 53 3e 16 26 ae 3c
       0.09530381 -0.05120926 0.20612018 0.021258395
000290 eb 82 1a be 07 4a 7e bc 08 60 48 bc 76 e1 29 ba
       -0.15089004 -0.015520579 -0.012229927 -0.00064804347
0002a0 a3 b9 bc 3c 23 b8 98 bd 82 80 86 3c 1c 6e 4c 3c
       0.023037737 -0.07456996 0.0164187 0.012477424
0002b0 11 34 7e 3d 54 90 34 bd 49 db 13 be 89 e2 49 be
       0.062061373 -0.044082955 -0.1443912 -0.19715323
0002c0 f9 2f 88 bd 74 7c 99 3e 5a 3c 68 3e 7c 58 6f bc
       -0.06649775 0.29977763 0.22679272 -0.014608499
0002d0 08 8d 2a 3d a4 f9 ea bd 8b 6e ce bd 28 08 d9 bc
       0.041638404 -0.114733964 -0.10079678 -0.026493147
0002e0 ab 02 ef 3c 03 a2 81 3d b4 df 6d bd b8 e5 b9 bc
       0.029176077 0.063297294 -0.058074668 -0.022692546
0002f0 8a 8e d5 3d 84 82 e2 3d 91 a6 74 bd f7 8b 97 3e
       0.10427578 0.1106005 -0.059729163 0.29598972
000300 61 ba 55 3e 5b 86 4e bd 0c 4b ca bd 5a 2b 65 3a
       0.20871879 -0.0504211 -0.09877595 0.00087421166
000310 92 66 04 be 98 a7 4a bd 04 82 22 3d ef 9b 15 3c
       -0.12929752 -0.049476236 0.039674774 0.009131416
000320 cf 34 c9 3d 30 aa d5 3d a3 5e 31 be e6 df 2d 3e
       0.098245256 0.10432851 -0.17321257 0.16979942
000330 e7 54 28 be bd a7 1b 3e 43 b6 0c 3a 1e a8 34 3d
       -0.16438638 0.15200706 0.0005367735 0.04410564
000340 28 1c 0b be 6f 10 0d 3e de 2a 01 be 4f b0 22 bd
       -0.1358496 0.137758 -0.12614009 -0.039718922
000350 dd 5e 32 be d6 d1 4c bd d2 64 ed bc 90 01 f7 bd
       -0.17419 -0.050004803 -0.028978739 -0.12060845
000360 bb ad 58 3d 4d d6 bc bd c5 f4 16 3d 02 a8 5b bd
       0.052900057 -0.09220562 0.036854524 -0.05362702
000370 6f f6 87 bd c1 f3 0d bd cd 78 e4 bb de 15 10 3e
       -0.066388 -0.03465629 -0.0069724084 0.14070842
000380 5a ce e3 bd 76 56 eb bc bb 0b 39 be 5a 00 07 3e
       -0.11123343 -0.028727751 -0.18070881 0.13183728
000390 fd fe 94 bd 35 36 85 3d 40 6a a6 bc 80 6b 22 3e
       -0.07275198 0.0650448 -0.020314336 0.1586132
0003a0 a9 a5 15 be ef a0 b2 bd db ce 13 be 21 d4 91 3e
       -0.14613976 -0.08722102 -0.14434378 0.28482154
0003b0 64 11 c4 3e 81 0c f1 3d e9 af 54 3d 87 26 28 bd
       0.38294518 0.11769963 0.051925573 -0.041052368
0003c0 ae e8 88 3c 84 4b 9d 3d 11 a7 cb bd d9 e8 de 3d
       0.016712513 0.07680419 -0.09943975 0.10884256
0003d0 69 41 00 be c4 2f 3b 3d 7b 56 80 3e 90 4e 2a bd
       -0.12524952 0.04569985 0.2506598 -0.04157883
0003e0 19 aa 10 be 27 88 33 be 86 b8 99 bd 32 01 fe 3b
       -0.14127387 -0.17532407 -0.07505898 0.0077516073
0003f0 5a 96 32 bc 7a c5 92 bd fa 2a a3 bd 57 e4 2d be
       -0.010900104 -0.07166572 -0.079671815 -0.16981636
