backend/inference/models/new_multicar_multistep_model.pt (torch, 824725 bytes, 10 tensors)

lstm.weight_ih_l0 f4 [512, 11]
0	0xbdf8ae5a	-0.1214263
1	0xbf03c8b5	-0.5147813
2	0xbdb4e749	-0.08833177
3	0xbe137cb1	-0.14403035
4	0x3d0d2c7f	0.034466263
5	0x3d25c762	0.04047335
6	0x3debcf37	0.115141325
7	0x3ccef6c2	0.025264148
8	0xbe11f859	-0.14254893
9	0x3d1eb9c2	0.03875137
10	0x3f0806d3	0.5313541
11	0x3d7d2011	0.06179816
12	0x3d9bf65d	0.076153494
13	0xbe07e9eb	-0.13272826
14	0x3ce1c30b	0.027558824
15	0xbd5c9d56	-0.053860985
16	0x3dbdff7f	0.09277248
17	0xbcefaf21	-0.029258313
18	0xbd078802	-0.03308869
19	0xbc809980	-0.015698195
20	0xbb6a6be4	-0.0035769874
21	0x3cddc37b	0.027070751
22	0x3d6a441e	0.057193868
23	0x3e89fe5e	0.2695188
24	0xbd12d100	-0.03584385
25	0xbeaeec7c	-0.34164798
26	0xbfd9176e	-1.6960275
27	0xbf5bbbb4	-0.8583329
28	0x3e2af220	0.16693926
29	0xbf0686ba	-0.52549326
30	0xbf155d24	-0.58345246
31	0xbf199f82	-0.60009015
32	0xbc36f671	-0.011167155
33	0x3e92bd27	0.28659937
34	0xbe4879ce	-0.19577715
35	0x3edc8b4d	0.43075028
36	0xbea8eb3e	-0.32991976
37	0x3d80c6f8	0.0628795
38	0xbd388844	-0.045051828
39	0xbe82c769	-0.25542763
40	0xbee49c4b	-0.44650492
41	0x3da49647	0.08036476
42	0x3e04e9b1	0.12979771
43	0xbd469279	-0.04847953
44	0x3f732d81	0.9499131
45	0x3fd687e7	1.6760224
46	0x3e317bd7	0.17332397
47	0xbe4101a7	-0.18848287
48	0xbec09b8d	-0.37618676
49	0xbf38b6f6	-0.72154176
50	0xbf3f66c6	-0.74766195
51	0x3de995f9	0.11405558
52	0xbd2013ca	-0.039081372
53	0xbda4e9ee	-0.08052431
54	0x3f30f857	0.69128937
55	0xbe90f305	-0.2831041
56	0x3d7fe21c	0.062471494
57	0x3d8011f0	0.06253421
58	0xbc82af8e	-0.015952852
59	0xbc0b2d1d	-0.008494643
60	0xbdec9875	-0.11552516
61	0xbdf2380d	-0.11827097
62	0x3e686c4d	0.22697563
63	0xbcd750da	-0.02628367
64	0xbdc6aa7c	-0.09700486
65	0x3b9ebdff	0.0048444266
66	0x3c9b5ee6	0.01896615
67	0xbf4a368c	-0.7898948
68	0xbe37fd26	-0.17967662
69	0xbf1047c0	-0.5635948
70	0x3c8a1f2e	0.01686057
71	0xbe87625f	-0.2644224
72	0xbe93a30d	-0.28835335
73	0xbf1e0bca	-0.6173674
74	0x3d0a98f4	0.033837274
75	0x3e2e2b45	0.17008694
76	0x3e4ebae9	0.20188488
77	0xbd2c29ef	-0.04203218
78	0x3d8fd33a	0.0702271
79	0x3d841817	0.06449907
80	0xbd797fa6	-0.06091275
81	0x3d447fbf	0.04797339
82	0xbe376b45	-0.17912014
83	0xbdb7912f	-0.089632384
84	0x3cc4e713	0.024035966
85	0xbd219437	-0.03944799
86	0xbdfff557	-0.12497967
87	0x3e9d3727	0.3070614
88	0x3e728b74	0.2368601
89	0xbf2b2c89	-0.6686483
90	0x3e1e891d	0.15481992
91	0x3e13adf0	0.1442182
92	0x3f1475c8	0.5799222
93	0xbf50392f	-0.81337255
94	0xbea08693	-0.31352672
95	0xbe20fc5d	-0.15721269
96	0xbd2d53a3	-0.04231609
97	0x3d6fcc93	0.058544707
98	0x3f43cee2	0.76487553
99	0xbe385af5	-0.18003447
100	0x3ea642ca	0.3247283
101	0x3ddce1ce	0.10785256
102	0x3e521dd8	0.20519197
103	0x3f23ee9f	0.6403598
104	0xbf0b7d8d	-0.5448845
105	0xbe8c6cc1	-0.27426723
106	0xbd37d26c	-0.04487841
107	0x3d57b7ee	0.052665643
108	0x3a4fbe90	0.00079248194
109	0xbe10bea9	-0.14135231
110	0x3e04e8e7	0.1297947
111	0x4002be1f	2.042854
112	0x3e61a4b6	0.22035488
113	0x3f4517a5	0.76989204
114	0xbfa9cad4	-1.3265023
115	0xbec86395	-0.39138475
116	0x3e704421	0.23463489
117	0x3e872be7	0.26400682
118	0xbea4c5cd	-0.3218216
119	0xbeb4ccb8	-0.35312438
120	0x3e02ff86	0.12792787
121	0x3e8c5d7b	0.2741507
122	0xbe9466bf	-0.2898464
123	0x3e839a0d	0.2570347
124	0x3f022405	0.5083621
125	0x3e8a9421	0.27066138
126	0xbe466e44	-0.19378
127	0x3e25f4c7	0.16206656
128	0xbf7cb9c5	-0.9872096
129	0x3e9aff6e	0.30273002
130	0x3e9ca944	0.3059789
131	0x3c32f70e	0.01092316
132	0xbe2ea6e2	-0.17055848
133	0xbec2f92f	-0.38080737
134	0xbe080d9c	-0.13286442
135	0x3dc4c39e	0.096076235
136	0xbf972614	-1.1808496
137	0x3f5e8010	0.8691416
138	0xbeef3c9b	-0.46725926
139	0x3f0a82b2	0.54105675
140	0xbc983fc1	-0.018585088
141	0xbd678d47	-0.056531217
142	0x3d262621	0.040563706
143	0xbe8c446e	-0.27395958
144	0xbf36879e	-0.71300685
145	0xbdd4a185	-0.1038237
146	0x3eff1908	0.49823785
147	0x3f09ed3d	0.5387762
148	0x3e04d898	0.12973249
149	0xbf399e56	-0.72507226
150	0xbe0ba7b9	-0.136382
151	0xbdd689e4	-0.10475519
152	0xbd5d455e	-0.05402123
153	0xbf7cee6e	-0.98801315
154	0xbe81ac13	-0.25326595
155	0x3dc353a3	0.09537437
156	0xbdefde64	-0.117123395
157	0xbf32ca93	-0.69840354
158	0xbea8ea2b	-0.32991156
159	0xbf4961ae	-0.7866467
160	0x3f3624ba	0.7114979
161	0xbf591cd7	-0.8480963
162	0xbdf7add9	-0.12093706
163	0xbd31bd30	-0.043393314
164	0x3f256fba	0.64623606
165	0x3ea2048b	0.3164409
166	0xbf6f4311	-0.9346171
167	0xbd875242	-0.06607486
168	0xbccc40f9	-0.024933325
169	0xbec50924	-0.38483536
170	0xbb087601	-0.002082229
171	0xbf4f6d49	-0.8102613
172	0x3e58c050	0.21167111
173	0x3ec07dd3	0.37595996
174	0x3ed6ef4b	0.4197944
175	0x3f8541ff	1.0410765
176	0xbf45ba81	-0.7723771
177	0xbe08549b	-0.13313524
178	0xbe779ea5	-0.24181612
179	0xbf0b4413	-0.5440075
180	0xbe4260eb	-0.18982284
181	0x3e7b638f	0.24549697
182	0x3eb7fd0c	0.35935247
183	0x3f4d7604	0.802582
184	0xbe03f80c	-0.12887591
185	0xbe39875d	-0.18118043
186	0x3ddb906a	0.10720904
187	0x3d29f5cd	0.04149418
188	0x3e6b57f0	0.22982764
189	0xbeb4495b	-0.35212216
190	0x3ec1001d	0.376954
191	0x3ed9aa1a	0.4251259
192	0xbdb74800	-0.0894928
193	0xbe9a9be3	-0.30197057
194	0x3ef08b57	0.46981308
195	0xbeb35258	-0.3502376
196	0xbeabaa61	-0.33528426
197	0xbec1278b	-0.3772548
198	0x3f09de3c	0.5385473
199	0x3eb1998e	0.34687465
200	0x3d548a99	0.05188999
201	0x3e3cc650	0.18435025
202	0xbe6696a6	-0.22518405
203	0x3e9d3e1b	0.30711445
204	0x3f32c1e2	0.6982709
205	0xbe877ec7	-0.2646391
206	0x3ccb9c7e	0.024854895
207	0x3db76282	0.08954336
208	0xbd9771de	-0.07394765
209	0xbd3c0ea9	-0.04591242
210	0x3f3b0c65	0.7306579
211	0x3ec3dbd5	0.38253656
212	0xbeb0e487	-0.34549353
213	0xbe35072b	-0.17678516
214	0xbdb2d25a	-0.087315276
215	0x3f1ec877	0.62024635
216	0xbf0af01c	-0.5427263
217	0xbdba725e	-0.09103845
218	0xbddbe397	-0.10736769
219	0xbfd63e81	-1.6737825
220	0x3dc7456f	0.0973004
221	0x3ca42e46	0.020041596
222	0xbd3f5db9	-0.04672024
223	0x3d7877b1	0.06066102
224	0xbd2551d9	-0.04036126
225	0x3d42c5f5	0.047552068
226	0xbdb6ad85	-0.08919815
227	0xbd95dfba	-0.07318063
228	0x3e527f58	0.2055639
229	0x3e836e4e	0.25670093
230	0xbd34565e	-0.04402768
231	0x3de58ebd	0.11208866
232	0x3e2dbd29	0.1696669
233	0xbe0392bf	-0.12848948
234	0xbe630cc9	-0.22172846
235	0xba0fe754	-0.00054894877
236	0x3d0c94ab	0.03432147
237	0x3cf9c352	0.030488644
238	0x3d67b64d	0.05657034
239	0xbd890389	-0.066901274
240	0xbc4c21be	-0.012459217
241	0xbe1a1bed	-0.15049715
242	0xbecedf8e	-0.40404934
243	0x3ed36bcb	0.41293177
244	0x3eab655b	0.33475766
245	0x3f5c50db	0.86060876
246	0x3f814af3	1.0100998
247	0x3f4f821a	0.81057894
248	0x3f4edf70	0.8080969
249	0x3e3d5129	0.18487991
250	0x3d5388ac	0.051644012
251	0x3d70c94f	0.058785733
252	0xbd531949	-0.051537786
253	0x3ee8716d	0.45399037
254	0xbf047856	-0.5174612
255	0xbd6d3a6f	-0.057917055

lstm.weight_hh_l0 f4 [512, 128]
0	0xbf2e7205	-0.6814273
1	0xbf603181	-0.87575537
2	0xbe218d3b	-0.15776531
3	0xbe943101	-0.28943637
4	0x3d3408dd	0.043953765
5	0x3e995084	0.2994424
6	0xbd08f7c6	-0.03343942
7	0xbe629dd4	-0.22130519
8	0xbed187e5	-0.40923992
9	0x3fade384	1.3585057
10	0x3dd9dfd5	0.10638396
11	0xbd6e71ef	-0.058214124
12	0xbefd8b29	-0.49520233
13	0xbedf0bdd	-0.43563738
14	0xbf17d283	-0.5930559
15	0xbe0fd8d9	-0.14047565
16	0x3ef0d983	0.47040948
17	0x3e04b90d	0.12961216
18	0x3e1eaf52	0.15496567
19	0x3f2355b2	0.63802636
20	0x3ecf7ca9	0.40524796
21	0xbf4de077	-0.8042063
22	0x3e7fc91c	0.24979061
23	0x3f89288f	1.0715503
24	0xbe997aa7	-0.2997639
25	0xbce334b0	-0.027735084
26	0x3d294da4	0.04133381
27	0xbe0688bb	-0.13138096
28	0x3f43edfa	0.76535
29	0xbe7e6d99	-0.24846496
30	0x3e95c75a	0.29253656
31	0xbff7ebad	-1.9368798
32	0xbe059209	-0.13043989
33	0xbe067e74	-0.13134176
34	0x3edfe53f	0.43729588
35	0xbeabde3b	-0.33567986
36	0x3ed4bc2b	0.4154981
37	0xbf18b42e	-0.5964993
38	0x3ebf253a	0.3733309
39	0xbe080106	-0.1328164
40	0x3d974822	0.07386805
41	0xbf157c7e	-0.58393085
42	0xbdc974e1	-0.09836746
43	0x3d031076	0.03199812
44	0xbe2fe60b	-0.17177598
45	0x3ec2483a	0.3794573
46	0x3d8d0533	0.06885757
47	0x3f561b60	0.8363552
48	0xbed42bee	-0.41439766
49	0xbdc8b2b3	-0.09799709
50	0xbed192dc	-0.40932357
51	0x3e95327f	0.29140088
52	0xbec9604d	-0.39331284
53	0xbcd5daac	-0.026105247
54	0xbe701aab	-0.23447673
55	0x3dcf2a1d	0.10115454
56	0xbe35744f	-0.1772015
57	0x3e1514ff	0.1455879
58	0xbe8d33d8	-0.27578616
59	0x3e20d65b	0.1570677
60	0x3ec959d4	0.39326346
61	0x3eb3ba3d	0.35103026
62	0xbe3ff64c	-0.18746299
63	0x3e089a5a	0.1334013
64	0xbe14ab26	-0.14518413
65	0x3e590fef	0.21197484
66	0x3d8897cf	0.0666958
67	0x3e8a2405	0.26980606
68	0xbe024162	-0.12720254
69	0x3db664e5	0.08905963
70	0xbe9815a0	-0.29704
71	0x3f60b6c6	0.8777889
72	0x3d95f86b	0.073227726
73	0x3e98485e	0.29742712
74	0xbe319d0e	-0.17345068
75	0xbb45fe8f	-0.0030211543
76	0xbdb57c1f	-0.08861565
77	0xbf2a7a6f	-0.6659307
78	0x3de122a1	0.10992933
79	0x3e947a4f	0.28999564
80	0x3e4d510e	0.20050451
81	0xbe8199ea	-0.2531274
82	0xbe983fc3	-0.29736146
83	0x3f26f398	0.65215445
84	0x3eeeccac	0.46640527
85	0x3d7f718b	0.062364142
86	0x3e8ce3cc	0.27517545
87	0x3e62d6bd	0.22152229
88	0xbf0240aa	-0.5087992
89	0x3f19e938	0.6012149
90	0xbe1ff6a3	-0.15621428
91	0x3f8def47	1.1088647
92	0x3e8f24d7	0.27957794
93	0x3e40893a	0.18802348
94	0x3e17eba1	0.14835979
95	0xbec2131c	-0.37905204
96	0xbebee6da	-0.372855
97	0xbfdcbff7	-1.7246083
98	0xbee47ce4	-0.44626534
99	0x3f5a9191	0.85378367
100	0xbf6d1a4f	-0.9261827
101	0x3f2914f7	0.66047615
102	0x3ec25cb0	0.3796134
103	0xbee35746	-0.44402522
104	0xbe861085	-0.26184478
105	0xbe223f84	-0.15844542
106	0xbdba5a26	-0.09099226
107	0xbe68afad	-0.22723265
108	0xbead5b39	-0.3385866
109	0x3e4d6041	0.20056249
110	0xbc55adb5	-0.013041903
111	0xbe1e2a00	-0.15445709
112	0x3af6df36	0.0018834833
113	0x3ec22bdc	0.37924087
114	0x3e421e78	0.18956935
115	0xbce7e2be	-0.028306361
116	0x3e23c0ed	0.15991564
117	0x3e42591a	0.18979302
118	0x3b731498	0.0037091132
119	0xbef202f7	-0.47267887
120	0x3dd0e20f	0.10199367
121	0xbf05c378	-0.52251387
122	0x3e8c1bfb	0.27365097
123	0xbf1bcae4	-0.6085646
124	0xbe813e24	-0.25242722
125	0x3e7bcce2	0.24589875
126	0x3e76d64d	0.24105187
127	0xbca2dbe0	-0.019880235
128	0xbed85bf1	-0.42257646
129	0xbf8bb14c	-1.0913482
130	0x3d734006	0.05938723
131	0x3fc7d9eb	1.5613378
132	0xbdd761a2	-0.10516669
133	0xbe292803	-0.1651917
134	0x3dff9d11	0.1248113
135	0x3f1c9843	0.6116983
136	0xbf65e1bc	-0.8979757
137	0x400e6fc7	2.2255723
138	0x3e7f5226	0.24933681
139	0xbdd8a87e	-0.10579012
140	0xbdbe0b38	-0.092794836
141	0xbdc8aa93	-0.097981595
142	0x3ddf599e	0.10905765
143	0xbe8bc266	-0.27296752
144	0x3edfe783	0.43731317
145	0xbe09981b	-0.1343693
146	0xbd768470	-0.060184896
147	0x3dcd3496	0.100197956
148	0xbcaf79d8	-0.021420404
149	0xbf7053d4	-0.9387791
150	0x3e3d4cb5	0.18486293
151	0x3eb72536	0.35770577
152	0x3e2add28	0.16685927
153	0xbdeed773	-0.116621874
154	0xbe7ee74e	-0.24892923
155	0xbe6d46d9	-0.23171557
156	0x3f86099d	1.0471684
157	0xbdfb0933	-0.12257614
158	0x3e080c38	0.13285911
159	0xc01cfb5d	-2.452842
160	0xbcc1035f	-0.023561178
161	0x3cb0e2fa	0.021592606
162	0xbe338d8d	-0.17534466
163	0x3ec5cb8f	0.38631865
164	0xbe69a0af	-0.22815202
165	0x3c05e1ae	0.008171482
166	0x3f8d4f35	1.1039797
167	0xbdfa12f8	-0.12210649
168	0x3e4912ac	0.19636029
169	0x3e4dc69d	0.20095296
170	0xbefd487e	-0.4946937
171	0xbed3aaad	-0.41341153
172	0x3ea5588f	0.32294127
173	0x3ec04aa7	0.37556955
174	0x3d2b5710	0.041831076
175	0x3eb2696e	0.3484606
176	0xbdb786ef	-0.089612834
177	0x3e83f446	0.25772303
178	0xbcde3fd1	-0.02713004
179	0x3f17adb6	0.59249437
180	0xbf9e1d12	-1.2352622
181	0xbca2ed55	-0.01988856
182	0xbe1cbcf3	-0.15306453
183	0xbfcc0ab4	-1.5940766
184	0xbea36e46	-0.3192007
185	0x3df6e8e5	0.1205614
186	0x3e96e568	0.29471898
187	0x3c0a316a	0.008434633
188	0x3f09226b	0.5356814
189	0xbfdd8fa2	-1.7309458
190	0x3e84654c	0.25858533
191	0x3d2045ed	0.039129186
192	0xbc523165	-0.012829159
193	0xbe480159	-0.19531764
194	0x3dcdcc21	0.100487
195	0x3cbbb161	0.02291173
196	0xbe649fef	-0.22326635
197	0xbddab89c	-0.10679743
198	0x3e926e6c	0.2859987
199	0xbdbe2ff2	-0.092864886
200	0x3f17d9cb	0.593167
201	0x3effb7e0	0.49944973
202	0xbcf2b064	-0.029625125
203	0xbdfd3dd0	-0.123653054
204	0x3e278fb0	0.16363406
205	0xbf08f522	-0.53499043
206	0xbe3bcda6	-0.18340167
207	0x3e3e2585	0.18569
208	0x3ee5916c	0.4483751
209	0x3e1d6c4d	0.15373345
210	0xbdaaf718	-0.08347911
211	0x3c8c3e80	0.017119646
212	0x3f4d8004	0.8027346
213	0xbea79a71	-0.32735017
214	0xbdaa072e	-0.08302151
215	0x3c42220e	0.01184894
216	0xbcbb8140	-0.02288878
217	0x3f00f12e	0.5036801
218	0x3eb858a1	0.36005118
219	0x3f14141f	0.578432
220	0xbebcb80f	-0.36859176
221	0x3fa71f2b	1.3056387
222	0x3cd2f340	0.025750756
223	0xbebb4dc5	-0.3658277
224	0x3e1849a2	0.14871839
225	0xc0166ae0	-2.3502731
226	0xbe042fc8	-0.12908852
227	0x3fc1131d	1.5083958
228	0xbf967ed1	-1.1757451
229	0x3f69dbd8	0.9135108
230	0xbf3ea647	-0.7447247
231	0xba3b5418	-0.0007146015
232	0x3dee3a8f	0.11632263
233	0xbf0a31f6	-0.53982484
234	0x3e32b17a	0.17450514
235	0xbe1a0fb7	-0.15045057
236	0x3cdd6f24	0.027030535
237	0x3e639fd5	0.2222894
238	0x3ca1eb47	0.01976551
239	0x3eb73a91	0.3578687
240	0x3d1de38c	0.038547084
241	0x3e2164b7	0.15761076
242	0xbcad925b	-0.021187952
243	0xbeb5ea91	-0.35530522
244	0xbd9d766a	-0.07688601
245	0xbf314023	-0.6923849
246	0x3e88b55f	0.26700875
247	0xbf900374	-1.1251054
248	0xbf2b88e2	-0.6700574
249	0xbccdb1f2	-0.025109265
250	0xbec10af8	-0.3770368
251	0x3e16a362	0.14710763
252	0x3f3a1afe	0.72697437
253	0x3e2ae759	0.16689815
254	0x3dbbdf28	0.09173423
255	0x3e2855f4	0.16439039

lstm.bias_ih_l0 f4 [512]
0	0xbef23f55	-0.47313944
1	0x3e514806	0.20437631
2	0xbf3181a6	-0.6933845
3	0x3f6bf117	0.9216475
4	0xbefab708	-0.48967767
5	0xbf37b066	-0.7175354
6	0xbeec5576	-0.46158952
7	0xbf9cbc1f	-1.224491
8	0x3edd147d	0.43179694
9	0xbe5b2ccf	-0.21403812
10	0x3cb7e0a7	0.02244599
11	0xbf8bc3fd	-1.0919186
12	0x3eaf429e	0.34230512
13	0xbf204da1	-0.6261845
14	0xbdb6ad89	-0.08919818
15	0xbfe33812	-1.7751486
16	0xbc89f998	-0.016842648
17	0xbf62a9ec	-0.8854053
18	0xbf0d654d	-0.552327
19	0xbf6baf1b	-0.92064065
20	0xbda02390	-0.07819283
21	0xbe5e94a9	-0.21736397
22	0x3ee2febf	0.4433498
23	0xbfae5b37	-1.3621587
24	0xbf4366e9	-0.76328903
25	0xbf2f7467	-0.6853699
26	0xbf8ea9c8	-1.1145563
27	0xbea3c306	-0.3198473
28	0xbf19f10c	-0.60133433
29	0xbf24993d	-0.64296323
30	0xbe12487d	-0.14285465
31	0xbedae745	-0.4275457
32	0xbfa60627	-1.2970628
33	0xbf5c34e3	-0.860182
34	0xbf7dc8ef	-0.99134725
35	0xbf3bf411	-0.7341929
36	0xbf1d08d5	-0.613416
37	0xbee32770	-0.44366026
38	0xbf7af11a	-0.9802414
39	0xbf16a44c	-0.5884445
40	0xbf70a81a	-0.940065
41	0xbe181028	-0.14849913
42	0xbf171fe3	-0.5903303
43	0xbf012ef3	-0.50462264
44	0xbf13346f	-0.5750188
45	0xbf3f41ba	-0.74709666
46	0xbf3f1ea0	-0.74656105
47	0xbf260bb8	-0.6486163
48	0xbf83d4d7	-1.0299329
49	0xbf48ed88	-0.78487444
50	0xbeda3ac4	-0.4262296
51	0xbf2f2102	-0.6840974
52	0xbfae7cfe	-1.3631895
53	0xbeebc245	-0.46046653
54	0xbf96c42a	-1.1778615
55	0xbf862f6e	-1.0483224
56	0x3fe4441e	1.7833288
57	0xbf2d4229	-0.6767908
58	0xbee36a20	-0.44416904
59	0xbdf37681	-0.11887837
60	0xbfadcaa7	-1.357747
61	0xbf43a08d	-0.76416856
62	0xbe870b9e	-0.2637605
63	0xbd800584	-0.06251052
64	0xbf5aa485	-0.85407287
65	0xbfae752d	-1.3629509
66	0xbfb3fc47	-1.4061364
67	0xbdaafc50	-0.08348906
68	0xbf6f12e9	-0.9338823
69	0xbef5c596	-0.4800231
70	0xbe778b9b	-0.24174349
71	0xbf652162	-0.89504063
72	0xbeaa3419	-0.33242872
73	0xbec74577	-0.38920185
74	0xbd819c5c	-0.06328651
75	0xbf683a16	-0.9071363
76	0xbeff0451	-0.4980798
77	0xbf68605e	-0.90772045
78	0xbe557384	-0.20844847
79	0xbfc95119	-1.5727874
80	0xbb5cd0ae	-0.0033693719
81	0xbe2977f7	-0.16549669
82	0xbe2729f7	-0.16324602
83	0xbf0f00fd	-0.55860883
84	0xbfa77a52	-1.3084204
85	0xbf144077	-0.57910866
86	0xbfb1b10d	-1.3882157
87	0xbfa47fae	-1.2851465
88	0xbf4c2a3f	-0.7975196
89	0xbfaa4796	-1.3303096
90	0xbf5b9245	-0.85770065
91	0xbc8a2b1c	-0.01686626
92	0xbf458510	-0.7715616
93	0xbf5ba6bf	-0.8580131
94	0xbfb3b89c	-1.4040713
95	0xbee4a2cf	-0.44655463
96	0x3e99835b	0.2998303
97	0xbe977923	-0.29584607
98	0x3e72f5ab	0.23726527
99	0xbf8764a4	-1.0577588
100	0xbeef3005	-0.46716323
101	0xbf13d556	-0.577474
102	0xbf9956a8	-1.197957
103	0xbfaabae2	-1.3338282
104	0xbf1f0bc9	-0.6212736
105	0xbf9df450	-1.2340183
106	0xbb86f6a7	-0.0041187587
107	0xbecbcbaf	-0.39803836
108	0xbf13ac8f	-0.5768518
109	0xbf825903	-1.0183414
110	0x3d8df502	0.06931497
111	0xbcad0e06	-0.021124851
112	0xbf47efbf	-0.781002
113	0xbf41dcb9	-0.7572742
114	0x3dca19d8	0.098682106
115	0xbf23ad65	-0.63936454
116	0xbdbbde0f	-0.09173214
117	0xbe7cbff3	-0.24682598
118	0xbf21fc75	-0.63275844
119	0x3d0fd8db	0.03511892
120	0xbe1b647c	-0.1517505
121	0xbebde28c	-0.37086904
122	0xbfa3570e	-1.2760942
123	0xbcd1f975	-0.025631646
124	0xbfc04c25	-1.5023237
125	0xbf0d10a4	-0.55103517
126	0xbefa6f6e	-0.4891314
127	0xbea7a7f1	-0.32745317
128	0x3fcd6759	1.6047164
129	0x400b87da	2.1801667
130	0x3e48cc6f	0.19609235
131	0xbf5ee998	-0.87075186
132	0xbde8357c	-0.11338326
133	0xbf2c78be	-0.6737174
134	0xbf393669	-0.7234865
135	0xbf9239e2	-1.1423914
136	0xbf2dcff6	-0.6789545
137	0x3fc7f0ee	1.5620401
138	0xbdf3b950	-0.1190058
139	0xbf647ee0	-0.89256096
140	0x3f273a3d	0.6532324
141	0xbf4c0070	-0.7968817
142	0x3e344bbb	0.17607014
143	0x3f460688	0.77353716
144	0x3f33f6c0	0.70298386
145	0xbdd8e216	-0.105899975
146	0xbf4d45b2	-0.8018447
147	0x3e1a187a	0.150484
148	0x3fdabb86	1.7088478
149	0x400543b9	2.0822585
150	0x3eb615e3	0.35563573
151	0x3f8df240	1.1089554
152	0xbe82701a	-0.25476152
153	0xbee3e4a2	-0.4451037
154	0x3ff98f04	1.949677
155	0x3d8e1093	0.06936755
156	0x3fdd5c79	1.7293845
157	0xbf202d83	-0.62569445
158	0xbe3210fb	-0.1738929
159	0x400b8d3d	2.1804955
160	0x3fdc046a	1.7188847
161	0xbe9205fd	-0.28520194
162	0xbeb4eb5a	-0.3533581
163	0xbe89d82a	-0.26922733
164	0xbf2060c5	-0.6264766
165	0x3e95b81d	0.2924203
166	0x3f827733	1.0192627
167	0xbefca05f	-0.49341103
168	0xbf41f396	-0.7576231
169	0x3ea3b472	0.31973606
170	0xbf993970	-1.1970654
171	0xbf888b95	-1.0667597
172	0x3f98b797	1.1931027
173	0xbf7d5933	-0.9896423
174	0x3fa2d9b1	1.2722684
175	0xbf49549c	-0.7864473
176	0x3f7cf6f5	0.98814327
177	0x3d76b0ff	0.06022739
178	0x3d9e7b45	0.077383555
179	0x3f9ead43	1.2396625
180	0x3f868c89	1.0511638
181	0xbe88ad3c	-0.26694667
182	0x3f4fad32	0.8112365
183	0xbefdca51	-0.49568418
184	0xbf510c3f	-0.8165931
185	0xbed52aa1	-0.41634086
186	0x3eac0341	0.33596233
187	0x3f232a8f	0.63736814
188	0x3fa9200f	1.3212909
189	0xbe6bb2a9	-0.23017372
190	0xbe4d01b2	-0.20020178
191	0xbf2848e0	-0.657362
192	0x3ea439e4	0.32075417
193	0x3ced2a41	0.028950812
194	0x3f85a4d3	1.0440925
195	0x3e95ce6d	0.29259053
196	0x3ed22dd7	0.41050598
197	0xbd63dec3	-0.055632364
198	0xbf81aabd	-1.013023
199	0x3f9feb57	1.2493695
200	0xbf03ae79	-0.514381
201	0x400829e9	2.127558
202	0xbd5a847a	-0.053348996
203	0xbf00bab0	-0.5028486
204	0xbd2f62a7	-0.04281869
205	0xbf850e69	-1.0395023
206	0xbf8492ea	-1.0357335
207	0x3fa383d3	1.2774605
208	0x3ff18ed6	1.8871715
209	0xbe5426f1	-0.2071798
210	0xbe66afef	-0.22528051
211	0xbe9c8fd6	-0.30578488
212	0x3fd346ea	1.6506016
213	0x400acda4	2.1688013
214	0x3fc75be3	1.5574917
215	0xbdc33376	-0.095313
216	0x3ff2220e	1.8916643
217	0x3f17f3a2	0.5935613
218	0x3cea342b	0.028589329
219	0xbe11f764	-0.14254528
220	0xbf717f3c	-0.9433477
221	0xbf4a4c71	-0.7902289
222	0xbea28a18	-0.31745982
223	0xbf13b935	-0.5770448
224	0xbf2f1615	-0.6839307
225	0x3ff59e9a	1.9189026
226	0x3f070804	0.52746606
227	0x3fc33c2e	1.525274
228	0x3fe41e34	1.7821717
229	0x40120c3f	2.2819974
230	0x3fbdae50	1.4818821
231	0xbe923b8a	-0.2856105
232	0x3f7ba82b	0.9830348
233	0x3eefdd6a	0.46848613
234	0xbf77456a	-0.9659029
235	0x3f0b528f	0.5442285
236	0x3e79969c	0.24373859
237	0xbf3fb1b3	-0.7488052
238	0x3e95cf73	0.29259834
239	0x400c9676	2.1966834
240	0x3f8a047d	1.078262
241	0xbe09ba92	-0.13450077
242	0xbf01bd2b	-0.5067927
243	0x3ec948a8	0.39313245
244	0xbf45b867	-0.772345
245	0x3e1b3375	0.15156348
246	0xbdd3fa62	-0.10350491
247	0x3e9be987	0.30451605
248	0xbee26368	-0.44216466
249	0xbf755b99	-0.9584289
250	0x3f9e21dc	1.2354083
251	0x3f1e854c	0.61922145
252	0x3ef533c4	0.47891057
253	0xbf719814	-0.9437268
254	0x3c59386a	0.013258079
255	0xbe8a75bd	-0.27042952

lstm.bias_hh_l0 f4 [512]
0	0xbf0d07aa	-0.5508982
1	0x3e31533d	0.17316909
2	0xbf3b212d	-0.730975
3	0x3f75cdb4	0.96017003
4	0xbefbeee1	-0.49205688
5	0xbf43e4d6	-0.7652105
6	0xbecfc731	-0.40581658
7	0xbfa4061c	-1.2814364
8	0x3ee53484	0.4476663
9	0xbe96641e	-0.29373258
10	0x3ce29527	0.027659012
11	0xbf8fb715	-1.1227747
12	0x3ec6cfc4	0.38830388
13	0xbf25d2bf	-0.647747
14	0xbdb6d9f3	-0.08928289
15	0xbfe1780b	-1.7614759
16	0xbd4a924d	-0.04945593
17	0xbf64ce23	-0.8937704
18	0xbf183e74	-0.59470296
19	0xbf704a1c	-0.9386308
20	0xbe3949eb	-0.18094604
21	0xbe8164a7	-0.25272104
22	0x3ee395bc	0.44450176
23	0xbfaee052	-1.3662207
24	0xbf3eb05d	-0.7448786
25	0xbf3588ea	-0.7091204
26	0xbf8c6192	-1.0967276
27	0xbea3e93b	-0.32013878
28	0xbf04fd5b	-0.5194909
29	0xbf20588a	-0.626351
30	0xbe178196	-0.14795527
31	0xbedfc6cf	-0.43706366
32	0xbfa3c542	-1.2794573
33	0xbf54803d	-0.83008176
34	0xbf7b9108	-0.98268175
35	0xbf38a0bc	-0.7212026
36	0xbf2d37d7	-0.6766333
37	0xbeed21f5	-0.4631497
38	0xbf684999	-0.907373
39	0xbf1e7bbe	-0.61907566
40	0xbf716d7e	-0.94307697
41	0xbdbe8670	-0.09302986
42	0xbf205578	-0.62630415
43	0xbf121888	-0.5706868
44	0xbf0d394d	-0.5516556
45	0xbf59be12	-0.8505565
46	0xbf4ead0d	-0.80732805
47	0xbf23a3b4	-0.63921666
48	0xbf74ee07	-0.956757
49	0xbf4db876	-0.8035959
50	0xbee0ecd2	-0.4393068
51	0xbf3596ad	-0.7093304
52	0xbfaed5fc	-1.3659053
53	0xbef56a58	-0.47932696
54	0xbf95541f	-1.1666297
55	0xbf87438b	-1.0567487
56	0x3fe4929a	1.7857239
57	0xbf323a12	-0.6961986
58	0xbee18151	-0.44043973
59	0xbdc323f2	-0.095283404
60	0xbfb78345	-1.4336935
61	0xbf416470	-0.7554388
62	0xbe8b4bc8	-0.27206254
63	0xbd72f65e	-0.059316985
64	0xbf581f28	-0.8442254
65	0xbfae77ce	-1.3630311
66	0xbfb49d1f	-1.411045
67	0xbd902f66	-0.070402905
68	0xbf6299f6	-0.88516176
69	0xbeebac70	-0.46029997
70	0xbe6ecd19	-0.23320426
71	0xbf56c6fc	-0.83897376
72	0xbec447fe	-0.38336176
73	0xbed0cacb	-0.4077972
74	0xbd7ee81a	-0.062233068
75	0xbf6b154d	-0.9182938
76	0xbf02937a	-0.5100628
77	0xbf730f69	-0.9494539
78	0xbe3620f0	-0.17786002
79	0xbfce1fce	-1.6103456
80	0xbdff7663	-0.12473752
81	0xbe347bbc	-0.17625326
82	0xbe1e77c8	-0.1547538
83	0xbf12208d	-0.5708092
84	0xbfa2fb43	-1.2732929
85	0xbf167ac4	-0.58781075
86	0xbfb1864e	-1.3869112
87	0xbfa1f2b9	-1.2652198
88	0xbf5ce2ed	-0.8628376
89	0xbfa8affc	-1.3178706
90	0xbf5beab3	-0.85905
91	0xbd16608b	-0.036713164
92	0xbf4ec1bc	-0.80764365
93	0xbf538a4b	-0.82632893
94	0xbfb34cf1	-1.4007856
95	0xbee987de	-0.4561147
96	0x3e99042a	0.2988599
97	0xbe998186	-0.2998163
98	0x3e83065b	0.25590786
99	0xbf97392e	-1.1814325
100	0xbed5cbde	-0.417571
101	0xbf270f25	-0.65257484
102	0xbf97409e	-1.1816595
103	0xbfa81bdf	-1.3133506
104	0xbf113599	-0.5672241
105	0xbfac4b86	-1.3460548
106	0xbc44a424	-0.012002025
107	0xbed77da5	-0.42088047
108	0xbf0e2625	-0.55526954
109	0xbf8832e2	-1.0640528
110	0x3e01e394	0.1268447
111	0x3ca9d3c1	0.020730855
112	0xbf47520c	-0.7785957
113	0xbf452faf	-0.77025884
114	0x3dcaa7e8	0.09895307
115	0xbf204a56	-0.6261343
116	0xbd6a17d2	-0.057151623
117	0xbe7f6bbb	-0.2494344
118	0xbf2cfa55	-0.67569476
119	0x3d0b86b3	0.034064006
120	0xbe31109f	-0.17291497
121	0xbec01a9a	-0.37520295
122	0xbfa4a3b7	-1.2862462
123	0x3cc54f59	0.024085687
124	0xbfc0b3d0	-1.5054874
125	0xbf049a9c	-0.51798415
126	0xbefdd725	-0.49578205
127	0xbea9e91f	-0.3318567
128	0x3fd32eb5	1.6498629
129	0x400d0ed1	2.2040293
130	0x3e5a909a	0.21344224
131	0xbf5eea7b	-0.8707654
132	0xbddae6b3	-0.10688534
133	0xbf32ce43	-0.6984598
134	0xbf43202e	-0.7622098
135	0xbf90c5c7	-1.1310357
136	0xbf2de673	-0.6792976
137	0x3fc8057e	1.5626676
138	0xbdc7fab0	-0.09764612
139	0xbf64863a	-0.89267313
140	0x3f2223d2	0.6333591
141	0xbf4e535f	-0.80595964
142	0x3e2ddd4f	0.16978954
143	0x3f435f4c	0.76317286
144	0x3f347e1a	0.70504916
145	0xbdc465b7	-0.09589713
146	0xbf4d4e4f	-0.80197614
147	0x3e17cd2e	0.14824364
148	0x3fdb37a7	1.7126359
149	0x4005a745	2.0883343
150	0x3eb5fdf1	0.35545304
151	0x3f8ed70e	1.115938
152	0xbe83b12f	-0.25721118
153	0xbee7de32	-0.4528671
154	0x3ff99016	1.9497097
155	0x3d8e130d	0.069372274
156	0x3fdf3754	1.743876
157	0xbf1e3be6	-0.6181015
158	0xbe32825a	-0.17432538
159	0x400b96c8	2.181078
160	0x3fdbb8bf	1.7165755
161	0xbe908310	-0.28224993
162	0xbeb11fcd	-0.34594575
163	0xbe8965c6	-0.2683546
164	0xbf1d011a	-0.61329806
165	0x3e957b94	0.29195845
166	0x3f8d01e1	1.1016198
167	0xbefd73e5	-0.49502483
168	0xbf41f63b	-0.7576634
169	0x3eca927d	0.39564887
170	0xbf971924	-1.1804547
171	0xbf891b84	-1.0711522
172	0x3f997e56	1.199168
173	0xbf7a1400	-0.9768677
174	0x3fa6f9f6	1.3045032
175	0xbf43c129	-0.76466614
176	0x3f760fdd	0.96117955
177	0x3d82a65c	0.06379387
178	0x3da68ade	0.081319556
179	0x3f99eea2	1.202595
180	0x3f889242	1.0669634
181	0xbe889fa7	-0.26684305
182	0x3f4614cc	0.77375484
183	0xbef5a832	-0.47979885
184	0xbf53b9a7	-0.8270516
185	0xbee48880	-0.4463539
186	0x3eac9943	0.3371068
187	0x3f251d22	0.6449758
188	0x3fa6f749	1.3044215
189	0xbe90780e	-0.28216594
190	0xbe4d006a	-0.20019689
191	0xbf26afc8	-0.6511197
192	0x3ea29308	0.317528
193	0x3ceab843	0.028652316
194	0x3f8bd138	1.0923223
195	0x3e8fb8a0	0.28070545
196	0x3ed8342c	0.42227304
197	0xbd6306dd	-0.055426467
198	0xbf8168b1	-1.0110074
199	0x3fa06172	1.2529738
200	0xbf17976f	-0.59215444
201	0x40078584	2.1175241
202	0xbd76bcb1	-0.060238544
203	0xbf011135	-0.5041688
204	0xbd3c872f	-0.04602736
205	0xbf84c107	-1.0371407
206	0xbf849240	-1.0357132
207	0x3fa448fd	1.2834774
208	0x3fef211a	1.8681977
209	0xbe40653c	-0.18788618
210	0xbe5ff667	-0.21871339
211	0xbe9e7b16	-0.30953282
212	0x3fd440ea	1.658231
213	0x400a43fd	2.1603997
214	0x3fc90141	1.5703508
215	0xbe13e27c	-0.14441866
216	0x3ff268e5	1.8938261
217	0x3f19372d	0.59849817
218	0x3d23c460	0.0399822
219	0xbe0ef866	-0.13961944
220	0xbf7ca81a	-0.98694
221	0xbf447014	-0.7673352
222	0xbea3575e	-0.31902593
223	0xbf1416cf	-0.57847303
224	0xbf2eff7f	-0.68358606
225	0x3ff1b8c1	1.8884507
226	0x3f073a2c	0.5282314
227	0x3fb4bf52	1.4120886
228	0x3fe524bd	1.7901837
229	0x40113ef4	2.2694674
230	0x3fbec352	1.4903357
231	0xbe91ac5f	-0.2845182
232	0x3f78f3a7	0.97246784
233	0x3ee37752	0.44426972
234	0xbf772b60	-0.9655056
235	0x3efec81e	0.49762052
236	0x3e790ba4	0.24320847
237	0xbf4032bc	-0.75077415
238	0x3e949fec	0.2902826
239	0x400c7835	2.1948369
240	0x3f86c477	1.0528706
241	0xbe09d18b	-0.1345884
242	0xbf01c085	-0.50684386
243	0x3ec7f520	0.39054203
244	0xbf45b611	-0.77230936
245	0x3e1b9e1d	0.15197034
246	0xbd89f661	-0.06736446
247	0x3e8a91be	0.27064317
248	0xbee59380	-0.44839096
249	0xbf7ac100	-0.97950745
250	0x3f9dfa58	1.2342024
251	0x3f273cf0	0.6532736
252	0x3ef3a4f7	0.47586796
253	0xbf729bcc	-0.9476898
254	0x3c49c8fb	0.012315984
255	0xbe8a394f	-0.26996848

lstm.weight_ih_l1 f4 [512, 128]
0	0x3cfb7437	0.030695064
1	0xbd6964df	-0.056980964
2	0x3e3ab629	0.18233551
3	0xbe94546a	-0.28970653
4	0x3e0834f6	0.13301453
5	0xbee72076	-0.45141953
6	0x3d86972e	0.06571804
7	0xbf33719d	-0.70095235
8	0x3e735ff7	0.23767076
9	0xbd4a874e	-0.049445443
10	0xbf128154	-0.5722859
11	0x3efa15aa	0.48844653
12	0x3ed82645	0.42216697
13	0xbf6c3d05	-0.9228061
14	0xbeb728f2	-0.35773426
15	0xbe1f0008	-0.15527356
16	0x3ec41795	0.38299242
17	0xbe052cf3	-0.13005428
18	0xbd62d14e	-0.05537539
19	0xbeb9909f	-0.3624315
20	0xbef8f7bf	-0.48626515
21	0xbd01cb35	-0.031687934
22	0x3db07cdd	0.08617566
23	0xbeca42ea	-0.39504176
24	0x3ecbe320	0.3982172
25	0xbf00d010	-0.5031748
26	0xbf14cd1d	-0.5812548
27	0xbe4fd7e9	-0.20297207
28	0x3f13edfa	0.57785
29	0xbf4e7489	-0.8064657
30	0x3ebe82dd	0.37209216
31	0xbdcc5082	-0.09976293
32	0xbe1ac58a	-0.15114418
33	0xbcd15084	-0.025551088
34	0x3e12f35f	0.14350651
35	0xbdf525ca	-0.11970098
36	0x3e12475d	0.14285035
37	0xbd05c158	-0.03265509
38	0xbd571217	-0.052507486
39	0x3e136189	0.14392675
40	0x3dbea150	0.09308112
41	0x3d4081f9	0.04699895
42	0x3de96b1b	0.11397382
43	0xbf519803	-0.81872576
44	0x3ea86287	0.3288767
45	0xbd85105c	-0.06497261
46	0xbee5086c	-0.44732988
47	0x3f09c9e1	0.5382367
48	0x3e47c5ea	0.19509092
49	0xbdf53f79	-0.11974997
50	0xbe3da9a8	-0.1852175
51	0xbd1febd9	-0.03904328
52	0xbea5902d	-0.3233656
53	0x3d1a2465	0.037632365
54	0xbeb66369	-0.3562272
55	0x3ebad3fa	0.3648985
56	0xbe9e692b	-0.30939612
57	0xbef3e460	-0.47635174
58	0xbe81d9f5	-0.253616
59	0xbe96292d	-0.2932829
60	0x3d1d27b6	0.03836795
61	0xbf543518	-0.82893515
62	0xbe1d5a33	-0.1536644
63	0x3f0e019d	0.5547121
64	0x3e48bad4	0.1960252
65	0x3e83cb31	0.2574096
66	0xbe9d29ae	-0.30695862
67	0x3e9c7ddf	0.30564782
68	0x3f136cf9	0.57588154
69	0x3da856b6	0.08219664
70	0x3db197ba	0.08671518
71	0xbe9ebee5	-0.31005016
72	0xbf829234	-1.0200868
73	0xbf0e8c44	-0.5568278
74	0x3e1e11df	0.15436505
75	0xbd4662de	-0.04843413
76	0xbe8bc0a3	-0.27295408
77	0x3f110be6	0.5665878
78	0xbef8596f	-0.48505732
79	0x3e399fba	0.18127337
80	0x3f0aaab2	0.5416671
81	0x3e8fcb20	0.2808466
82	0xbe1835ac	-0.14864224
83	0xbdd7ca1d	-0.10536597
84	0x3e980673	0.2969242
85	0xbae95b24	-0.0017803651
86	0x3cf57113	0.029961145
87	0x3e0c8f67	0.13726579
88	0x3e2eea3f	0.17081545
89	0x3dd75fcf	0.10516321
90	0xbea6aa97	-0.32552025
91	0x3e9737e4	0.2953483
92	0x3f1d3151	0.61403376
93	0xbe90f29e	-0.28310102
94	0xbdbdfa67	-0.09276276
95	0xbece4b37	-0.4029176
96	0x3a8e0135	0.00108341
97	0x3e02c8af	0.12771867
98	0x3eabf624	0.33586228
99	0x3d980210	0.074222684
100	0xbe500ece	-0.20318148
101	0xbd659905	-0.056054134
102	0xbd748f09	-0.05970672
103	0xbe165da2	-0.14684156
104	0x3e7c4509	0.2463571
105	0xbe3ffd38	-0.18748939
106	0x3e7cd6a7	0.24691258
107	0x3d5b3643	0.053518545
108	0x3ed06da6	0.40708655
109	0xbd71d5f1	-0.05904192
110	0xbf3c439b	-0.7354066
111	0xbcad8fbe	-0.021186706
112	0xbebc88a0	-0.36822987
113	0xbd3a344d	-0.045460034
114	0xbe17e485	-0.14833267
115	0xbde03e55	-0.10949389
116	0xbe052bdc	-0.13005012
117	0x3d91c267	0.071171574
118	0xbe700f9c	-0.23443455
119	0x3f17121c	0.5901201
120	0x3e783a14	0.24240905
121	0x3ed81105	0.42200485
122	0x3d8605a0	0.06544042
123	0x3e5be75a	0.21474972
124	0xbcf6aa59	-0.030110525
125	0xbca4e0d1	-0.020126732
126	0x3e0875c1	0.1332617
127	0xbdf673a1	-0.12033773
128	0x3d52b7d4	0.051444843
129	0xbcb96985	-0.022633323
130	0xbd9b0786	-0.07569794
131	0xbdc89b12	-0.09795202
132	0xbd95838d	-0.07300482
133	0xbd8d1e4f	-0.068905465
134	0x3e10cb0e	0.14139959
135	0x3f01790b	0.5057532
136	0x3de78598	0.11304778
137	0x3ed452fc	0.41469562
138	0x3e647f73	0.22314243
139	0xbe978552	-0.29593903
140	0x3e7d1e26	0.24718532
141	0xbf778155	-0.9668172
142	0xbf111ad2	-0.5668155
143	0x3d237ff0	0.039916933
144	0x3f51663a	0.8179661
145	0x3cfa06d9	0.030520843
146	0xbf8bed78	-1.0931845
147	0xbe3dbb92	-0.18528584
148	0x3edfab2f	0.4368529
149	0xbe0caf2d	-0.137387
150	0xbea9c6de	-0.33159536
151	0x3d4ba468	0.049717337
152	0x3df37914	0.11888328
153	0xbdfb9eeb	-0.122861706
154	0x3e96ff41	0.29491618
155	0xbf0d1f51	-0.5512591
156	0xbe04dba6	-0.12974414
157	0xbe360096	-0.17773661
158	0xbdd9b4bc	-0.106301755
159	0x3e832147	0.25611326
160	0x3ea6d579	0.32584742
161	0xbe860dd6	-0.2618243
162	0xbe8cec7b	-0.2752417
163	0x3e77f3af	0.24214052
164	0xbec84536	-0.39115304
165	0xbacd58ab	-0.0015666684
166	0xbe100398	-0.14063871
167	0x3dbe0758	0.092787445
168	0xbe6b2795	-0.22964318
169	0x3e950964	0.29108727
170	0x3ec15dd4	0.37766898
171	0xbfc2e8b9	-1.5227271
172	0xbea8e34e	-0.3298592
173	0xbe2001ff	-0.15625761
174	0xbf337005	-0.70092803
175	0x3d2d4c4b	0.042309087
176	0xbe303973	-0.17209415
177	0x3e08fcce	0.13377687
178	0x3e865f7d	0.26244727
179	0xbed7a481	-0.42117694
180	0x3e75516d	0.23956843
181	0xbdd51fa7	-0.10406428
182	0x3eed661f	0.46366975
183	0x3cbb8e5a	0.022895027
184	0xbeccd954	-0.40009558
185	0x3e5aa176	0.21350655
186	0x3f220dd4	0.6330235
187	0x3e441bc6	0.1915122
188	0xbe6d36a1	-0.2316537
189	0x3dd7a7cb	0.10530051
190	0xbd82eb70	-0.063925624
191	0xbf321953	-0.6956989
192	0x3e19a8c2	0.15005782
193	0xbd97f8b0	-0.0742048
194	0x3ef0a5a7	0.47001383
195	0x3e471a81	0.19443704
196	0x3f825c17	1.0184354
197	0xbce9f522	-0.028559271
198	0xbe85a105	-0.2609941
199	0xbd92c249	-0.07165963
200	0x3e4a4cfe	0.19755933
201	0xbde5ba25	-0.11217145
202	0x3c4561d8	0.012047254
203	0xbd0ed067	-0.034866717
204	0x3f01f69d	0.50766927
205	0x3e761a9f	0.24033593
206	0xbe52818e	-0.20557234
207	0x3e46a5dd	0.1939921
208	0x3ed9bb81	0.42525867
209	0xbcbce7a9	-0.023059683
210	0xbea4e4cb	-0.32205805
211	0xbe2c9c0d	-0.16856404
212	0xbdf37629	-0.11887772
213	0x3e81ab0f	0.2532582
214	0x3adaef88	0.0016703466
215	0x3ef4be0a	0.47801238
216	0x3e1655b1	0.14681126
217	0x3e46407c	0.19360536
218	0x3d7a2f4f	0.061080273
219	0xbee3b944	-0.44477284
220	0x3fbd3e9b	1.4784731
221	0xbeda185c	-0.4259671
222	0x3dc40118	0.09570521
223	0xbd9ea09a	-0.07745476
224	0xbee235bd	-0.44181624
225	0xbd750cfa	-0.05982683
226	0x3f141c16	0.57855356
227	0xbe3343db	-0.17506354
228	0xbcfc7c80	-0.030821085
229	0x3ee4ff64	0.44726098
230	0x3f30733f	0.6892585
231	0x3ea41753	0.32049045
232	0x3eae7eec	0.3408121
233	0xbf2b54ae	-0.66926086
234	0x3edb28ef	0.42804667
235	0xbe0c01b0	-0.13672519
236	0x3dca4063	0.09875562
237	0x3e80e577	0.25175068
238	0x3df951e4	0.121738225
239	0xbed51769	-0.41619423
240	0xbe9d0504	-0.3066789
241	0x3d23da8b	0.04000334
242	0xbc707937	-0.014677337
243	0xbe913fa1	-0.28368858
244	0x3ecc0ccf	0.39853522
245	0x3eaae17d	0.3337516
246	0x3ed79d05	0.42111984
247	0x3e1b2fc0	0.15154934
248	0xbf16af8a	-0.588616
249	0x3ff1b5cc	1.8883605
250	0x3ebf4fec	0.37365663
251	0x3ea778fc	0.3270949
252	0xbe0e9d47	-0.13927184
253	0x3e3ebf28	0.18627608
254	0x3d2695a6	0.04067006
255	0xbdd2e444	-0.102974445

lstm.weight_hh_l1 f4 [512, 128]
0	0xbf8401f6	-1.0313098
1	0x3f2e8a79	0.6818004
2	0x3f3300f1	0.6992331
3	0xbd454677	-0.048162904
4	0x3eae6a31	0.34065393
5	0xbebc2e60	-0.3675413
6	0x3f54de50	0.8315172
7	0xbd5af29a	-0.05345402
8	0x3f261f1f	0.6489124
9	0x3f37a78e	0.71740043
10	0x3e3cf529	0.18452896
11	0x3e631c9f	0.22178887
12	0x3ddfb547	0.10923248
13	0x3d4803ff	0.048831936
14	0x3e6f3f1d	0.2336392
15	0x3ec62b11	0.38704732
16	0xbc693790	-0.014234439
17	0x3e6d59a3	0.23178725
18	0xbcaa3d87	-0.020781292
19	0x3ea4a352	0.32155854
20	0xbe811a2f	-0.2521529
21	0xbdd62948	-0.104570925
22	0x3f17b932	0.5926696
23	0x3d808fb2	0.06277408
24	0x3e4771ce	0.19477007
25	0x3e104903	0.14090352
26	0xbf4fbeef	-0.81150717
27	0x3e97675d	0.29571047
28	0xbd89e4d1	-0.067330964
29	0x3e076497	0.13221966
30	0x3e969e38	0.29417586
31	0xbfbb3fa0	-1.4628792
32	0xbe8af3b9	-0.2713907
33	0xbf236b05	-0.63835174
34	0x3e0e5522	0.13899663
35	0xbc6614fe	-0.014043091
36	0xbe022a9f	-0.12711571
37	0xbed1282e	-0.40850967
38	0xbeaea198	-0.3410766
39	0x3e570422	0.2099767
40	0x3f25d2b0	0.6477461
41	0xbe1f847d	-0.15577884
42	0x3ecb5268	0.39711308
43	0x3e770dfa	0.24126425
44	0x3c851e18	0.016249701
45	0xbea2a990	-0.3176999
46	0x3f2f307a	0.68433344
47	0xbda9748f	-0.08274185
48	0xbd865a95	-0.06560246
49	0xbefbefc3	-0.4920636
50	0xbdc5085b	-0.09620734
51	0xbe721ad3	-0.23643045
52	0xbf285d04	-0.6576693
53	0x3c832be4	0.01601214
54	0xbe453725	-0.19259317
55	0xbf2f5b45	-0.6849864
56	0xbef83b72	-0.48482853
57	0xbebc056d	-0.3672289
58	0xbdf09f23	-0.11749103
59	0x3e0ed53f	0.13948534
60	0x3ee7c013	0.45263728
61	0x3e9e7c70	0.30954313
62	0xbeb156b1	-0.34636453
63	0xbeb58a9b	-0.3545731
64	0x3cab38b0	0.020901054
65	0x3d190bb6	0.037364684
66	0xbef4566c	-0.47722185
67	0xbd81b28d	-0.06332884
68	0xbfa073c0	-1.2535324
69	0xbd962704	-0.073316604
70	0xbf4c0123	-0.79689234
71	0xbda8e5ee	-0.082469806
72	0xbe957a83	-0.29195032
73	0x3f18bad9	0.59660107
74	0x3f0ba939	0.5455509
75	0x3f45bbc9	0.7723966
76	0x3f178e5c	0.592016
77	0x3fb9aa64	1.4505124
78	0x3df68d8a	0.12038715
79	0xbea83903	-0.32855996
80	0x3f8416a4	1.0319409
81	0x3e8151f7	0.25257847
82	0xbeb36157	-0.35035202
83	0xbdafa7ee	-0.08576952
84	0x3e871d62	0.26389605
85	0xbeb3e4b9	-0.3513544
86	0x3e1f861b	0.15578501
87	0x3c5f1ecb	0.013618181
88	0xbe549679	-0.20760526
89	0xbf57b802	-0.8426515
90	0xbeb08026	-0.3447277
91	0xbe114dd7	-0.1418985
92	0x3e3cf60c	0.18453234
93	0x3f3e3b31	0.7430907
94	0x3eeed78a	0.46648818
95	0xbcd6e373	-0.026231503
96	0x3eb13305	0.34609237
97	0x3ef76f48	0.48327088
98	0x3e9af261	0.30263045
99	0xbef03ece	-0.46922916
100	0x3daf1b75	0.08550159
101	0x3ec68d4d	0.3877968
102	0x3e275ddd	0.163444
103	0x3e67f41c	0.22651714
104	0xbe5a8f77	-0.2134379
105	0x3e8bb7fc	0.27288806
106	0x3e43f136	0.19134983
107	0x3e462a88	0.19352162
108	0xbeb59355	-0.35463968
109	0x3ef164ca	0.47147208
110	0xbe5c6194	-0.21521598
111	0xbcb89992	-0.022534166
112	0xbebd0517	-0.36917946
113	0x3f40accc	0.7526367
114	0xbe54686d	-0.2074296
115	0x3e46466f	0.19362806
116	0xbee4e867	-0.4470856
117	0xbc999fc6	-0.018752944
118	0xbd870e4c	-0.06594524
119	0xbe1a7ef3	-0.1508749
120	0xbe5bf0ce	-0.21478578
121	0x3eb66db0	0.3563056
122	0xbe712f20	-0.23553133
123	0xbd115034	-0.03547688
124	0x3f64ff22	0.894518
125	0xbe6451e7	-0.22296868
126	0x3f07588e	0.528695
127	0xbed9a4af	-0.42508456
128	0x3cb3ee74	0.02196429
129	0x3dadc462	0.08484723
130	0xbe28e394	-0.16493064
131	0xbe65dfe0	-0.22448683
132	0x3ea047f6	0.31304902
133	0x3be089dc	0.0068523716
134	0x3f4c9194	0.79909635
135	0xbea91b04	-0.33028424
136	0x3f625ec8	0.88425875
137	0x3eacfd57	0.33787033
138	0xbe13edbb	-0.14446156
139	0xbd70f3da	-0.058826305
140	0x3e7b4694	0.24538642
141	0x3e9e4a42	0.3091603
142	0xbe764783	-0.24050717
143	0xbe2f22e0	-0.17103148
144	0x3eca4125	0.39502826
145	0x3b2ffad3	0.0026852384
146	0x3e447ca2	0.19188169
147	0x3f1d17a3	0.6136419
148	0x3eaaddaa	0.3337224
149	0xbd111faa	-0.035430588
150	0x3f57f002	0.843506
151	0xbf47b58e	-0.78011405
152	0xbe4127fa	-0.18862906
153	0xbc458f7d	-0.012058136
154	0xbe7ed872	-0.24887255
155	0xbd37c9a0	-0.04487002
156	0x3eedcab0	0.464437
157	0x3f048057	0.5175833
158	0xbe0dd7c7	-0.13851844
159	0xbfa1ddf3	-1.2645859
160	0xbf295f99	-0.66161495
161	0xbdd3c8cc	-0.10341033
162	0xbf02865a	-0.50986254
163	0x3e84ebbc	0.259611
164	0xbf0b4d24	-0.5441458
165	0xbe460e92	-0.19341496
166	0xbd8bcd6d	-0.06826291
167	0x3e8749fc	0.26423633
168	0xbee1a7d0	-0.44073343
169	0xbe8e1aeb	-0.27754912
170	0x3f829122	1.0200541
171	0x3f3428a3	0.70374507
172	0xbde0dd84	-0.10979751
173	0xbe006c25	-0.12541254
174	0x3fa915fa	1.3209832
175	0xbf388915	-0.7208417
176	0xbcb7d872	-0.022442076
177	0x3e91c5d6	0.2847125
178	0x3ed8ce8f	0.42345092
179	0xbec21174	-0.3790394
180	0xbca69fa6	-0.020339798
181	0xbea11253	-0.31459293
182	0xbe860ac5	-0.26180092
183	0xbdb09b14	-0.08623329
184	0xbed16277	-0.40895435
185	0xbfab849c	-1.3399844
186	0x3bf1c0c8	0.0073777176
187	0x3edfc72d	0.43706647
188	0xbe455c0a	-0.19273391
189	0x3db17f19	0.0866682
190	0xbed0cf72	-0.40783268
191	0xbf3ce719	-0.7379013
192	0xbee19a64	-0.44063103
193	0xbe02aee0	-0.12762022
194	0x3da9663d	0.082714535
195	0xbd52400e	-0.05133062
196	0xbf3d32bc	-0.7390554
197	0xbe87ebdb	-0.2654713
198	0x3d9dd696	0.07706945
199	0xbd828618	-0.063732326
200	0xbf20b56f	-0.62776846
201	0x3f2e5d8d	0.681115
202	0x3f74a18a	0.9555899
203	0x3ef0f721	0.47063544
204	0x3f073889	0.5282064
205	0x3efcdfaf	0.49389407
206	0x3efdb165	0.49549404
207	0xbf7919e1	-0.97305113
208	0xbe617b7c	-0.22019762
209	0x3e9be23f	0.3044605
210	0x3e29def6	0.16588959
211	0x3ea8c08e	0.32959408
212	0x3f8b036a	1.0860417
213	0x3e668fb2	0.22515753
214	0x3e22b288	0.15888417
215	0x3e0c64d0	0.13710332
216	0x3c8224f8	0.015886769
217	0xbef150b2	-0.47131878
218	0xbd046dad	-0.032331157
219	0xbc84bb28	-0.016202524
220	0x3ec7e303	0.39040384
221	0x3ebc9cd9	0.36838415
222	0x3c52e5be	0.012872158
223	0xbda5f18e	-0.081027135
224	0x3eb044f3	0.34427604
225	0x3f6e051c	0.92976546
226	0x3e8baff4	0.2728268
227	0x3da8eebe	0.082486615
228	0x3d2a126a	0.041521467
229	0x3f1fdbdd	0.6244486
230	0x3e999b72	0.30001408
231	0xbf0b0798	-0.5430846
232	0x3c1bfcf8	0.009520762
233	0x3d4a0211	0.049318377
234	0xbf38a778	-0.7213054
235	0xbdee6334	-0.11640015
236	0xbdde7cc9	-0.10863645
237	0x3f74ba2b	0.9559657
238	0x3ea19d6d	0.3156542
239	0xbf87845b	-1.0587267
240	0xbe01fe81	-0.12694742
241	0x3f0f71c7	0.56032985
242	0x3f461dfd	0.7738951
243	0xbe26e763	-0.16299205
244	0xbf2df850	-0.6795702
245	0xbd4fbac3	-0.05071522
246	0xbea71980	-0.32636642
247	0x3e857e57	0.26072952
248	0xbe357762	-0.17721322
249	0x3e0d3e4c	0.13793296
250	0x3f0ab21b	0.5417802
251	0x3ea0ebf4	0.31430018
252	0xbf73fdaf	-0.95308965
253	0xbc484c3f	-0.01222521
254	0xbd96f062	-0.07370068
255	0xbe95ccfb	-0.2925795

lstm.bias_ih_l1 f4 [512]
0	0x3e5b6eea	0.21429029
1	0xbe7706b0	-0.24123645
2	0xbf215a47	-0.6302838
3	0xbecfa0aa	-0.40552264
4	0xbd7f4a58	-0.06232676
5	0x3e7b0a3c	0.24515623
6	0xbeb2f308	-0.34951043
7	0xbedd34a5	-0.43204227
8	0xbf206640	-0.6265602
9	0xbf02c359	-0.51079327
10	0xbeba8796	-0.3643157
11	0x3c5c8587	0.01345957
12	0xbeabf0de	-0.33582205
13	0xbd030741	-0.03198934
14	0xbe324f97	-0.17413174
15	0x3e304e17	0.17217289
16	0x3f038884	0.5138018
17	0xbe001a69	-0.12510075
18	0xbee5970f	-0.4484181
19	0x3f0b5d4f	0.5443925
20	0xbf3c0ffb	-0.73461884
21	0xbdba3fa0	-0.09094167
22	0xbe211d89	-0.15733923
23	0x3e3ca768	0.18423235
24	0x3d4902fa	0.049075104
25	0x3c8c0bbd	0.017095441
26	0x3dd3c08e	0.10339461
27	0xbf4cfcc2	-0.8007318
28	0x3e80d506	0.25162524
29	0xbd6f55ef	-0.058431562
30	0x3d86ba53	0.06578507
31	0xbea488d2	-0.32135636
32	0xbe55e36f	-0.2088754
33	0xbe74be99	-0.23900832
34	0xbe1537ad	-0.1457202
35	0x3ce3f17b	0.027825108
36	0x3dde35dc	0.108501166
37	0xbe9be27b	-0.30446228
38	0x3e91170e	0.28337902
39	0xbdffcc69	-0.1249016
40	0xbe630f6d	-0.22173853
41	0xbdcd2230	-0.100162864
42	0xbe3f6868	-0.18692172
43	0xbdf76c29	-0.12081177
44	0xbee2b29e	-0.442769
45	0xbe8a8d8a	-0.2706111
46	0x3d9ac9d7	0.07558029
47	0x3effb4e1	0.49942687
48	0x3e232902	0.15933612
49	0x3c860526	0.016359877
50	0xbd227465	-0.039661784
51	0x3e6617f2	0.22470072
52	0xbf1df1da	-0.6169716
53	0xbe82d446	-0.25552577
54	0xbdee9154	-0.11648813
55	0x3e2b119c	0.16705936
56	0x3f02e94e	0.51137245
57	0xbf342e8e	-0.70383537
58	0xbf2b7aa1	-0.6698399
59	0xbea826cc	-0.328421
60	0x3da71894	0.08158985
61	0xbe431d65	-0.19054182
62	0xbeb6652b	-0.3562406
63	0xbdb1d6a8	-0.086835206
64	0xbe762393	-0.24037008
65	0x3c274931	0.010210321
66	0xbe0e3dcf	-0.13890766
67	0x3e5d552d	0.21614523
68	0xbf2269a2	-0.6344243
69	0xbdc1ac4f	-0.094566934
70	0xbe0e60c4	-0.139041
71	0xbf3c8887	-0.73645824
72	0xbf6152bd	-0.88016874
73	0x3dcca702	0.09992792
74	0xbf02195c	-0.50819945
75	0xbe478c5f	-0.19487141
76	0xbf67e207	-0.90579265
77	0xbeaa7651	-0.33293393
78	0x3defc3eb	0.1170729
79	0xbf24d1d0	-0.6438265
80	0xbeca8070	-0.39551115
81	0xbd590dc3	-0.05299164
82	0xbf61aa2d	-0.8815029
83	0xbf15424f	-0.58304304
84	0x3dfc12ec	0.123082966
85	0xbe9c86da	-0.30571634
86	0xbe05f9ea	-0.13083616
87	0x3ea22720	0.31670475
88	0xbe381fd3	-0.1798089
89	0x3db14e74	0.08657542
90	0xbdd0be2c	-0.101925224
91	0xbf047918	-0.51747274
92	0x3ebfb364	0.37441552
93	0xbef1a2c2	-0.47194487
94	0xbf0a2856	-0.539678
95	0xbecac8ee	-0.39606422
96	0x3e90d72d	0.28289166
97	0xbea55f5c	-0.32299316
98	0xbf149514	-0.58039975
99	0xbf54dcb0	-0.8314924
100	0xbefe9d23	-0.4972926
101	0x3d1e9fa3	0.03872646
102	0x3e2d7e2b	0.1694266
103	0xbf5dcc70	-0.8664007
104	0xbef0c57f	-0.47025678
105	0xbeab1015	-0.33410707
106	0x3d3091ac	0.043107674
107	0xbde838bc	-0.11338946
108	0xbe2ca179	-0.16858472
109	0xbf05a7c2	-0.52209103
110	0xbeb8156d	-0.35953847
111	0xbe78dec5	-0.2430373
112	0x3e97914f	0.2960305
113	0xbf82d0cb	-1.0219969
114	0x3d9242c7	0.07141643
115	0xbe467e57	-0.19384132
116	0xbf49d7c2	-0.78844845
117	0x3dc414c6	0.09574275
118	0xbeb6d6a9	-0.35710648
119	0x3e1f5fde	0.15563914
120	0x3f4970c1	0.78687674
121	0xbef685d1	-0.4814897
122	0x3dc47f07	0.09594541
123	0xbf24026b	-0.6406619
124	0xbe0b3a0d	-0.13596363
125	0xbefd7ec5	-0.4951078
126	0xbf2afb9f	-0.66790193
127	0xbea71d30	-0.32639456
128	0xbf1a6594	-0.60311246
129	0xbf0d5a2e	-0.5521573
130	0x3f40dd41	0.75337607
131	0x3e1d778a	0.15377632
132	0xbf10b4f7	-0.5652613
133	0x3dabd052	0.08389343
134	0xbeb78ee5	-0.35851207
135	0xbf255c1c	-0.6459367
136	0x3ec94bae	0.39315552
137	0xbde1b38d	-0.11020575
138	0xbe62bd26	-0.22142467
139	0x3bc2d0e4	0.005945312
140	0x3ebc576c	0.36785448
141	0xbbdbf34d	-0.0067123533
142	0xbf12943c	-0.5725744
143	0x3e05da2a	0.13071504
144	0x3ed73b13	0.42037258
145	0xbeccfde4	-0.40037453
146	0xbf257c3f	-0.6464271
147	0x3ea1dc8c	0.31613576
148	0x3f262a39	0.64908177
149	0x3ec5b4a3	0.38614377
150	0x3ee1f1db	0.44129834
151	0xbdb36231	-0.08758963
152	0xbf4330f3	-0.76246566
153	0xbf344694	-0.70420194
154	0xbf47758a	-0.77913725
155	0x3e569b1e	0.2095761
156	0x3ebb04b7	0.36527035
157	0x3f1b1147	0.6057324
158	0xbf067d0d	-0.5253456
159	0x3e892f3e	0.26793855
160	0xbe294e1f	-0.16533707
161	0xbedb0641	-0.4277821
162	0xbf5294dd	-0.822584
163	0x3e476e5d	0.19475694
164	0xbf209818	-0.62732077
165	0xbe9fe3b3	-0.31228408
166	0xbf384c37	-0.71991295
167	0xbeec2be3	-0.46127233
168	0xbe5079a7	-0.20358907
169	0xbf063692	-0.5242702
170	0xbf0ae20d	-0.54251176
171	0xbf230d1b	-0.6369187
172	0x3dceb55e	0.10093187
173	0xbd8179f1	-0.063220866
174	0xbe30d496	-0.17268595
175	0xbd8d2e11	-0.06893552
176	0xbf056a9b	-0.5211579
177	0xbd9c9622	-0.07645823
178	0xbe486055	-0.19567998
179	0x3ec45b2d	0.38350812
180	0x3e9dfee2	0.30858523
181	0xbeea54fd	-0.45767966
182	0x3eaceed4	0.3377596
183	0xbf8e9b0a	-1.1141064
184	0x3d9436f2	0.072370425
185	0x3f08eec3	0.5348932
186	0x3f346df5	0.7048028
187	0x3f1bec3a	0.6090733
188	0xbf333b4e	-0.70012367
189	0x3edd548e	0.43228573
190	0x3dcfb355	0.10141627
191	0xbef88b0c	-0.48543584
192	0xbf61a037	-0.88135093
193	0xbf69fcc3	-0.9140131
194	0xbebea465	-0.37234798
195	0x3e4445e8	0.19167292
196	0x3f4fa00a	0.81103575
197	0xbf3da068	-0.74072886
198	0xbf0c4512	-0.5479289
199	0xbe8d8e7f	-0.27647778
200	0x3f7c31d6	0.98513544
201	0xbeef8600	-0.4678192
202	0xbe282773	-0.16421299
203	0xbe0e5ec4	-0.13903338
204	0xbd50a85c	-0.05094181
205	0xbe1e437e	-0.15455434
206	0xbeb333c4	-0.35000432
207	0xbf35144e	-0.7073411
208	0xbf20d1bb	-0.62820023
209	0xbefd53e1	-0.49478057
210	0x3f488d2b	0.78340405
211	0x3f1f672f	0.6226682
212	0x3ddb803a	0.10717817
213	0x3e2b7b66	0.16746292
214	0xbe8b25d2	-0.27177292
215	0xbf3a154b	-0.7268874
216	0xbeeb3680	-0.45940018
217	0x3d000051	0.0312503
218	0xbed06e21	-0.40709022
219	0xbf0cc7f8	-0.5499263
220	0xbe0ecba0	-0.13944864
221	0xbec2a696	-0.3801772
222	0x3f1af12d	0.60524255
223	0x3e85cd35	0.26133123
224	0xbe88c079	-0.26709345
225	0xbf305e73	-0.6889412
226	0xbf180ee7	-0.5939774
227	0x3f7f397a	0.9969708
228	0x3ed0a761	0.407527
229	0x3d8fe03c	0.07025191
230	0xbdf5d6bb	-0.12003847
231	0x3f199faa	0.60009253
232	0xbf0e00cf	-0.55469984
233	0xbecdf1f3	-0.40223655
234	0xbd6cd054	-0.057815865
235	0xbf09abeb	-0.5377795
236	0x3daba1ca	0.08380468
237	0xbe6a7243	-0.2289515
238	0xbf0635fb	-0.5242612
239	0xbe02ceb2	-0.1277416
240	0xbecc0e15	-0.39854494
241	0x3e9cfd20	0.3066187
242	0xbeef81b1	-0.46778634
243	0xbf214879	-0.6300121
244	0x3f32d9c2	0.6986352
245	0xbf343f7c	-0.7040937
246	0xbebf4f25	-0.3736507
247	0x3edb470f	0.4282765
248	0xbe08d374	-0.13361913
249	0x3e5132af	0.2042949
250	0xbeb2ca95	-0.34920183
251	0x3f3751ed	0.71609384
252	0xbf0dbf2a	-0.5536982
253	0x3ed950e9	0.42444542
254	0x3f0012dd	0.50028783
255	0xbea3262a	-0.31865054
