backend/telemetry/car13_seq2seq_model.pt (torch, 216773 bytes, 10 tensors)

lstm.weight_ih_l0 f4 [256, 10]
00000000: 18ea 8cbe 78ad 5ebd 9063 ad3d d22a 8dbe
00000010: 4fcf 38bd d3a1 e23d a8fb 4f3d 6761 fb3c
00000020: 8672 d7bd d660 273c 5d17 f93b 227f 66be
00000030: 76e1 403d 501a bc3b 13be 993d 458d 0e3c
00000040: 5280 2b3d 8bf7 07be a0db 96bd f722 b4bc
00000050: 8524 6fbd 6843 ddbd a433 d2bd bab2 23be
00000060: f3c2 59be 540c 333d f575 1cbd eeac 17be
00000070: 85ca f3bc 1490 143e fd02 44be 2176 3f3d
00000080: 51a7 8fbd 87fc 863c ceb4 123d 653b 9a3b
00000090: 1899 3f3a 23f4 9a3c 23a7 50bd d125 b43b
000000a0: 00ff 14bd 940b 97bd d3c7 92bd 9f20 edbd
000000b0: a01d 09be 283d b7bc c1e0 28be 5512 90bd
000000c0: c376 81bc b96e c0bd da2d 373e 4d57 1ebe
000000d0: 5ff4 80bc c6f5 913d 0c4b 603d d59e f63d
000000e0: bb3f c03c 9aab a3bd 5c12 bb3b 8244 2cbe
000000f0: e306 1e3e b533 533d d635 d1bd 818a af3d
00000100: 5844 2fbb ca3e a43d 141b 7ebd 0134 683d
00000110: 9f7f e3bc 0f31 083e 83af 313e b411 17be
00000120: 7a22 09be c637 d73d fcd9 26bd 346d 083e
00000130: aa6c c3bd 40f0 86bd 88b1 093d aa71 0c3e
00000140: b751 b03e 59d7 0fbd ef92 cfbd 568c 31bc
00000150: 0114 093e 978d e03d 8375 b5bd d65d 2ebd
00000160: fe85 b0bc e34c c63a b2c2 e1bd be96 c73d
00000170: 8e03 f63c 0e47 84be d941 483e fb42 9bbd
00000180: e521 e1bc b370 2cbe 6730 303e 1beb 173d
00000190: fa79 7cbd 857c 0bbe 77ca 45be 531e 9bbb
000001a0: 2a48 c3be f5d7 8abe 3bf5 5ebe a09d 9b3d
000001b0: aa6e d43c 5e04 2a3d 81cc 05bc 3c9a 33bd
000001c0: 92e3 4cbe c185 cd3b 2f9f 47bd 25ea d8bd
000001d0: 9073 eebc 001d 193d 240a 67be 4856 d4bd
000001e0: 9208 fbbd f26f 1b3c bbcb 4d3d c37d 053d
000001f0: d8bc f8bd 953a c03c efe6 01bd dc29 98bd
00000200: 751f 82bd 3f15 07be 7aaa aebd 69a4 033e
00000210: e820 d6bd 0543 58be fe75 0f3d 4e05 fcbd
00000220: 2ffb 74bc e7c2 ebbd 749e 203e 0247 223e
00000230: 3b79 30be 000c 38be 801c 5ebc 037a e7bd
00000240: 85f8 3f3d 2ce7 2d3e 2fc9 6ebc 9e61 14bd
00000250: bbe7 e43d a6ae 643e 9cd6 0dbe 899c 2e3c
00000260: 6233 4ebd 6453 8f3e cde9 85bc 3337 1a3d
00000270: 778b 283e 704f 3d3e f7cc 3c3d 5391 9b3d
00000280: d73b ca3d 0dbe 29bd b062 6fbe 8bf5 153e
00000290: ceb7 76bd a992 96bd a50f 8c3c 8fd7 a0bc
000002a0: f76f 1ebe c422 03be caa2 52bd 74fc dabd
000002b0: 35a8 683d d64d 4f3d 1a7d 1a3c 261c 053e
000002c0: 6aad 603c b8dd 8c3b b30e d2bd 8025 51bd
000002d0: c408 83bc d161 e8bd c841 b1bd ac2f ddbd
000002e0: 39c0 073e 0bd0 ff3d 6496 17bc a4f1 3a3d
000002f0: 0a07 403e da98 4d3a 4178 d5bd 7880 1abd
00000300: c7be 103e 99eb 343c 517c 853d de82 25be
00000310: 07a3 313d b047 c13c 44a2 06be 42b7 3abe
00000320: bc0f 57be 652f 9f3e 2e95 5abd f932 84be
00000330: ddd6 fa3d a2c7 23be 1d40 f5bd e832 4f3e
00000340: 058c a63c d087 163d b7e4 8a3e fa20 4a3e
00000350: a55e 0cbd ce38 403e 1a63 943d 8c22 743d
00000360: 3ac7 c93d a18f 4dbc 12e2 9b3d c208 f03d
00000370: 0351 fcbd a694 88bb 2a41 2dbe 3bb5 153e
00000380: 9381 19be 758a 923d d84a 81bc f36b f13d
00000390: 2335 b03c c3e1 463d 2e87 93bd 9d9b 94bd
000003a0: 7efb 753e 09c9 f13c fd70 28bd f574 b43d
000003b0: 1e4e 843d 89f8 a9bd b5a3 063e b016 fe3d
000003c0: f46e 7b3c 4fd9 803d d246 243d 7810 e0be
000003d0: 0b8d 9cbd 1560 7bbd 78d7 5cbd b8fa 6bbe
000003e0: 0399 0e3c c84e 033e 73a3 9d3c 74bd 77be
000003f0: 5aa6 28be ba21 3d3e b2ee 37be 675e 33be
-0.2752235 -0.05436465 0.08466256 -0.27571732 -0.04511958 0.11066022 0.050777107 0.030686093
-0.105198905 0.010215959 0.007601662 -0.22509435 0.047090016 0.0057404414 0.07506957 0.0087006735
0.041870423 -0.13278024 -0.07366109 -0.021989329 -0.058384437 -0.10803872 -0.10263756 -0.15986148
-0.21265773 0.04371293 -0.03819843 -0.14812061 -0.029759655 0.14508086 -0.19141765 0.046743516
-0.07014335 0.016477836 0.03581696 0.0047067874 0.00073088845 0.018915242 -0.050940644 0.005497672
-0.036376 -0.07375255 -0.0716702 -0.115784876 -0.13390207 -0.022368029 -0.16491987 -0.070347466
-0.0158037 -0.09396119 0.17888585 -0.1546299 -0.015741525 0.07126956 0.05475907 0.120420136
0.023467889 -0.07991715 0.0057089757 -0.16823009 0.15432315 0.051562984 -0.102153465 0.085713394
-0.0026743617 0.080197886 -0.062037542 0.05669022 -0.027770815 0.13299964 0.17352109 -0.14752847
-0.13392058 0.10508685 -0.04073523 0.13322908 -0.095422104 -0.06588793 0.033616573 0.13715234
0.34437343 -0.03511748 -0.10135447 -0.010836681 0.13386537 0.10964506 -0.08860304 -0.042569958
-0.021548267 0.0015129115 -0.11023463 0.09745549 0.030030992 -0.2583546 0.19556369 -0.07581135
-0.027481982 -0.16839866 0.17205964 0.03708945 -0.061639763 -0.13621719 -0.19315515 -0.0047338395
-0.38140994 -0.27117887 -0.21773235 0.07598424 0.025931675 0.04150807 -0.008166433 -0.04384826
-0.20008686 0.006272048 -0.048735794 -0.105915345 -0.029107839 0.037381172 -0.22562462 -0.10368019
-0.12257494 0.009487139 0.05024312 0.03259064 -0.12145394 0.023465434 -0.031714376 -0.07429859
-0.06353656 -0.13191698 -0.085286096 0.12855686 -0.10455495 -0.21119316 0.035024635 -0.12305699
-0.014952465 -0.11511784 0.15685445 0.158474 -0.17233746 -0.17973328 -0.0135566 -0.11302569
0.046867866 0.16982716 -0.014574333 -0.036225908 0.111770116 0.22332248 -0.13851398 0.010657438
-0.05034197 0.2799331 -0.016346836 0.0376503 0.16459452 0.18487334 0.046093907 0.07596078
0.09874695 -0.041441012 -0.2337749 0.14644448 -0.060233884 -0.07352192 0.017097304 -0.019634036
-0.15472399 -0.12806231 -0.05142478 -0.10692683 0.05680104 0.05061134 0.009429241 0.12999019
0.01371322 0.004298892 -0.1025671 -0.051061153 -0.01599539 -0.11346782 -0.08655125 -0.10800108
0.13256921 0.12490853 -0.0092521645 0.045640603 0.18752685 0.0007842906 -0.10423327 -0.037720174
0.14135276 0.011042499 0.06517852 -0.16163203 0.043368366 0.023593754 -0.13147837 -0.1823397
-0.21002096 0.31090847 -0.053364925 -0.2582014 0.12248013 -0.15994123 -0.11975119 0.20234263
0.020330438 0.036750615 0.2712762 0.19739142 -0.034269948 0.1877167 0.072454646 0.05960326
0.098524526 -0.012546451 0.07611479 0.117204204 -0.12320139 -0.004168111 -0.1691939 0.14619915
-0.14990835 0.07155315 -0.015782759 0.11788168 0.021509713 0.048555147 -0.07203518 -0.072562434
0.24021718 0.029514806 -0.04112338 0.0881137 0.06460212 -0.082993574 0.13148387 0.12406671
0.0153462775 0.06291448 0.040106602 -0.43762565 -0.07644089 -0.061370928 -0.053916425 -0.2304486
0.008703473 0.12823021 0.019242978 -0.24193364 -0.16469708 0.18469897 -0.17962149 -0.1751648

lstm.weight_hh_l0 f4 [256, 64]
00000000: e824 10be 26b2 5f3e 0a0f c1bc 2832 053e
00000010: 2290 7fbd 9ac8 2ebd b832 5bbd b3aa 6fbd
00000020: a790 e53d bbc6 303e 59cb aa3d 0f82 83bd
00000030: 17ab ecbd a773 f9bd bcc4 fcbd b572 1dbd
00000040: 6a4e 32bd 47e3 023e f75d 35be c546 fb3a
00000050: caeb 8dbd fdb8 153c 67ad 2ebe 6827 0d3c
00000060: 6eb7 48be 650e e23d 4bbc 853d 59c2 2ebe
00000070: eec1 08bb 4f66 96bd c1f1 233d b06c 4b3e
00000080: 8e44 bebd f2d0 d7bc 24a5 37be bba2 9a3d
00000090: 1f11 e0bd 4cc3 673d c631 e4bc 0273 08bd
000000a0: 439f 873d e506 303c e313 54bd ff9d a23d
000000b0: 7e36 ee3d 2b0d 66bb e0b1 113d 7bb7 2dbe
000000c0: 3335 91bd 803d 943d e7ea 853c 7605 56bd
000000d0: c543 233e e9a3 27be 753a b53d 2b03 3bbd
000000e0: e99a 0fbe 2c09 bd3d f910 08be 5027 443d
000000f0: d9aa 073c eac9 b63d e1ed 193e b91a 003e
00000100: 5df3 1bbe 0c6d b2bd 6cbc 163e c319 493e
00000110: 0add a63d 7ca6 a03e 8bc2 20bd deca 573d
00000120: 4b1d ecbd a224 8a3d b9b6 94bd 333e d5bd
00000130: 715d 01bd d965 3dbe 7b27 fbbc dcc0 d0bb
00000140: ecc4 cfbd 064b 93bd dd6d 87bc 9911 163d
00000150: e694 793c 2d8e 643c db51 b13b fc43 80be
00000160: 8312 723d 4066 c6bd f28e afbd fae9 013e
00000170: 0981 3c3d 16f8 f83d 99df 1ebd ed83 1a3b
00000180: b85b e33d 6805 46bd 7e0b 943d 0a7e 1d3e
00000190: 452c cebc d9b2 90bd 0fde 0fbe 9c40 f43d
000001a0: 1913 c2bd b749 acbd b371 7cbc a2da b33d
000001b0: 1025 003e db61 9a3d 6f4a d33d f925 c2bd
000001c0: e91d f53d 6d0c 713e ab9e 9d3d bb4b 283d
000001d0: f20c 9dbd a69d 02be d95e 1b3e b1aa 5e3d
000001e0: 7e30 0fbe 6ba8 27bc c9c4 c73a 9d33 3a3e
000001f0: 0d49 473e 0f1e 59be bdc0 683e 1f38 be3d
00000200: d899 36bd 0f97 88be dc99 bc3d 3483 f2bd
00000210: 8838 0e3e fade b43d 4ee2 323d 3612 2e3e
00000220: 88a4 0fbe 4757 403d 7019 713c ebdd 88bd
00000230: 72e7 e0bb e448 d73c 03b6 b3bb 59a0 be3d
00000240: 3733 b4bd 0e8d b4bd bb40 8c3c 6a2c d13d
00000250: 77b1 d53d 0bdf f8bc 3406 3d3d a2ff 91bc
00000260: 7eee c23d fd4b 523e 55c5 043d 5d85 15bc
00000270: f84a a93c 3ef3 ebbd 74fb 3c3d 86de 43bd
00000280: c783 6c3b 3b5a 2cbe 8348 7b3e 7aeb eb3c
00000290: 588d f3bd f33c 853d 8c90 85be 55f6 d03d
000002a0: 3a89 683b 6f3d 803e e963 d63d 8094 fb3d
000002b0: 01ed 733d 6aa6 2abe 1b6f 86bd e195 933e
000002c0: f66d 9cbd 1075 15bd ba62 143e 8e60 a0bd
000002d0: 9dd3 183c 7b05 253e 7cf7 febd cf50 bfbd
000002e0: 072d 0e3e 3bda 773d c674 053d f511 273e
000002f0: 9cc1 a03d 0838 1a3e 6821 263e 8749 b6bc
00000300: a993 d6bd 2f75 e83d 5e1f 543c 576e 7abd
00000310: 780b 80bc 72c0 0c3d 8263 bdbd 5cff 373d
00000320: 558c d5bc af6b 4ebd 403b 82bd 8219 3b3d
00000330: a2db 013e 5ac8 413d 91ec 89bc 19f3 d93d
00000340: 2332 833d 3370 253e 7be2 9a3b 783d 91bd
00000350: 3477 5b3e e732 0a3e 09a2 0a3b 7494 d43d
00000360: 324a 90bd fd97 8f3c 1f29 0bbd d63f 56bd
00000370: 3f21 f1bd 20e2 b4bd 4b13 343d 0b94 203d
00000380: faf6 d23d e19e 813d cb1c 14bc aa38 3c3d
00000390: 547d 4d3c 0ad8 c33b 5e7e c23c 771f 833d
000003a0: 1426 893c c96b c8bb 4153 9fbd 9b49 c8bd
000003b0: 24e9 12bb e775 8bbd 0126 6fbd 4bc3 b2bd
000003c0: 2d3f 173e d4b6 1fbe 1ecb c03d 0517 cb3d
000003d0: f27c 913d 5e3f 073e fe9d e03d 104b 3b3d
000003e0: 7d91 61bc b271 0fbe 19ca 983b b156 f8bc
000003f0: baf4 1d3e 7d4a 64bd d2ef 523d 2892 ed3d
-0.14076579 0.21845302 -0.023566741 0.13007414 -0.062393315 -0.042671777 -0.053515166 -0.0585124
0.11209231 0.1726331 0.08339567 -0.06421291 -0.1155607 -0.12180262 -0.123422116 -0.03843947
-0.043531813 0.12782012 -0.17711626 0.0019170871 -0.06929739 0.009138343 -0.17058335 0.008615352
-0.19601223 0.11037902 0.06530055 -0.17066325 -0.0020867544 -0.073437326 0.040025476 0.1986568
-0.092904195 -0.02634475 -0.1793409 0.075505696 -0.109407656 0.056582734 -0.027855765 -0.033312805
0.06622174 0.010743831 -0.051776778 0.079402916 0.11631487 -0.0035103064 0.035570025 -0.16964523
-0.07090225 0.07238293 0.016347362 -0.0522513 0.15943821 -0.1637112 0.088490404 -0.045657318
-0.14023937 0.09230265 -0.13287725 0.047889054 0.008280479 0.08925231 0.1503215 0.12510194
-0.15229554 -0.08712205 0.14720315 0.19638734 0.081476286 0.31377017 -0.03924803 0.052683704
-0.11529025 0.067452684 -0.07261414 -0.10412254 -0.031583253 -0.18495883 -0.030658474 -0.006370647
-0.10144982 -0.07192044 -0.01653188 0.036637876 0.015233254 0.013949913 0.0054113693 -0.25051868
0.059099685 -0.096874714 -0.085721865 0.12686911 0.046021495 0.12156694 -0.038787458 0.002357717
0.11101478 -0.048345 0.072287545 0.15380111 -0.025167594 -0.070653625 -0.14049552 0.11926386
-0.09476299 -0.084124975 -0.015407967 0.08781935 0.12514138 0.07538196 0.103169315 -0.09479899
0.119685955 0.23539896 0.07696279 0.041087847 -0.07668485 -0.1275545 0.151729 0.054362003
-0.13983342 -0.010233025 0.0015241142 0.18183751 0.1946146 -0.21202873 0.22729774 0.09288048
-0.04458031 -0.2667775 0.09209034 -0.11841431 0.13888752 0.08831592 0.043672852 0.16999134
-0.14027607 0.046958234 0.014715537 -0.066829525 -0.006863528 0.026279874 -0.005484344 0.09307928
-0.08798831 -0.088159665 0.01712071 0.102135494 0.10434239 -0.030379793 0.046148494 -0.01782209
0.09518145 0.205368 0.032414753 -0.009126035 0.02066563 -0.11521004 0.046138242 -0.047819637
0.0036089288 -0.16831295 0.2453938 0.028798807 -0.118921936 0.06505766 -0.26086843 0.10203234
0.0035482184 0.2504687 0.10468275 0.122841835 0.059552196 -0.16665044 -0.065641604 0.28825286
-0.07638161 -0.036488593 0.14490786 -0.07830916 0.009327796 0.16115372 -0.12449548 -0.09341585
0.13884364 0.060510855 0.032582067 0.16315444 0.07849428 0.15060437 0.16223681 -0.022251857
-0.10477383 0.11350476 0.012946932 -0.061140385 -0.015630469 0.034363218 -0.09247495 0.044921264
-0.026067892 -0.050395664 -0.06358957 0.045678623 0.1268144 0.04731021 -0.016836436 0.1064207
0.06406047 0.16156082 0.0047267056 -0.07091802 0.21432191 0.1349598 0.002115371 0.10379878
-0.07045402 0.017528528 -0.033974763 -0.052306972 -0.11773919 -0.088321924 0.04396371 0.039203685
0.10301013 0.06329132 -0.009040068 0.045952477 0.012542088 0.0059766816 0.023741897 0.06402486
0.01674179 -0.0061163646 -0.07779551 -0.09779664 -0.0022416795 -0.068095975 -0.058385853 -0.087286554
0.14770193 -0.15597087 0.094137415 0.099165 0.071039096 0.13207766 0.109676346 0.045725882
-0.013767597 -0.14008215 0.004662764 -0.030314775 0.15425387 -0.0557351 0.05149824 0.11600143

lstm.bias_ih_l0 f4 [256]
00000000: 6d7e fcbd 3fde 9dbc 6f89 a9be 1522 723e
00000010: 01e5 e33d 445e dabd 886f 7dbe 5e16 dabe
00000020: f787 c3be 6bd0 81bd 6a5d d9bc 2f33 cc3d
00000030: 23e1 ea3d fd46 7a3d 74e2 2bbe 6244 0e3e
00000040: 33be 463e b392 403e 3d5d 5dbd a3c3 d53d
00000050: 6c69 acbe 53ef 4ebe 33e5 a8bd 6744 5a3c
00000060: beb5 5cbd 8310 8c3d 45ab 95be 4beb 33bd
00000070: f9ea dfbe 7cd1 1fbe 1f2f 34be b889 a2bd
00000080: d544 de3d ade7 febd 81a6 103d fb5b 92bd
00000090: 986e 923c e793 4fbd d0aa 5fbe fbc2 87be
000000a0: e4c5 c53d 447e a8bb 9a24 3c3d 66ed 85bd
000000b0: 13ce 62be 44d6 72be de71 dbbe 7282 c6be
000000c0: 9fea 24be 7c51 1abf 08ec 31be b1d5 59bd
000000d0: 9850 e33b 5124 17be 1d82 d03d 7649 753e
000000e0: c568 b83d d3e1 d0be 75d2 93be e9a9 6dbe
000000f0: 7712 74bd ddad b2be bc90 a7bd 9d0d 40be
00000100: 50c6 9cbd 20a6 27be a25a 6fbe 77e1 f1bd
00000110: 6948 33bd 49cd 46be 43e6 a4be 01e4 a8be
00000120: d2c1 85be 26fe b1bd 3da2 e23c 4afd 023e
00000130: 3347 a1be 814c 8cbd 017d 88bd d3cb dd3b
00000140: 7c11 2ebd 0d4c 103e cd07 b83d 56d8 4b3e
00000150: 1f9b 82bc d4ea 8abd 55e3 78be 5b6f 1abe
00000160: 7277 17bd cf3e 3abd 0147 c1bd f44a 53be
00000170: 98f3 bebe 76d8 a4be 15ae a6be c956 3ebe
00000180: f3fc 0bbe 17f2 8fbe a4db 033e 06b2 43be
00000190: c99c 52be b6ad 7abe 7bd2 90be 6520 e2be
000001a0: ded4 4dbc 1fd2 a73b 05a8 b13d e10c 943c
000001b0: 6a07 a2bd a525 04bc 297a cabe 7697 f0bd
000001c0: 15c9 36be 11be 14bf fee4 04be 27e8 523e
000001d0: 3b08 22be b67f 823d 0f6d e43a cf35 323e
000001e0: 186d dbbd 1a68 93be dd8a acbe 0917 39be
000001f0: 73cc bfbd dfeb 52be e69f 63be a8d6 26be
00000200: 3419 523e 050d bf3c 1c6a 9ebd bf20 183d
00000210: 9e64 8fbc eba6 9cbd 46bb 1739 eb9b 6fbd
00000220: 9e50 363e 8643 803e c5cf 263e bcb1 bc3d
00000230: 764e f53c 491e 323d fa79 823b ba6e 9ebc
00000240: f731 053c 6b97 b0bd 6dba a83c ec4c c93c
00000250: 827a 04be f1e5 adbd d165 f0bd b1af 6ebd
00000260: fa7b fdbd 269f e83d 82fb 0b3e 169d 23bd
00000270: 7bcb a33d 887d 44bd 3903 8a3c a495 473c
00000280: c715 963d 9d63 c0bd 6bda bdbd a703 b8bc
00000290: ec4a d0bd fbd4 393e d4c4 553e 4541 63bd
000002a0: 317d c3bc 11bf 36bc f67d 0c3e 8e00 8a3d
000002b0: 57ae 013d c5f6 6d3d cb03 96bb 6434 cebd
000002c0: 7e51 3abe 89e8 bbbd 9ec7 913d 1d65 7b3a
000002d0: ed06 d63d a612 31be d64f 71be 7bd7 a03c
000002e0: a378 a83d 624c 393d adc8 1b3d 803d 00bd
000002f0: 7a21 52be e48d dc3d 95aa 82bd 6681 eebd
00000300: 605a 74be aaa1 2cbe 0b3b 97be 1708 263e
00000310: b9b2 833e ed14 80bc 684d 1ebe baf8 a6be
00000320: 0aec e4be 153c 9a3d e186 e5bd daf2 1d3e
00000330: 1dc2 75bd 35ba 403e c7db 36be 3e36 243d
00000340: dad1 673c 4738 b3bc c04a 58be 25d2 d63e
00000350: 4434 ecbd b62b abbd 6795 32bb 72ec 92bd
00000360: 1745 96be 6277 acbd f94b d6bd 4685 803d
00000370: 8d3b 18bf 07bf babe de61 54be e0c6 58be
00000380: e297 463e 2c7a ffbd 51f6 8c3e 677a 99bd
00000390: 11a4 e53c a654 153e c8ab d5be e096 ccbe
000003a0: 2621 313e db73 f13c b793 2a3d 9e06 90bb
000003b0: 7b03 04be 5546 d7bd f1e2 c6be 3ed0 d0be
000003c0: e208 93bb 66ac dabe 0f97 3cbd 8910 153d
000003d0: 35ae 2fbd 0710 a83d f187 f93c 2165 9d3e
000003e0: 8688 0e3e cb63 52be 9237 06be 2b30 a7be
000003f0: e335 103e aa6a 58be b69c 5abd 7512 4fbd
-0.12328801 -0.019271014 -0.33112666 0.23645814 0.111276634 -0.10662511 -0.24749577 -0.4259519
-0.3818967 -0.06338581 -0.026533801 0.099707 0.11468723 0.061102856 -0.16785604 0.13893273
0.19408493 0.18805961 -0.054043997 0.10437705 -0.3367418 -0.20208482 -0.08246841 0.013321972
-0.05388426 0.06839087 -0.2923223 -0.043925565 -0.43733957 -0.15607256 -0.175961 -0.07936424
0.108529724 -0.124465324 0.03531504 -0.0714645 0.017875 -0.05067816 -0.21842504 -0.26515946
0.09656885 -0.005142005 0.045933343 -0.06539421 -0.22148924 -0.23714548 -0.4286031 -0.38771397
-0.16105126 -0.60280585 -0.17375195 -0.053182308 0.0069370978 -0.14759947 0.10181067 0.23953804
0.09004358 -0.4079729 -0.28871503 -0.23209347 -0.059587922 -0.34898272 -0.08181903 -0.18755193
-0.076550126 -0.16371965 -0.23374417 -0.11810582 -0.043770228 -0.19414248 -0.32206926 -0.32986453
-0.26124436 -0.08691053 0.027665252 0.12791935 -0.31499633 -0.068505295 -0.066644676 0.0067686825
-0.042497143 0.14091511 0.08985863 0.19906744 -0.015943108 -0.06783071 -0.2430547 -0.15081541
-0.036979146 -0.045470055 -0.09437371 -0.20634061 -0.37295222 -0.32196397 -0.3255469 -0.18587793
-0.13670711 -0.28114387 0.12876755 -0.1911088 -0.20567621 -0.24480328 -0.28285584 -0.4416534
-0.0125629585 0.005121484 0.08674625 0.018072547 -0.0791157 -0.008065616 -0.39546326 -0.11747639
-0.17850144 -0.5810252 -0.12977979 0.20596372 -0.15823452 0.06372015 0.0017427522 0.17403339
-0.10714167 -0.2879036 -0.33699694 -0.18075193 -0.093651675 -0.2059779 -0.22228965 -0.16292822
0.20517427 0.023321638 -0.077350825 0.037140604 -0.017504033 -0.076490246 0.00014470247 -0.058498304
0.1780419 0.25051516 0.16290195 0.09213588 0.02994464 0.043485913 0.003981826 -0.019339908
0.008129588 -0.08622631 0.020596707 0.024572812 -0.12937358 -0.084911235 -0.1173817 -0.05827302
-0.12377162 0.1135848 0.13670161 -0.03994473 0.07997795 -0.04797128 0.01684724 0.012181673
0.073283724 -0.09394 -0.092701755 -0.02246268 -0.1017054 0.18147652 0.20875865 -0.055482168
-0.023863407 -0.011153952 0.13719925 0.06738387 0.031660404 0.058096666 -0.004578089 -0.100685865
-0.1819515 -0.09175212 0.07118152 0.0009589957 0.1045054 -0.1729227 -0.23565611 0.019634
0.08226135 0.04523886 0.038033176 -0.03130865 -0.20520583 0.10769251 -0.06380192 -0.116457745
-0.238626 -0.16858545 -0.29537234 0.16214024 0.25722292 -0.015634978 -0.15459216 -0.32611638
-0.44711334 0.07530991 -0.11207367 0.15424672 -0.059999574 0.18821032 -0.17857276 0.040090792
0.014149154 -0.021877421 -0.21122265 0.41957203 -0.115334064 -0.083579466 -0.0027249695 -0.071740046
-0.29349586 -0.08421208 -0.104637094 0.0627542 -0.5946587 -0.36473867 -0.20740458 -0.21169615
0.19393876 -0.12474474 0.27531675 -0.074940495 0.028032335 0.14583072 -0.4173262 -0.39958858
0.17297801 0.02947419 0.041644778 -0.00439532 -0.12891953 -0.10511462 -0.38845018 -0.40783876
-0.004487143 -0.42709655 -0.0460425 0.036392722 -0.042890746 0.08206182 0.03046033 0.30741218
0.13919267 -0.2054588 -0.13107136 -0.32653937 0.14083056 -0.21134439 -0.053372107 -0.05055471

lstm.bias_hh_l0 f4 [256]
00000000: 1bf6 54be 26c9 0ebd 4eb8 7bbe 90b1 973d
00000010: 204b 303e 1abb f7bd 581d 1ebe 547b c3be
00000020: 5fd0 fbbe c8af d93b 5fa6 cbbd dec1 443d
00000030: 32e2 883c 124e 513e 3672 09be 417e c33d
00000040: 1b6e c83d bf05 1a3e 054a 03be 51ca 813e
00000050: 9350 dabd 8886 6abd 8f08 8dbe 343f 52bd
00000060: e2f6 b1bd 90f6 3cbd 9640 c9bd 522f 5cbc
00000070: 711b 98be 55e1 9ebe 90a5 00be 8288 bdbd
00000080: 5f40 90bd 5148 13be 3a06 883c c761 dbbd
00000090: 0057 ad3d 0f98 563d 6a9f 52be 81e8 c3be
000000a0: 81bb fd3d c640 01be df45 7e3d 0806 bf3d
000000b0: 9572 7ebe 0cc8 43be 2ce7 e7be a699 7cbe
000000c0: 0962 f8bd c86c 1ebf 29b8 b8bc d8c3 103e
000000d0: 1076 4d3d a53f 12be 7f66 7d3d 401d 703e
000000e0: 1aea 863e 33fe 9fbe 8a60 50be c199 4fbe
000000f0: 962d f33d e533 9ebe 6c5a 963d 5354 1bbe
00000100: 83cc 49bd 3052 5ebe 9eb1 5ebe 6c11 f2bb
00000110: 1930 edbd 1568 3abe c151 68be 271e 75be
00000120: 6bb3 9abe e596 e3bc 1487 90bc 694b c03d
00000130: 0396 9cbe 88a2 f5bd 7b37 65be 64e7 e13d
00000140: a481 153d b8af 883d 1689 7b3d d96d ab3e
00000150: ef80 d1bc baae 3ebe a640 97be c21b f2bd
00000160: da61 9abd 907c 4ebe 19d8 48be aeea 84ba
00000170: dd4a 03bf c7f2 08be b948 bdbe 9133 2dbe
00000180: cf9f 38be 266d 4bbe 1da2 b23c 97f9 54bc
00000190: ca5b 84be b673 71be 5b5c b2bd 81b8 d1be
000001a0: 4953 9f3b fe2b 6ebe e4b3 153e 8272 3fbd
000001b0: ac7c 8fbd 0a95 27be 0c36 a9be e76f 12be
000001c0: 9169 17be c980 02bf ae1a e5bd 837f 223e
000001d0: b495 ad3c ce2b d73d 3b8e fa3d b7b8 043c
000001e0: 9d73 07be d8e9 aabe e72f ccbe 614f a3be
000001f0: b374 18bd 631d 6ebe 0800 c7bd c6d6 77bd
00000200: c792 e33d 3120 9dbc c6f9 873d 073f 2d3c
00000210: ae09 a5bc d73c 3cbe 38e2 b4bb 9431 393c
00000220: f747 c83d dd37 b93d 41ea fd3d 2b0a f03d
00000230: 4940 de3d 3774 043d 34df d93d b2c3 b13b
00000240: d84d 03be 6cf0 a53d 1cd6 b7bd cd65 d3bd
00000250: 9b4a 6cbe b3dc febd b161 b93d fd9d 053c
00000260: 8b6e b8bd ab32 b73c 4c31 f8bb 40d5 60bd
00000270: b85d 8e3d 529c cabd e5a6 1b3e 60c6 17be
00000280: b7eb 9b3a e872 673d f1c5 34bc 7fc7 eebd
00000290: 4348 04be 1bf9 96bb c020 303d ea24 b83c
000002a0: 148c b5bd 5854 b33d cb90 b53d 41e5 f73d
000002b0: 4c04 9b3d 64da c33d a23f 60bc 75f8 0fbe
000002c0: b83e c4bd 5c7d 383b 18c1 51bd 740b c63c
000002d0: 914e 023e 1253 5abe c384 c5bd e304 5fbd
000002e0: 0868 00bc 942d adbd 77fb dbbd 0596 cbba
000002f0: 7a2d 0cbe d8ab 613e 5ef0 a6bd f8ce cfba
00000300: 7a22 0cbe 6a93 283c 5c59 03be 5ae0 963e
00000310: 048f 883e 2452 34be 6612 51be edd7 77be
00000320: 428e b9be d5ad 35bd fad1 57bd 54cd 1d3e
00000330: 6f0b 58bd 434d 2a3e 7169 77be ccec 143d
00000340: e9b9 173c b13d c13b a2a7 b6bd b759 923e
00000350: 56d6 1dbe 2ca8 27be 473b c7bd 0412 f1bd
00000360: 710c d1bd 280d 17bd 40d6 00be 4d71 cdbd
00000370: 42b0 dfbe 77fa 98be 01f4 85ba bc7e 53be
00000380: b08b 1f3e a485 65be e983 293e a594 1abd
00000390: e75e cbbd 7260 d93c b4a1 a0be 9260 9dbe
000003a0: 26db e33c 9146 70bd 817e 563e 8e4a f93c
000003b0: 87c1 01be b339 51be 93c5 a1be 7e0c 8ebe
000003c0: 1d07 4dbe 9dda 1abf 77ba bb3c 4af1 f5ba
000003d0: 33f6 583d 098a 4e3d 76d1 be3b 861f 6a3e
000003e0: 395a 943d 37a5 d1be 9a98 22be 789b 43be
000003f0: e0c7 db3c 88a7 2fbe 339a 4f3c 1fcf 66bd
-0.20797007 -0.0348598 -0.24582025 0.07406914 0.17216158 -0.12096234 -0.15440881 -0.3818003
-0.49182412 0.006643269 -0.09943842 0.04803645 0.01670942 0.20439938 -0.13422474 0.095455654
0.09786626 0.15041254 -0.12821205 0.25349668 -0.106598996 -0.057257205 -0.27545592 -0.051329806
-0.08689667 -0.046133578 -0.09826772 -0.013439016 -0.29708436 -0.3103129 -0.12563157 -0.092545524
-0.07043528 -0.14383055 0.016604532 -0.10712009 0.084638596 0.052391108 -0.20568624 -0.38263324
0.12389279 -0.12622365 0.062078353 0.09327322 -0.24848397 -0.1911928 -0.45293558 -0.24667987
-0.12128074 -0.61884737 -0.022548752 0.14137208 0.05016142 -0.14282091 0.061865326 0.23448658
0.2635048 -0.31248626 -0.20349327 -0.20273496 0.11873929 -0.30898967 0.07341465 -0.15168886
-0.049267303 -0.2171104 -0.21747443 -0.0073873308 -0.115814395 -0.18203767 -0.22687437 -0.23937283
-0.3021501 -0.027781913 -0.017642535 0.09389383 -0.305832 -0.11993891 -0.22384445 0.110304624
0.036500588 0.06674141 0.061410032 0.33482245 -0.025574176 -0.1862134 -0.2954151 -0.11821701
-0.07538195 -0.20164704 -0.19613685 -0.0010140741 -0.5128611 -0.13373862 -0.36969545 -0.16914202
-0.18029712 -0.19865856 0.021805817 -0.01299896 -0.2585128 -0.23579296 -0.08709022 -0.40961078
0.0048622233 -0.23258969 0.14619404 -0.046740063 -0.07006201 -0.16365448 -0.33049047 -0.143005
-0.14786364 -0.5097776 -0.11186729 0.15868954 0.021189548 0.10506402 0.122341596 0.00810068
-0.13227697 -0.33381534 -0.39880297 -0.318965 -0.037220668 -0.23253398 -0.09716803 -0.06050756
0.1111198 -0.01918039 0.066394374 0.010574109 -0.020146217 -0.18382584 -0.0055201314 0.011303324
0.09779351 0.09043858 0.12398196 0.117206894 0.10852105 0.032337394 0.10638276 0.00542494
-0.12822664 0.081024975 -0.08976385 -0.10322151 -0.23075335 -0.12444439 0.09051836 0.008155343
-0.090054594 0.022363028 -0.007574236 -0.05489087 0.06951469 -0.09893097 0.15200384 -0.14821768
0.001189581 0.056506068 -0.011033521 -0.116591446 -0.1291819 -0.0046073324 0.042999983 0.02247854
-0.088646084 0.08756322 0.08865508 0.121042736 0.07569179 0.09563139 -0.013687046 -0.14059623
-0.09582275 0.0028150892 -0.05120954 0.024175383 0.12725283 -0.21320751 -0.09644463 -0.05444802
-0.007837303 -0.08455959 -0.107413225 -0.001553238 -0.13689223 0.2203821 -0.08151315 -0.0015854528
-0.13685027 0.0102890525 -0.12827057 0.29468042 0.26671612 -0.17609459 -0.20417175 -0.24203463
-0.36241347 -0.044355232 -0.052690484 0.15410358 -0.05274528 0.16631036 -0.24161316 0.03635864
0.009260633 0.0058972468 -0.08918692 0.28584072 -0.15413794 -0.16372746 -0.09728103 -0.11771014
-0.10207451 -0.03687778 -0.1258173 -0.10031376 -0.43689162 -0.2987859 -0.0010219814 -0.20653814
0.1558063 -0.22414261 0.16554226 -0.037739415 -0.099302106 0.026535247 -0.3137337 -0.3073774
0.027814459 -0.058661047 0.20946695 0.030431058 -0.12671481 -0.20432167 -0.3159605 -0.27743906
-0.20022245 -0.6048983 0.022916062 -0.0018763926 0.05296917 0.05042461 0.0058233095 0.22863588
0.07243771 -0.4094636 -0.15878525 -0.19102275 0.026828706 -0.17153752 0.012671041 -0.05634987

lstm.weight_ih_l1 f4 [256, 64]
00000000: 99b0 20be 2c11 ad3a 179f 9ebc 6378 843d
00000010: 0e1e 493d fff4 01be fe07 2cbd 33f6 8bbc
00000020: ee2c 93be 863f f3bd c848 d7bd 1432 b03d
00000030: 3f6f 95bd e4f1 673e 98f4 d5bc f75e 483e
00000040: 9aac 423e dca7 1bbe 802a 97ba 2043 34be
00000050: 7c0a 6a3e bb0b 133e 4ee5 603d 6e2d 013d
00000060: 8746 86bc dab8 44bd 3b8b adbd d9de bd3e
00000070: a3d7 01be 25f2 b13e 3b19 65bd ac1b 20be
00000080: 4bb7 5aba 5feb a73c 43bc 863b 1b75 203e
00000090: ecd2 263d 0c59 a73d b381 8dbd 6c83 a23d
000000a0: 40e3 1b3e 6a9c c03c 2c4b 343d 8d8d 90bd
000000b0: 4634 aa3d 706f 91be 4da4 873d 2995 4fbc
000000c0: 9693 a63e 968b 183e f2a1 013e 7569 a63d
000000d0: 037a 10be 43ac 90bd a5d5 1a3e 2617 9b3d
000000e0: 3eae fdbc 346c bebd 36af a93c 43a9 613e
000000f0: ddf2 c83d 3179 23bd 37c6 35bc 313a abbd
00000100: 1769 4cbe eb28 7cbd 73ab efbd fac5 debc
00000110: 18e0 28be 1f93 f93c 4f43 43bd 7a2e a73d
00000120: daad bdbd 2067 4e3e 8515 bfbd d6fa 8dbe
00000130: 6c63 693d 82c3 21bd 284f 2e3e b9e9 c53d
00000140: c755 9bbd a988 3b3d 6a33 4fbd ebac 443c
00000150: 000c 323d 5c73 07bd 327c 533e 47a3 0abe
00000160: 4472 af3d ce4f d8be 1bb8 4fbe e81f 603e
00000170: fe5c 043b 3913 87bd 3a5b 47be 92b5 15be
00000180: e22b 73be 3fcd 15be eb4b d6bd 954b ed3d
00000190: 927c 903e f02e 853e a7c0 933c 4974 ebbd
000001a0: a811 013e 3169 623c d8f2 bdbc f4e8 253e
000001b0: 04fb 133e 32ba 5fbd 254e 293e 5d64 79bd
000001c0: cca0 1a3e 7359 fa3c e0c5 af3d 8c7a b63e
000001d0: d46a 1bbd d256 693d b982 bfbe 1be2 bfbd
000001e0: 4102 343d d3c9 073e 62e8 863d 65c3 98bd
000001f0: 8626 81bd 5d35 463d c159 9abd e41d 893d
00000200: 97a7 e6bd 40ec e9bc 2827 76be 723e c63e
00000210: 95cf a1bc 86b5 16be 2464 9fbd b081 2d3d
00000220: 0201 f7bb d5e0 1dbe 5cb4 36be d745 e73d
00000230: b97c 8f3c dc4d 763c 41fa 083e b270 f83d
00000240: 9a80 523d de16 693d 4e64 cebd cf08 af3c
00000250: c688 073e 4220 89bd c810 e63d e036 b1bc
00000260: a663 0b3e 31b9 d3bc e881 b5bd c51d d93d
00000270: a1fc 2bbe 5886 063d 3a68 27bd 71fe 32bc
00000280: 9f0b 5dbe 7571 443d f0d4 07bd 772b c2bd
00000290: 0ed8 2d3e 0fbc afbd b36e a83d e594 863d
000002a0: 356a e53b d302 41be a63b d83d d27c 00bd
000002b0: fc28 023e 411c 19be 16e0 3d3d b56a e73d
000002c0: b9d6 263e 80c9 153d c4c4 0d3e 1131 0dbd
000002d0: 3a8d 53be 2885 f0bd 4699 2f3e 4c32 123e
000002e0: 7220 1abd 5ff2 e33d abd8 97be b1ca f83d
000002f0: 3e52 273e ec45 59be 00ee 403e db90 163e
00000300: 1338 fbbc c73d 88be 07ad ae3d e537 03be
00000310: f2f0 91be 876c 573e 6ada 52bd 40e8 5bbc
00000320: 9464 afbe 1c79 5dbe ec37 9bbe 3dcc 1fbe
00000330: 9ff7 c3bd 35c0 fabe c30c 7bbd 7beb 1fbd
00000340: 9b18 3fbe fb46 a03c 6bef 5fbd 19e4 ddbb
00000350: 4385 48bd 3ba4 38be 810d dc3d ea01 a7be
00000360: b5af be3e d97b 33be eb8b 233e 9228 d4bd
00000370: edd8 32bd 1025 813e d3a7 393d bf32 8a3b
00000380: ad09 2cbe 1dce 47be 3f9b 8939 a793 8d3e
00000390: 7a59 413e 80b3 273d 6324 3bbe 8728 903e
000003a0: eda2 9e3d 1fd1 ccbc ab8a 563e 6d7d d7bd
000003b0: 8b7c 9cbd f925 50bd 1aba bfbd 55a4 853e
000003c0: 4872 d03e 291f 763e df4c 31bd 0122 863d
000003d0: 6e75 fcbd 0ada 0e3e 9f48 e2bd 3a2c 5fbd
000003e0: aa61 f0bd adb1 2bbe 4352 133e a69f 203e
000003f0: 4eb4 6d3e 34e4 06be 942f d83d 0d58 383e
-0.15692367 0.001320397 -0.01936297 0.064682744 0.049100928 -0.12691115 -0.04199981 -0.01708517
-0.28745216 -0.118773505 -0.10511929 0.08603302 -0.07296609 0.22650868 -0.026117608 0.19567476
0.19011155 -0.15200752 -0.0011533052 -0.17603731 0.22855562 0.14359944 0.054906182 0.031537466
-0.016391052 -0.04802785 -0.08473822 0.37084082 -0.12679915 0.34755054 -0.055932265 -0.15635556
-0.0008343353 0.020497976 0.004111798 0.15669672 0.040728495 0.08171281 -0.06909504 0.07935223
0.15223408 0.023512084 0.044017002 -0.07058249 0.083107516 -0.28405333 0.06623135 -0.01266984
0.32534474 0.14896998 0.12659433 0.08125583 -0.14109044 -0.07064106 0.15120561 0.075727746
-0.030966874 -0.09297982 0.02071343 0.22037224 0.098119475 -0.0399105 -0.011094621 -0.083607085
-0.19961964 -0.06156246 -0.11702623 -0.027194012 -0.16491735 0.03046566 -0.047671612 0.081631616
-0.09261675 0.20156527 -0.093302764 -0.27730435 0.05697958 -0.03949309 0.17022383 0.0966372
-0.0758472 0.045784626 -0.05058614 0.0120041175 0.043468475 -0.033069 0.20652846 -0.13538848
0.08566716 -0.42248386 -0.20285074 0.21887171 0.002019703 -0.06595463 -0.19468394 -0.14620045
-0.23747209 -0.14629076 -0.10463699 0.11586682 0.2822004 0.26012373 0.0180362 -0.11496789
0.12604392 0.013819025 -0.023187086 0.16202146 0.14451224 -0.05462093 0.16533716 -0.06088673
0.15100402 0.03056023 0.085826635 0.3564037 -0.037943676 0.056967564 -0.3740442 -0.09369298
0.043947462 0.13260584 0.06587292 -0.074591435 -0.06306176 0.048390735 -0.075366504 0.06695154
-0.11262434 -0.028555036 -0.24038374 0.38719517 -0.019752303 -0.14717683 -0.07782772 0.042360008
-0.007537962 -0.15417798 -0.17842239 0.11292618 0.017515527 0.015033212 0.13376714 0.1213087
0.051392175 0.056906573 -0.10077725 0.021366505 0.13235769 -0.06695606 0.112336695 -0.021632612
0.13612232 -0.025845142 -0.08862668 0.10601381 -0.16795589 0.032842964 -0.040870883 -0.010924921
-0.21586464 0.047959764 -0.033162057 -0.094809465 0.1697695 -0.08580791 0.08224239 0.06571368
0.0070011863 -0.18848734 0.10558252 -0.031369038 0.12710947 -0.14952184 0.046356283 0.112996496
0.16292848 0.03656912 0.13844591 -0.03447062 -0.20659342 -0.117441475 0.17148313 0.14276999
-0.0376286 0.11130213 -0.29657492 0.12148035 0.16339967 -0.2121808 0.1884079 0.14703695
-0.030666387 -0.26609632 0.08529096 -0.12814291 -0.2850414 0.21037494 -0.051477827 -0.013422072
-0.34256423 -0.21628231 -0.30316103 -0.15605254 -0.09568714 -0.48974767 -0.061291467 -0.03904293
-0.1866173 0.019565096 -0.054671686 -0.006771576 -0.048955213 -0.18031399 0.10744763 -0.32618648
0.3724343 -0.17527713 0.15971343 -0.10359301 -0.043663908 0.2522359 0.045326065 0.004217475
-0.16800566 -0.1951222 0.00026246344 0.27651712 0.18881789 0.04094267 -0.18275599 0.2815592
0.077459194 -0.02500206 0.20951335 -0.1052197 -0.07640942 -0.050817464 -0.09361668 0.26101938
0.4071219 0.24035324 -0.0432862 0.065494545 -0.123270854 0.13950363 -0.110490076 -0.054485537
-0.11737378 -0.16766997 0.14386849 0.15685901 0.23213312 -0.1317299 0.1055595 0.18002339

lstm.weight_hh_l1 f4 [256, 64]
00000000: 6373 af3d 7c68 5a3c a282 033e 3ff3 babd
00000010: 9ed3 223e f25e 86bd 6bdb 363c 2170 58bd
00000020: 4baf d73d 26ab 913c 2334 753d fc6e fe3d
00000030: 2235 e33d cb00 dfbd 0210 413c 7213 573e
00000040: d649 24bd 95ce 14be 7ecd 013e 0fe8 61bd
00000050: 80d4 1fbd 2cdf 6c3e 441d 053d 4b72 7fbe
00000060: 094e eb3b 031f bdbc cf00 0dbd f737 27be
00000070: 7567 0a3d de20 2cbd 12f2 3dbe 96aa 013d
00000080: a331 593e 468d efbd 734e 3d3e 1256 c93d
00000090: 0629 d53d 1ef0 e1bd 459c a23d fef3 49bd
000000a0: 4343 ccbd 2004 073e f315 09be 148e fcbd
000000b0: 7d05 443e 1e47 523d 3a84 1b3e 29cb 29bd
000000c0: 53d8 cabd d046 fc3d 9644 e73c c388 dfbc
000000d0: d46b afbc 5751 2fbe 071c bd3d df31 5dbc
000000e0: b64b 943c bc91 d43d 67ef 85bd 5de5 0dbd
000000f0: a469 c8bd d811 ccbd 2f62 a4ba f15d 9ebd
00000100: 9363 51bd 1955 2c3d 66d9 44bd ae7d 543e
00000110: 8223 223e 6c83 cbbd ab57 dbbd 8cb5 41be
00000120: 3558 d1bb 5e95 cbbd 8b2a da3d f771 d4bd
00000130: 530f 84bc e23d b83d 24f0 483d 3323 91bd
00000140: 5942 03be 3d63 2f3e ef0a 67bd 3ddc 943c
00000150: 584a 2ebe 077d 5a3d 58b9 1c3e b4d8 f3bc
00000160: ee48 1b3e 91a3 62bd 1c6a 2d3c 8928 123e
00000170: c1d4 ff3d a8bd 683e b129 b13d 05e6 ab3d
00000180: 1b14 333e a250 34bc af27 3dbe c8ee 8bbd
00000190: 9247 c9bb 22ac a5bd 22fc 2ebe 8e31 18be
000001a0: 40b5 123d d333 3cbd 2a66 9abd 22d7 18bc
000001b0: 1c3a ecbd 727e 6b3c 3c67 db3d 1c46 28be
000001c0: 9034 213c c11a 9b3d 3ed3 f0bd 3828 d63c
000001d0: c79a 133e 1630 693e 52d8 f8bd 7934 a0bd
000001e0: 3e1a 94bd 94a8 ddbd af90 d43c ad49 c3bd
000001f0: 08af 3abe be74 3c3e 0c86 1cbe 837f a1be
00000200: 13c2 443b 4ff6 aa3b 2a96 8fbd 176e 6a3c
00000210: c668 713d 2162 d73d b697 9c3c eae9 babd
00000220: 9cab 0d3c 85d3 6c3d d059 84bd d444 973d
00000230: 7321 9f3c c868 9bbd 41da 473d 57c7 49bb
00000240: 2d3e 04be d798 dfbc 0cce eb3d 14ea 3bbd
00000250: fd73 c9bd 4f94 2f3e 3825 873d 6881 5c3b
00000260: 219c 87bd b1b2 4abe a7bb 3f3d f75b 713d
00000270: 57b8 fbbd 1c58 093e 7238 903d 9b47 46bd
00000280: d986 0d3d bb92 a63d f38e 153d 3663 9d3c
00000290: bcd6 69bd 0f1a 37bd bbe8 fc3c 2f26 abbc
000002a0: 4fc8 363d 6304 6ebd 4565 cd3d 322c 213e
000002b0: 43cd 3e3e d647 d4bd 3e64 b03d 8f92 eebc
000002c0: db8a d0bb 0bad 173e 159f dbbb 40e9 b1bd
000002d0: 5019 633e ba31 52bc 1fa1 8a3d b817 87ba
000002e0: 2912 463c 1490 9cbd bb8e cfbd ba47 1d3d
000002f0: f26b af3d f3ff a63d 6091 7bbd 7d9b a2bd
00000300: 6dd0 05be 1497 4ebd 31c0 46be 5ccf a7bd
00000310: 5037 0e3d fdd2 03be c6ad 12be a3ee 683e
00000320: 8e1e 283c 5c0b ad3d 0123 c5bd db63 10bb
00000330: 9f64 9b3d 1fd3 efbd bc4a 14bd dba9 d13d
00000340: c1af 313d 47b4 e0bd 178a 113a 3b04 b4bd
00000350: a416 2c3d 14e0 123e 2922 72bd 675b d13b
00000360: 9c74 70be a9bb 0a3e d231 2f3d c663 723e
00000370: 4e75 27be 2e64 4dbe e5e1 8fbe 1c9f dfbd
00000380: f8f2 30be b84e 143e 102f cb3c 3ed7 073e
00000390: 2275 753c ddb0 d33c d4de a23e a784 283e
000003a0: ab7b 07be 6d0d 6dbd 3c59 5d3d 853d 0d3e
000003b0: 4c15 453e 3a9f 6cbe 9e2e cdbd 8f04 613c
000003c0: d984 02bd 07fd 01bd a1f0 023e 2480 56be
000003d0: 7e6e 413d 9acd 90bd ac63 4a3e b584 e83d
000003e0: 5ed5 9cbd b04b 863e 13e3 643e ed3f 853e
000003f0: 54b7 1a3e 215a c1be d8a9 04be 183c 2a3e
0.0856693 0.013330575 0.12842801 -0.09128427 0.15901038 -0.06561078 0.011160712 -0.05284131
0.10531481 0.017781805 0.059864175 0.12423512 0.11094119 -0.10888823 0.011783602 0.21003512
-0.040109478 -0.1453193 0.12676045 -0.05515295 -0.039021015 0.23132008 0.032498613 -0.24945943
0.0071809334 -0.023086077 -0.0344246 -0.16329943 0.03379007 -0.042023532 -0.18549374 0.031656824
0.21210341 -0.11696868 0.18486957 0.0983087 0.10408215 -0.11032127 0.07939962 -0.049304955
-0.09973767 0.13185167 -0.13387279 -0.12331787 0.19142719 0.051337354 0.15187159 -0.041453514
-0.09904542 0.12318194 0.028230947 -0.027286893 -0.021413721 -0.17120872 0.092338614 -0.01350066
0.018102508 0.10379359 -0.06539803 -0.034642566 -0.09785774 -0.09964341 -0.0012541468 -0.07732762
-0.051120352 0.042073343 -0.04805889 0.20751068 0.15833858 -0.09937176 -0.10710081 -0.18916911
-0.006388689 -0.09940599 0.10652646 -0.103732996 -0.016120588 0.08996178 0.04905714 -0.07086792
-0.12818278 0.171277 -0.05640691 0.018171424 -0.17020547 0.05334189 0.15305078 -0.029766418
0.15164539 -0.05533177 0.0105843805 0.14273275 0.124917515 0.22728598 0.0865053 0.08393482
0.17488138 -0.0110055525 -0.1847217 -0.06832653 -0.006142565 -0.08089472 -0.17088369 -0.14862654
0.035817385 -0.04594786 -0.075390175 -0.009328635 -0.11534521 0.014373409 0.1071305 -0.16432995
0.009839192 0.07573462 -0.11759041 0.026142225 0.14414512 0.2277225 -0.12150635 -0.07822508
-0.07231568 -0.10823169 0.025947897 -0.09535537 -0.18230832 0.18403909 -0.1528551 -0.31542596
0.0030022904 0.0052173506 -0.070110634 0.014308474 0.05893781 0.105167635 0.01911531 -0.09126647
0.008646872 0.05781891 -0.06462443 0.07386175 0.01942513 -0.07588345 0.048792128 -0.0030788982
-0.12914343 -0.02729456 0.1151391 -0.04587753 -0.09836576 0.17146419 0.06598896 0.0033646468
-0.06621576 -0.19794728 0.04680982 0.058925595 -0.122910194 0.13412517 0.07042016 -0.048408132
0.03455243 0.08133455 0.03651328 0.019212347 -0.057089552 -0.044702586 0.030872693 -0.02089223
0.044624623 -0.058109652 0.10029081 0.15739515 0.18632989 -0.10365264 0.0861287 -0.029122619
-0.006364209 0.14812104 -0.0067023137 -0.08687067 0.22177625 -0.012829239 0.06769013 -0.0010306751
0.012089291 -0.07644668 -0.101346456 0.038398482 0.08565511 0.08154287 -0.061417937 -0.07939813
-0.1306779 -0.050437048 -0.19409253 -0.081938475 0.03472072 -0.12873454 -0.14324102 0.22747283
0.010261191 0.08449432 -0.09625817 -0.0022032175 0.07587551 -0.1171019 -0.036204085 0.102374755
0.043380503 -0.10971885 0.0005551888 -0.087898694 0.04201378 0.14343292 -0.05911461 0.00638907
-0.23481983 0.13548149 0.04277212 0.23670873 -0.16353342 -0.20057747 -0.2810203 -0.109190196
-0.17280185 0.14483154 0.024802715 0.13265702 0.01498154 0.02584117 0.3181063 0.16456853
-0.1323077 -0.057874132 0.05404018 0.13792999 0.19246405 -0.23107615 -0.10018657 0.013733997
-0.031864975 -0.031735446 0.12787105 -0.2094732 0.047224514 -0.070704654 0.19764584 0.11353437
-0.07657884 0.2622962 0.22352247 0.26025334 0.15108997 -0.37764075 -0.12955415 0.16624486

lstm.bias_ih_l1 f4 [256]
00000000: 4966 583e 4305 93bd ab31 afbd 56e5 d9be
00000010: 4dc9 aabb 2dfa 253e 9bae c6bd 2660 eb3d
00000020: 7158 8cbe a732 9ebe aa57 88be c620 423d
00000030: 3d99 7f3e 1e96 323e 888c 6bbd bb23 f6be
00000040: 06fb b7be 8d39 183d 58cd 63bd a753 bb3d
00000050: 41e8 cf3d 0529 77bd e5f1 a73d ee4e 36bd
00000060: e011 24be 9a8a f9be d002 d2be a540 38be
00000070: 9046 963c b1c9 b93c dc6b 00be ee7b 65bd
00000080: 4e0c 39be b4cf 32be 6b22 fdbd ed63 27be
00000090: 6817 cbbe 143a 9c3d e6f2 8bbd 3109 273d
000000a0: d175 903e d9dd 33be 47b7 d03c 1f48 68be
000000b0: 5360 163e cad2 793d c73a 27bc c1c7 96be
000000c0: f712 2dbf e44e 493e c634 15be 05a2 bdbe
000000d0: 4e25 893d cbbe 94bd f11a dd3d ad1e b33e
000000e0: 57f7 94be aa19 b7be 319c 34be 2280 4f3e
000000f0: 0e77 6cbd 4453 86be 6eff 543d a833 43bd
00000100: 5bff 77bc 91db 8bbe 763d b9be 26f3 37be
00000110: f990 a3be e473 d83b 49c5 053d 4e6f fc3d
00000120: 9e27 95be 1c5b 7abe 6f14 42be a655 793e
00000130: 17db 8c3c be79 353e 4752 a13d b31d fcbe
00000140: 1293 3cbe d1d0 aabd a45c 30be 34c9 bfbd
00000150: 63c7 1b3e 5072 16be 23c9 f83d 0235 86be
00000160: 4959 723c 3643 08bf 8135 92be 561c 82be
00000170: 0f11 653e a113 abbc 32d6 94bc 002a 37bd
00000180: 1879 c83c 31c6 28be a973 533c d882 763d
00000190: 9b39 b5be 2468 083d 40f5 eebd 19c1 cc3d
000001a0: b3ae b33e d847 67be a403 b6be 372b 67be
000001b0: f4fb 89bd 7e18 0dbd 78d4 e8bc d7fc 9ebe
000001c0: dd23 16bf 1c0e 553d 9989 d4be 1d2d 5fbe
000001d0: e4c7 8d3e 1112 12bd b91a 583e 2f5d c53e
000001e0: 6d88 92be dd4f 45be b910 56be 936a 6fbc
000001f0: e53a c33d 3f4c 68be 0468 fdbc 23db 5dbe
00000200: e4bd cebd 0978 8ebd 1e58 0ebd 50d7 8abd
00000210: ef98 673d 50a7 12be 49a5 5439 2f13 233d
00000220: d850 7f3d 4f0c 4d3d 78a6 41bd 2289 37bd
00000230: 5c15 85bc 4716 2b3b 4d16 edbd dd2c ddbd
00000240: 9967 043c b362 6d3d c0f3 88bc 9e1c 903d
00000250: cc49 88bd 9c6a e039 a2b2 9e3d afe8 09bd
00000260: 11b1 dabb 21a8 cabd 5227 943d 3fba 1e3d
00000270: a600 85bd 4d14 0a3d f4c8 a0bb 6524 113d
00000280: 069e aa3d 76b6 183e ab3c cd3d 5b72 5ebc
00000290: ca0a a1bd 709d e83b 97f7 30bd 4d63 15bd
000002a0: 3ab8 d83d f0a2 5a3c a3fe ae3d 3f5d b53d
000002b0: 70a1 9bbd 04d2 86bd b32c ba3d d66d bd3d
000002c0: a160 623d eb4f 9c3c 29cb f7bd bf8c 9cbd
000002d0: 8480 ebbd 2047 8dbd 5aa1 0f3d 7273 a5bd
000002e0: 4ba6 86bd cbb5 5c3d 8e97 583d 4717 5dbd
000002f0: bb81 bd3d bb08 3abd 2148 1abd 3ff9 bd3d
00000300: 87d4 40bd 6a23 97be 9a53 12be f000 98be
00000310: 3087 84be c173 e7bd 319e 07bd 919d 86bd
00000320: 70ad 51be d6d2 80be 0d99 82be 1931 a03d
00000330: 201d 0b3e 9b71 073d 885f c7bd 54c2 09bf
00000340: 6b53 98be e776 a0bd adfd 5dbe 8b3d d6bc
00000350: 9e0a ee3d 3b43 a1be 8b3e 393d 2fe4 67be
00000360: c4b9 0ebe 193f 9cbe 3fd8 0cbf 868c 2ebe
00000370: df8f a23d ea8a 34be 5a19 dcbe 58de b8bd
00000380: cd76 85be 9cf7 7fbe 4ceb 31be f619 4ebe
00000390: 3caa 45be e698 903d 0ada e6bd bcb9 983a
000003a0: c755 553b fdde 1ebe 5c7c 87bd 8d07 f3be
000003b0: 1880 60bd ee96 20be 596a 1bbe 04b6 bdbe
000003c0: 8957 0cbf b930 eb3d 829c 53be d63f 5ebe
000003d0: aca5 313e 3430 d0bd 125d 2abe be06 073b
000003e0: 45e8 ffbe 2663 82be 301e 9dbe 723c 92bd
000003f0: 1412 4bbe 87c0 84be f5ef c43b 5a31 f8bd
0.21132769 -0.07178738 -0.08554395 -0.42557782 -0.005211985 0.16208716 -0.09701272 0.11492948
-0.27411225 -0.3089802 -0.26629382 0.047394536 0.249608 0.17440078 -0.057507068 -0.48074135
-0.35933703 0.03716426 -0.055615753 0.09146815 0.10151721 -0.060341854 0.082004346 -0.044508867
-0.16022444 -0.48738557 -0.4101777 -0.1799341 0.018344194 0.022679182 -0.12541145 -0.05602639
-0.180711 -0.17462045 -0.1236008 -0.16346712 -0.39666295 0.07628265 -0.068334386 0.04078025
0.28214887 -0.17565097 0.025478018 -0.22683762 0.14685182 0.06099204 -0.010206885 -0.29449275
-0.67607063 0.19659 -0.14570913 -0.37037674 0.066965684 -0.07262953 0.10796154 0.3498434
-0.29094955 -0.35761768 -0.17637707 0.20263723 -0.057730727 -0.26235402 0.05200141 -0.047656685
-0.015136565 -0.27315953 -0.36179703 -0.17963848 -0.31946543 0.006605612 0.03265885 0.12325917
-0.29131788 -0.24448818 -0.18953107 0.24349079 0.017194314 0.17722222 0.07877021 -0.4924141
-0.18415478 -0.0834061 -0.1722284 -0.09364548 0.15212779 -0.14692044 0.12147739 -0.26212317
0.014791795 -0.53227556 -0.28556445 -0.25412244 0.22369789 -0.020883383 -0.018168543 -0.04471779
0.024471804 -0.16481854 0.0129059935 0.060183376 -0.35395512 0.03330244 -0.116678715 0.09997768
0.35094222 -0.22586 -0.35549653 -0.22575079 -0.06737509 -0.034447186 -0.028421625 -0.31052276
-0.58648473 0.05201541 -0.4151123 -0.21794553 0.27691567 -0.03566176 0.21103944 0.38547656
-0.2861971 -0.19268747 -0.20904817 -0.014612812 0.095327176 -0.22685336 -0.030933388 -0.21665625
-0.100948125 -0.06956489 -0.034752004 -0.06779349 0.056542333 -0.14321637 0.00020279469 0.039813217
0.062332958 0.050060567 -0.047277898 -0.044808514 -0.016245537 0.0026105808 -0.11576519 -0.107995726
0.00808134 0.057955455 -0.016717792 0.07036708 -0.06654701 0.0004280404 0.07748915 -0.03366917
-0.00667394 -0.09895349 0.07234062 0.038751837 -0.06494264 0.033710767 -0.004906768 0.0354351
0.08330922 0.14913353 0.10021337 -0.013577069 -0.07863386 0.007098846 -0.04320487 -0.036471654
0.105820134 0.013344511 0.08544662 0.08855676 -0.07599151 -0.06583026 0.09090557 0.09249465
0.055267934 0.019081077 -0.120992966 -0.07644033 -0.11499122 -0.06898332 0.035065986 -0.0807866
-0.065746866 0.05388431 0.05287891 -0.053977277 0.0925326 -0.045418482 -0.037666444 0.092760555
-0.047077682 -0.29519206 -0.14289704 -0.29688215 -0.2588439 -0.11301375 -0.033109847 -0.06573022
-0.20476317 -0.25160855 -0.25507393 0.07821865 0.13585329 0.033067327 -0.09735018 -0.53812146
-0.29751143 -0.07835179 -0.21678801 -0.026152393 0.11623119 -0.31496605 0.04522566 -0.22645639
-0.13938051 -0.3051689 -0.55017465 -0.17045793 0.079375975 -0.17631117 -0.42988092 -0.09026784
-0.260672 -0.24996799 -0.17374915 -0.20127091 -0.1930322 0.07060413 -0.112720564 0.0011652033
0.0032552348 -0.15514751 -0.066155165 -0.47466698 -0.05480966 -0.15682575 -0.15177287 -0.3705293
-0.5482107 0.114839025 -0.20665172 -0.21704039 0.17348355 -0.10165444 -0.16637066 0.0020603384
-0.49981895 -0.2546627 -0.30687094 -0.07140435 -0.19831115 -0.25928137 0.0060100504 -0.12118788

lstm.bias_hh_l1 f4 [256]
00000000: 0ef0 2dbc c925 5ebe 8a3f 29be 3a76 c3be
00000010: a22b 29bd 3d1b 463e d891 803c c2b4 f33d
00000020: f137 90be af24 62be 68e9 25be d2e2 143e
00000030: 19b9 643e 24f0 7d3d c0f3 1f3d d382 eabe
00000040: ae5e 8dbe 0936 513d 6244 41be 6917 cbbd
00000050: cc69 b93d c5c8 d2bd 5df6 0b3e 21e5 f3bd
00000060: 6659 ebbd d2ce 06bf a675 d3be cece 81be
00000070: 3063 4dbd c118 11be 63f5 223d 9af6 abbb
00000080: e5c4 9fbd 50aa a9bd fe7b b63c 2dec 083d
00000090: 4289 e4be c892 b43d 042f c8bd 9ac0 453e
000000a0: bbea b03e 810b 3dbe c89e d83a 7551 4abe
000000b0: 4013 9d3d 8a16 5c3d 01a4 e0bd 7d6b b8be
000000c0: 6a61 1ebf 1d70 e63c 7880 cdbd 20d3 26be
000000d0: d8b4 723e 0651 6bbd d4f3 1a3c 2d71 a83e
000000e0: e33e b5be 8eb6 a8be aaeb 9dbe 02ae 813e
000000f0: 472c 89bd ee97 4abe 0fe8 d53d 8c02 153d
00000100: 30b1 06be cca2 89be bcbe 51be 449c 2abe
00000110: 3ad8 41be 9228 aebb 502f 4e3d 1f51 173e
00000120: 725b b8be abbd b4be 9a21 1ebe 050b 4c3e
00000130: e532 243d 74eb 9a3d 5586 0d3e 1332 84be
00000140: d312 8cbe 8897 633d 0051 75be 6449 d9bc
00000150: 00a2 bd3d c0c2 c1bd 3b0a 803d 8243 b7bd
00000160: cb93 1fbd 8a00 d6be a5c4 8dbe 418f 1ebe
00000170: 4972 493e 7e7b 3cbd 0fce a3bc c143 2c3e
00000180: 060a fc3c 3c63 bfbd 6dac 8bbc d6c7 a43d
00000190: 11f8 a0be 22aa fc3d 40d0 ddbd f1ab 8f3e
000001a0: 0948 333e 0cf2 b9bd eca2 6bbe eafb cbbd
000001b0: d532 943d c562 7ebd 7a85 1a3e de20 dbbe
000001c0: ebc2 f5be 35ec 923d e1ed e1be 305c cfbe
000001d0: 5d83 7e3e 8bf0 503d 2dea 683e 63e0 c33e
000001e0: 0682 adbe d7d5 73be 0b61 18be 25ba 243e
000001f0: 8dba 9b3d 952b 35be 3471 123d c2c6 b5bb
00000200: 3e6b 2d3c c0f3 c9bc 2fc2 92bd ec08 023e
00000210: 9e76 d83d 81b4 343c 809d 13bd a12d 443c
00000220: 4ed6 c2bd 9fdc 7ebc 9840 cabd 0e0a bc3c
00000230: 44c0 61bc b3b5 f43d 607d 05be 0f1d 7a3d
00000240: b3c4 483d ab26 9b3d 3852 ce3c 5071 b2bd
00000250: 30c0 f53d 370b 0e3e d267 a93d 59b8 58bd
00000260: b025 8b39 33cc 9bbc 92c1 d0ba a8a4 103e
00000270: 6351 fa3c e9e5 323c 29ac 923d f5f9 e43d
00000280: d086 93bd 1420 7dbd b217 2f3d b73c da3c
00000290: 4e41 6c3c 9101 9e3d fcc0 f6bc 7f95 37bd
000002a0: 3a00 dc3d 2036 15be 163c babc 6ada 76bd
000002b0: ad54 f4bc e521 c9bd 4d05 983d 189e 42bd
000002c0: 585c f0bc b364 d2bb 594e c03d b39e 20bd
000002d0: d04a ccbd 4118 14bc 0958 ca3b 9667 84bd
000002e0: 8f79 133d ae6f 80bc 9545 703d a3c3 883d
000002f0: a391 353d f396 813d b2cf 0c3d a3aa 9dbd
00000300: a539 0abd 7022 8abe 7e41 efbd 79bd cdbe
00000310: 885a 80be cc4a 69bd c8ba 9cbc 95e6 c6bd
00000320: 8bf4 27be 080f acbe 02a8 9abe 74b6 fcbd
00000330: 0786 a6bc 8224 4c3d 701b cebd 11ce d7be
00000340: 35cf bbbe 9f85 48be b932 36be 34a7 ffbd
00000350: 417e 29bd aa22 79be 004c febc b767 cabe
00000360: 3839 58be c0b4 e3be 51e7 d0be b00b 70be
00000370: 8449 dfbc 7f24 f9bb 1a85 d8be 1c76 adbd
00000380: fb4c 82be 686b 91bd 4a2a 3fbe 8a2b 98bc
00000390: 5737 d4be ab5e 1bbd ba41 89be 8ba0 a83d
000003a0: 4e97 773d cd6d 8cbe c586 d8bd bbca f4be
000003b0: 45cc 93bd f2ca 95bd 2f02 99be dd3a 78be
000003c0: 2dc2 39bf ad8a 673d 1c84 9dbe 4e0f 99be
000003d0: 017e 883d 7a71 2dbe 26dd 59bb af2b fe3c
000003e0: eb88 f8be 2a98 2abe d4c2 bfbe 1602 2abe
000003f0: b0bb 1dbe 43fe 75be be8f 47be 4423 2ebd
-0.0106163155 -0.21694101 -0.16528144 -0.38176137 -0.041301377 0.19346328 0.015694544 0.11899711
-0.2816768 -0.22084306 -0.16202319 0.1453965 0.22336234 0.061996594 0.039050817 -0.45802936
-0.27611297 0.051076923 -0.18873742 -0.099165745 0.09053382 -0.102922 0.13668199 -0.11908937
-0.11491661 -0.5265933 -0.41300696 -0.25353092 -0.05014342 -0.14169599 0.0397848 -0.005247903
-0.078012265 -0.08284438 0.022275921 0.03342836 -0.4463597 0.08817059 -0.097745925 0.19311753
0.34554085 -0.1846142 0.0016526813 -0.19757636 0.07669687 0.053732432 -0.10968781 -0.36019507
-0.6186739 0.028129632 -0.10034269 -0.16291475 0.23701799 -0.057450317 0.009457547 0.32898846
-0.3539954 -0.32951778 -0.3084386 0.2532807 -0.06697898 -0.19784519 0.10444652 0.036379382
-0.13153529 -0.26882017 -0.20482916 -0.16661173 -0.1893014 -0.005314895 0.05033809 0.14777039
-0.36007267 -0.35300955 -0.15442505 0.19926079 0.0400876 0.0756444 0.13820775 -0.25819454
-0.27358112 0.055564433 -0.2395668 -0.026524253 0.09259415 -0.09460974 0.06251951 -0.08948423
-0.038959306 -0.41797286 -0.2768909 -0.15484335 0.19672503 -0.04601621 -0.019995717 0.16822721
0.030766498 -0.09345099 -0.017049992 0.08045928 -0.3143926 0.12337138 -0.10830736 0.28060868
0.17507948 -0.0907937 -0.23011369 -0.09960158 0.07236258 -0.062105913 0.1508998 -0.42798513
-0.48000273 0.07173959 -0.441268 -0.4050002 0.24854799 0.05101065 0.22745581 0.3825713
-0.33888263 -0.23812042 -0.14880769 0.16086634 0.07603941 -0.17692406 0.03575249 -0.0055473754
0.010584651 -0.024652362 -0.07165944 0.12698716 0.105694994 0.011029364 -0.036038876 0.011973769
-0.095135316 -0.01555553 -0.098756015 0.022954013 -0.01377875 0.11948719 -0.13036108 0.06106287
0.049015712 0.07575735 0.02518569 -0.08713019 0.119995475 0.13871466 0.08271755 -0.052910183
0.00026540225 -0.019018268 -0.0015926829 0.14125311 0.030556386 0.010919073 0.07161743 0.11180488
-0.07203448 -0.06179817 0.042747207 0.02664028 0.014419867 0.077151425 -0.030121319 -0.044820305
0.10742231 -0.14571428 -0.02273373 -0.06026689 -0.029825533 -0.09820918 0.07422886 -0.04751405
-0.029340908 -0.0064206957 0.09389944 -0.039213847 -0.09975207 -0.009038986 0.0061750454 -0.0646507
0.0360046 -0.015678253 0.05866011 0.0667794 0.044328343 0.063276194 0.03437776 -0.07698562
-0.03374638 -0.269794 -0.116824135 -0.4018362 -0.2506907 -0.056956097 -0.019132033 -0.09711949
-0.1640188 -0.33605218 -0.30206305 -0.12339488 -0.020327581 0.049839504 -0.10063827 -0.42149404
-0.36681524 -0.19582222 -0.17792787 -0.12483063 -0.04138017 -0.2432963 -0.031042099 -0.39532253
-0.21115577 -0.4447384 -0.4080148 -0.23441958 -0.027256735 -0.0076032276 -0.42289048 -0.08469793
-0.25449356 -0.07100564 -0.18668476 -0.018575449 -0.4144847 -0.03793208 -0.26807958 0.08233746
0.06044703 -0.2742752 -0.1057258 -0.4781092 -0.07216696 -0.07314099 -0.29884478 -0.24241205
-0.72561914 0.056528736 -0.30764854 -0.2989449 0.06664658 -0.16937819 -0.0033243387 0.03102669
-0.4854196 -0.16659608 -0.3745333 -0.16602358 -0.15403628 -0.24022774 -0.19488427 -0.0425141
