backend/telemetry/car13_seq2seq_model.pt (torch, 485197 bytes, 18 tensors)

lstm.weight_ih_l0 f4 [256, 10]
0	0xbe85bdc5	-0.26121345
1	0x3d830d08	0.0639897
2	0xbebde7ba	-0.37090856
3	0xbd2208fd	-0.039559353
4	0xbd3c5cce	-0.045986943
5	0xbd968643	-0.07349827
6	0xbd461e6e	-0.048368864
7	0x3ca4bd0a	0.020109672
8	0x3e58c111	0.21167399
9	0x3e6bb2b8	0.23017395
10	0x3e99f79f	0.30071732
11	0x3cd400e7	0.025879337
12	0x3e0616c5	0.13094623
13	0x3e2f9454	0.17146426
14	0xbe2c1983	-0.16806607
15	0xbe4dcbd9	-0.20097293
16	0xbceb6416	-0.028734248
17	0xbdbb413d	-0.091433026
18	0x3e1c075e	0.15237185
19	0x3e06a973	0.13150577
20	0x3d649f66	0.055816077
21	0xbd8f65d2	-0.070018426
22	0xbd58e2cd	-0.05295067
23	0x3dfe3d8f	0.12414085
24	0xbd85aca0	-0.06527066
25	0xbe9107a3	-0.2832614
26	0x3df6b365	0.120459355
27	0x3e5a7c51	0.21336485
28	0x3bb1aef5	0.005422468
29	0x3db12038	0.08648723
30	0xbe5963be	-0.21229455
31	0x3ee2abf9	0.4427183
32	0xbe3464fc	-0.17616647
33	0xbdd348d9	-0.10316629
34	0xbe1743fd	-0.14772029
35	0xbe4137f8	-0.18869007
36	0xbeb61ecb	-0.35570368
37	0xbe544182	-0.20728114
38	0xbdc0a1e0	-0.09405875
39	0xbde240e1	-0.11047531
40	0xbdc85505	-0.09781841
41	0x3e96f65d	0.29484835
42	0x3d40ed7c	0.047101483
43	0xbdd30014	-0.10302749
44	0x3e8016b3	0.25017318
45	0xbdb0a39b	-0.08624955
46	0x3dd3aea2	0.10336043
47	0xbdb962b1	-0.09052027
48	0xbe32d81e	-0.17465255
49	0xbd79e099	-0.06100521
50	0xbc58550c	-0.0132038705
51	0xbd64804a	-0.05578641
52	0x3dad78b8	0.08470291
53	0x3cee6e91	0.029105457
54	0xbe5e59a5	-0.21713884
55	0xbebeb64a	-0.3724845
56	0x3d065b29	0.03280178
57	0xbe4e1bbb	-0.20127766
58	0x3e4259bf	0.18979548
59	0x3dc54d38	0.09633869
60	0x3e281c0f	0.16416954
61	0x3db30ec0	0.08743048
62	0xbeb2fc02	-0.34957892
63	0xbe4789ed	-0.19486208
64	0xbb92158d	-0.0044581355
65	0xbe9927ac	-0.2991308
66	0xbdc0fb53	-0.09422936
67	0xbe691b96	-0.2276443
68	0x3d86ee8a	0.065884665
69	0xbdcd0be2	-0.10012032
70	0xbe76f29d	-0.24115987
71	0xbe437b53	-0.19090013
72	0xbdc1657f	-0.09443187
73	0x3eb7f55b	0.3592938
74	0xbe2480c0	-0.16064739
75	0xbd769b5b	-0.060206752
76	0xbd385b9f	-0.04500925
77	0xbe32c3e2	-0.17457536
78	0x3d303083	0.043015014
79	0x3cfaa428	0.030595854
80	0xbde8eb88	-0.11373049
81	0x3e3dc164	0.18530804
82	0x3e6472b6	0.22309384
83	0x3d8eb84d	0.06968746
84	0xbe6da069	-0.23205723
85	0xbc8c6a55	-0.017140547
86	0xbe3dcb99	-0.18534698
87	0xbe2ef18b	-0.17084329
88	0x3e0f8bda	0.14018193
89	0x3e5120df	0.20422696
90	0xbcb22674	-0.021746852
91	0xbb52ed7d	-0.003218501
92	0xbeaff96b	-0.34369978
93	0xbe26b116	-0.1627849
94	0xbea74f1b	-0.3267754
95	0x3cb5bcc9	0.022184746
96	0xbe132081	-0.14367868
97	0xbd4e729c	-0.05040227
98	0x3e1077ee	0.1410825
99	0xbd9168a2	-0.07100035
100	0xbf04fdb1	-0.519496
101	0xbe86780e	-0.2626347
102	0xbd754b70	-0.059886396
103	0xbecbaea3	-0.39781675
104	0xbe85665e	-0.26054662
105	0xbeaea7f6	-0.3411252
106	0xbe2d639d	-0.1693253
107	0xbccd0759	-0.025027918
108	0xbe4cee46	-0.20012769
109	0xbe51b10c	-0.20477694
110	0x3e3a1835	0.18173297
111	0x3dfaa308	0.12238127
112	0xbe83304a	-0.2562278
113	0xbefc5c1c	-0.49289024
114	0xbe365a04	-0.17807776
115	0xbd933c5c	-0.07189247
116	0x3dafa8d8	0.08577126
117	0xbe543e79	-0.20726956
118	0xbe4190a5	-0.18902834
119	0xbe282d99	-0.16423644
120	0xbd498517	-0.04919919
121	0x3e83438f	0.2563748
122	0xbe90d293	-0.28285655
123	0xbe1a84cd	-0.15089722
124	0xbced64fe	-0.02897882
125	0x3e1fac55	0.15593083
126	0xbd30737f	-0.043078896
127	0xbd88396f	-0.066515796
128	0xbdc78b42	-0.09743358
129	0xbc410280	-0.011780381
130	0x3f054011	0.5205088
131	0xbd2d8651	-0.042364422
132	0xbeb7b0df	-0.3587713
133	0xbe38c1ee	-0.18042728
134	0xbdf514ec	-0.11966881
135	0xbe073f65	-0.13207777
136	0xbe49260e	-0.19643423
137	0xbd85b4c6	-0.065286204
138	0xbdf41e5f	-0.11919855
139	0xbe42a305	-0.190075
140	0xbe85c34e	-0.26125568
141	0x3d1d151c	0.03835021
142	0x3b316f9f	0.0027074588
143	0x3c9ac165	0.018891046
144	0xbdc90567	-0.098154835
145	0x3bd2e683	0.0064361705
146	0xbd6a946b	-0.05727045
147	0xbc9ba89a	-0.019001294
148	0x3d43e927	0.047829773
149	0x3e8c60cb	0.27417597
150	0x3e805b07	0.25069448
151	0xbe6a3c83	-0.22874646
152	0x3d92f8c2	0.07176353
153	0x3e9ce542	0.3064366
154	0xbe60f2ef	-0.21967672
155	0xbd86f508	-0.06589705
156	0x3e0adf35	0.13561709
157	0x3e54d65f	0.20784901
158	0xbe275782	-0.16341975
159	0x3c593666	0.0132575985
160	0xbe54ac8e	-0.2076895
161	0xbde2094b	-0.11036929
162	0x3dcfd9fa	0.101489976
163	0xbe6687a7	-0.22512685
164	0xbec6be1d	-0.3881692
165	0x3d6cd748	0.057822496
166	0xbd4fb2b1	-0.050707523
167	0xbe60e90e	-0.21963903
168	0x3e332869	0.17495884
169	0x3de3aecd	0.11117325
170	0xbef36116	-0.47535008
171	0x3c5a401b	0.013320948
172	0xbd4b4f74	-0.04963632
173	0xbf043402	-0.5164186
174	0xbe40a19f	-0.18811654
175	0xbe1c0fd0	-0.15240407
176	0xbe7091b9	-0.23493089
177	0x3e2573d7	0.1615747
178	0xbdc49e5f	-0.096005194
179	0x3dc081a0	0.09399724
180	0x3eaf1fad	0.34203854
181	0xbeda6322	-0.42653757
182	0xbe6b5e10	-0.22985101
183	0xbe56ab3f	-0.20963763
184	0xbe09f55e	-0.13472506
185	0xbdd784ae	-0.105233535
186	0xbd711e20	-0.05886662
187	0xbd355610	-0.04427153
188	0xbda2cb19	-0.07948894
189	0xbd234106	-0.039856933
190	0xbdcb869a	-0.099377826
191	0x3e96aa6d	0.294269
192	0x3d3e7ddf	0.04650676
193	0x3df6dbd7	0.1205365
194	0x3ec00192	0.37501198
195	0xbd1cb68f	-0.03826004
196	0x3db26349	0.087103434
197	0xbe133ce9	-0.14378704
198	0x3e17762b	0.14791171
199	0x3db7ca0c	0.08974084
200	0xbe182a26	-0.14859828
201	0x3e4d7465	0.20063932
202	0x3e88e627	0.26738092
203	0xbdf040b9	-0.11731095
204	0x3ea2682c	0.31720102
205	0x3e55abcc	0.20866317
206	0x3cda5460	0.026651561
207	0xbe568a56	-0.20951208
208	0x3e0d9b77	0.13828836
209	0x3d97e603	0.07416918
210	0xbe32e354	-0.17469531
211	0xbdc4cb10	-0.096090436
212	0xbe06959f	-0.13143013
213	0xbdebe58b	-0.11518391
214	0xbd0afff7	-0.033935513
215	0xbe04c556	-0.12965903
216	0xbd9258e3	-0.0714586
217	0xbd502462	-0.050815947
218	0xbd94f5dd	-0.07273457
219	0x3de5fd7a	0.112299874
220	0xbd9caabb	-0.07649752
221	0xbe5a3707	-0.21310054
222	0x3bd7faa5	0.0065911585
223	0x3dbbcbb4	0.09169713
224	0x3e86a777	0.2629964
225	0xbdb09965	-0.08623008
226	0x3e738939	0.23782815
227	0xbd445d80	-0.04794073
228	0xbe58d4b3	-0.21174888
229	0xbe24cee4	-0.16094548
230	0xbc7cfc8f	-0.015441074
231	0x3e91a75f	0.28448007
232	0x3e2baa61	0.16764213
233	0x3e21a867	0.15786897
234	0x3e10e7e7	0.14150964
235	0xbdeca335	-0.11554567
236	0x3dd98f14	0.10622993
237	0xbe0bf08a	-0.13665977
238	0xbe7861f7	-0.2425612
239	0xbe46a222	-0.19397786
240	0xbe976613	-0.29570064
241	0xbe9df6af	-0.30852267
242	0xbe698c1d	-0.22807355
243	0xbe8559a8	-0.26044965
244	0xbda616db	-0.08109828
245	0x3c81c7d2	0.015842352
246	0xbc68d0f7	-0.014209977
247	0xbe526183	-0.2054501
248	0x3e582706	0.21108636
249	0x3e2a11fd	0.16608424
250	0x3e9c79ba	0.3056162
251	0x3e30aa83	0.17252545
252	0xbe884ee3	-0.26622686
253	0x3da477c2	0.080306545
254	0xbdbad005	-0.09121708
255	0x3d232f00	0.039839745

lstm.weight_hh_l0 f4 [256, 64]
0	0xbdfe8f88	-0.1242972
1	0x3ea18ca9	0.31552628
2	0xbd83de77	-0.06438916
3	0x3e61805c	0.22021621
4	0x3e0fe616	0.14052615
5	0x3ddd3be6	0.1080244
6	0x3e240735	0.16018374
7	0x3df531cc	0.119723886
8	0x3d961e91	0.07330049
9	0x3d0eb877	0.034843888
10	0xbe932ade	-0.28743643
11	0x3e6ef8da	0.23337117
12	0x3e11af4f	0.14227031
13	0x3d0c5695	0.03426226
14	0xbdfb6e64	-0.12276915
15	0x3e339001	0.17535402
16	0x3d7750b3	0.060379695
17	0x3e40a612	0.18813351
18	0xbe5114b4	-0.20418054
19	0xbd1e4e8c	-0.038649127
20	0xbe230966	-0.15921554
21	0xbdea5586	-0.114420936
22	0xbd875981	-0.066088684
23	0x3d51ad76	0.051190816
24	0x3ca343c6	0.019929778
25	0x3e9e58e4	0.30927193
26	0x3dae4e72	0.08511056
27	0x3ea36df9	0.3191984
28	0x3e4d0b6b	0.20023887
29	0xbe158077	-0.14599787
30	0x3e498fd7	0.19683777
31	0x3e08c107	0.13354884
32	0xbe0dfebe	-0.13866708
33	0x3e818ccd	0.25302735
34	0xbeb1429a	-0.34621125
35	0xbc7b976e	-0.015355928
36	0xbdf92022	-0.12164332
37	0xbda1b543	-0.07895901
38	0xbe8c72e2	-0.274314
39	0x3d93c259	0.07214803
40	0x3eacd1e7	0.33753893
41	0xbe3556fc	-0.17708963
42	0xbea533d9	-0.3226612
43	0x3e6550ef	0.22394155
44	0x3e7e28ca	0.24820247
45	0xbe8047b1	-0.25054696
46	0xbe8d6fac	-0.2762426
47	0x3cc4008b	0.02392604
48	0x3ed5e21b	0.41774067
49	0xbc90b16b	-0.017662724
50	0xbcf27f11	-0.029601606
51	0x3e228ffc	0.15875238
52	0x3e8738c3	0.26410493
53	0x3c7a410b	0.0152742965
54	0xbc9f459d	-0.019442374
55	0x3e07238c	0.13197154
56	0xbe81bd7a	-0.25339872
57	0x3d64b9f1	0.05584139
58	0x3e9b73db	0.30361828
59	0xbdb4618c	-0.08807668
60	0x3e74c5c3	0.23903565
61	0x3e70edf9	0.2352828
62	0x3e189a09	0.1490251
63	0x3dd5f9f4	0.104480654
64	0xbe1ed5f6	-0.15511307
65	0xbda4ad65	-0.08040885
66	0xbcbd2fe6	-0.023094129
67	0x3e8044d4	0.25052512
68	0x3e4e1527	0.20125256
69	0x3da9a3d3	0.082832
70	0x3dc50fec	0.096221775
71	0x3df5c419	0.12000293
72	0xbdf57e99	-0.11987037
73	0xbba189b3	-0.004929745
74	0x3e671abb	0.2256879
75	0x3dc32a6c	0.09529576
76	0xbe54e1c1	-0.20789243
77	0x3c9e909a	0.01935606
78	0xbd35ccad	-0.044384647
79	0x3da8ad9c	0.08236238
80	0x3e8fe2f4	0.2810284
81	0x3e380ef3	0.17974453
82	0xbe88b015	-0.2669684
83	0x3ce55e9c	0.027999215
84	0xbc45b45b	-0.012066926
85	0x3e0cd116	0.13751635
86	0x3dbacbad	0.09120879
87	0x3db3f8cc	0.087876886
88	0x3dbb49b7	0.09144919
89	0x3ddf65f7	0.1090812
90	0xbe45d0c4	-0.19317919
91	0x3eb7a562	0.35868365
92	0x3e173716	0.14767107
93	0xbda438f4	-0.080186754
94	0xbd92221a	-0.071354106
95	0x3bf308c0	0.0074168146
96	0xbd7061a9	-0.058686886
97	0x3e8d9f6a	0.27660686
98	0x3e730154	0.23730975
99	0x3c8f8482	0.01751924
100	0x3eb09399	0.34487608
101	0xbe1b2eba	-0.15154544
102	0xbcf7d1a1	-0.030251326
103	0x3ed254a4	0.410802
104	0xbe581958	-0.21103418
105	0xbeab0b5f	-0.33407113
106	0x3ea58b03	0.3233262
107	0xbe452245	-0.19251354
108	0xbe9ea309	-0.3098376
109	0xbe495733	-0.1966217
110	0xbdde1a93	-0.108449124
111	0x3bc964d8	0.0061460547
112	0x3e33f64a	0.1757442
113	0xbf0dac93	-0.5534145
114	0xbc789cb4	-0.01517408
115	0x3e9c7f87	0.30566046
116	0x3e3015ea	0.1719586
117	0x3e7acb47	0.24491607
118	0x3d095ccc	0.033535764
119	0xbe64028e	-0.222666
120	0xbe79d1ca	-0.24396434
121	0xbd361289	-0.04445127
122	0x3dd9c992	0.106341496
123	0xbe7ffc9c	-0.24998707
124	0x3e07ca26	0.13260707
125	0xbe36b79c	-0.17843479
126	0x3e748ada	0.23881093
127	0xbd1a767a	-0.037710644
128	0xbd4a1fcd	-0.049346734
129	0x3d434cb9	0.04768059
130	0xbd907d50	-0.070551515
131	0xbe74a618	-0.23891485
132	0xbdbedac6	-0.093190715
133	0x3dab1b65	0.083548345
134	0xbe4e4cc7	-0.20146476
135	0xbc646085	-0.013939028
136	0xbd95e948	-0.073198855
137	0xbd16dc27	-0.036831047
138	0xbd6200ba	-0.055176474
139	0x3e0a8ffe	0.13531491
140	0x3d7d749a	0.061878778
141	0x3e358fe8	0.17730677
142	0xbdaba082	-0.08380224
143	0xbd4c508e	-0.04988151
144	0x3cc030d8	0.02346079
145	0x3e523b9f	0.20530556
146	0xbe8e5d52	-0.27805573
147	0x3e7dc716	0.24782977
148	0x3e8d1b47	0.27559873
149	0x3ea05098	0.31311488
150	0x3c87dbf7	0.01658438
151	0xbdd49f99	-0.10382003
152	0x3e1dfa53	0.15427522
153	0x3e098ddc	0.13433021
154	0x3e7a7e4e	0.24462244
155	0xbd5373e9	-0.051624212
156	0x3d8dfaf7	0.06932633
157	0x3da2983a	0.07939191
158	0xbdf9bb11	-0.12193883
159	0xbd2280f3	-0.039673757
160	0x3e6b67b9	0.22988786
161	0xbdf9caae	-0.12196861
162	0x3ccd5d8b	0.025069019
163	0xbd5b63de	-0.053562038
164	0x3d9baee8	0.0760172
165	0x3d7719ff	0.060327526
166	0x3e1348eb	0.14383285
167	0x3e46889f	0.19388054
168	0x3cf99c15	0.030469934
169	0xbde22b5b	-0.11043426
170	0x3e250ebd	0.16118903
171	0xbe6fdafe	-0.23423383
172	0x3d8fe34c	0.07025775
173	0xbd2e2b86	-0.042521976
174	0x3df09c9e	0.11748622
175	0x3ca33cbd	0.019926423
176	0xbca17fec	-0.019714318
177	0xbea68319	-0.32521895
178	0x3e759062	0.23980859
179	0xbe7c84c5	-0.24660023
180	0x3e6f40fd	0.23364635
181	0xbce340ec	-0.027740918
182	0xbbb6ea3f	-0.0055821235
183	0xbe4a18dd	-0.19736047
184	0xbf004e6b	-0.50119656
185	0xbe20d9d4	-0.15708095
186	0x3d9be1b0	0.07611406
187	0x3e695805	0.22787483
188	0x3d9b78c7	0.07591396
189	0x3e9516be	0.29118913
190	0xbe0527fa	-0.13003531
191	0xbd39f21e	-0.045396917
192	0x3f0d8675	0.5528329
193	0x3e36ce67	0.17852174
194	0xbe635171	-0.22199036
195	0x3eb4061b	0.35160908
196	0x3cccee94	0.025016107
197	0x3cc96e82	0.024588827
198	0x3bd5e755	0.006527821
199	0xbe706ac1	-0.23478223
200	0x3e32d109	0.17462553
201	0xbe11a4f5	-0.14223082
202	0x3e3e6941	0.18594839
203	0xbc625b4f	-0.013815715
204	0x3eb1764c	0.34660566
205	0xbe37276b	-0.1788613
206	0xbd66f0ba	-0.05638192
207	0x3df0dbec	0.11760697
208	0xbb273aa6	-0.0025517135
209	0x3bbed2e6	0.005823481
210	0x38ec458f	0.00011266313
211	0x3d9e43d9	0.07727785
212	0x3eb0a2cc	0.34499204
213	0x3e5f3588	0.21797764
214	0x3e2f4c15	0.17118867
215	0x3d039b1a	0.03213034
216	0x3ded1851	0.115769036
217	0xbaace772	-0.0013191535
218	0x3d4ebec7	0.05047491
219	0x3e195def	0.14977239
220	0x3e53b4e8	0.20674479
221	0x3dea1e74	0.1143159
222	0x3e592fe4	0.21209675
223	0x3e452640	0.19252872
224	0x3e49f218	0.19721258
225	0x3e9eae09	0.30992153
226	0xbe97b1bb	-0.29627785
227	0xbe2bfe35	-0.16796191
228	0x3efa69aa	0.4890874
229	0xbcc8df8a	-0.024520654
230	0x3cc87662	0.024470512
231	0xbe3b042d	-0.18263312
232	0x3e910b34	0.2832886
233	0x3e55042e	0.20802376
234	0x3efb97e6	0.49139327
235	0x3ec4627c	0.38356388
236	0xbe55ac6d	-0.20866556
237	0x3ebfbff1	0.37451127
238	0x3de5b217	0.112156086
239	0x3e4c9735	0.19979556
240	0x3e12e341	0.14344503
241	0x3ee7fe37	0.45311138
242	0xbde205c2	-0.110362545
243	0xbdbc6ad6	-0.09200065
244	0xbb90b206	-0.0044157533
245	0x3eb40884	0.35162747
246	0xbc38c04c	-0.011276316
247	0x3ea42f44	0.3206731
248	0xbe02b97e	-0.12766072
249	0xbec0bf9d	-0.3764619
250	0xbe1d0ddc	-0.15337318
251	0x3db7d0bc	0.0897536
252	0xbebb526d	-0.36586323
253	0xbd8ce919	-0.06880397
254	0x3df920f8	0.121644914
255	0x3e85fb3b	0.26168236

lstm.bias_ih_l0 f4 [256]
0	0x3d5be0d1	0.0536812
1	0xbf8185b9	-1.0118934
2	0xbe8d654d	-0.2761635
3	0xbeefe4f7	-0.46854374
4	0xbdb19721	-0.08671404
5	0xbde1f55b	-0.11033126
6	0xbe90414d	-0.2817482
7	0xbdc3d56e	-0.09562193
8	0xbe01698c	-0.12637919
9	0x3d656769	0.056006823
10	0xbeb7da80	-0.3590889
11	0xbe3dfc09	-0.18553175
12	0x3eadb199	0.3392456
13	0x3e0f41e1	0.13989975
14	0xbdcc8f08	-0.099882185
15	0xbe3697aa	-0.17831293
16	0xbee26296	-0.4421584
17	0xbe7ef708	-0.24898922
18	0xbe30a91a	-0.17252007
19	0xbf20e7d7	-0.6285376
20	0xbe58186e	-0.21103069
21	0xbef2a210	-0.4738927
22	0x3d15a8d2	0.036537953
23	0xbe7307b0	-0.23733401
24	0xbe76ede9	-0.24114193
25	0xbe6ebb78	-0.23313701
26	0xbe504df8	-0.20342243
27	0xbe7af542	-0.24507621
28	0xbeec400f	-0.46142623
29	0xbea09c89	-0.31369427
30	0xbed19ec4	-0.4094144
31	0xbf3a6654	-0.7281239
32	0xbde37956	-0.11107127
33	0x3e090bb6	0.13383374
34	0xbed2468a	-0.41069442
35	0xbee14938	-0.44001174
36	0xbefaaf5c	-0.48961914
37	0xbdc227b0	-0.09480226
38	0xbed74605	-0.42045608
39	0xbe729ca2	-0.23692563
40	0xbf0ec6b9	-0.55771977
41	0xbeb84db1	-0.35996774
42	0xbe1299a9	-0.14316429
43	0xbe8bc9f1	-0.27302507
44	0x3d01acd7	0.031658974
45	0x3db5a8a5	0.08870057
46	0x3d619d0f	0.055081423
47	0xbe50ffa3	-0.20410018
48	0x3d9483e4	0.07251719
49	0xbe646442	-0.2230387
50	0xbf27805a	-0.65430224
51	0xbd4da4e6	-0.050206088
52	0x3db92eb4	0.09042111
53	0xbc3f2107	-0.011665589
54	0xbe991844	-0.29901326
55	0xba83e42d	-0.0010062509
56	0xbddf092d	-0.10890422
57	0xbe2bb819	-0.16769446
58	0xbc9946f9	-0.0187106
59	0xbddda01c	-0.10821554
60	0xbe656117	-0.22400318
61	0xbf00dd86	-0.5033802
62	0xbef8ebb4	-0.48617327
63	0xbe4fe1f0	-0.20301032
64	0xbc8cde27	-0.017195774
65	0xbf4bd433	-0.79620665
66	0xbd8c9130	-0.0686363
67	0xbf03e992	-0.51528275
68	0xbcefd00d	-0.029274011
69	0xbe4b93fe	-0.19880673
70	0xbe8a08a2	-0.2695971
71	0x3cba0094	0.022705354
72	0xbe5afaae	-0.21384689
73	0xbe1a352c	-0.15059346
74	0xbea35307	-0.31899282
75	0xbe878f37	-0.26476452
76	0x3dd6b236	0.1048321
77	0xbe584d59	-0.21123256
78	0xbedddca7	-0.43332407
79	0x3e9ef232	0.31044155
80	0xbe980473	-0.29690894
81	0xbee95465	-0.455722
82	0xbe6be6cc	-0.23037261
83	0xbf06aed8	-0.5261054
84	0xbec0945a	-0.37613183
85	0xbeebeea4	-0.46080506
86	0x3dbcb467	0.092140965
87	0xbe266979	-0.16251172
88	0xbe2fe803	-0.17178349
89	0xbe68fdbe	-0.22753045
90	0xbd37de9f	-0.044890042
91	0xbedbf380	-0.42959213
92	0xbe30f24e	-0.17279932
93	0xbe1bc975	-0.15213569
94	0xbefd00c8	-0.4941466
95	0xbebb2338	-0.36550307
96	0xbe7e8351	-0.2485478
97	0x3eafb0b6	0.34314507
98	0xbea2e35e	-0.31814092
99	0xbee890c8	-0.4542296
100	0xbe4bafc0	-0.19891262
101	0xbe1c3744	-0.15255457
102	0xbeb9b3ae	-0.36269897
103	0xbe86ed93	-0.2635313
104	0xbf14e6ae	-0.5816449
105	0xbef18d11	-0.47177938
106	0xbe31e38f	-0.17371963
107	0xbeebbf77	-0.46044514
108	0xbe59bfb1	-0.2126453
109	0xbdb25f62	-0.08709599
110	0xbdb96d6a	-0.09054072
111	0xbe7e704d	-0.24847527
112	0xbea0d989	-0.31415966
113	0xbd033eb0	-0.032042205
114	0xbf38cc04	-0.72186303
115	0xbecc0ab8	-0.39851928
116	0xbd29e367	-0.041476633
117	0x3d638ec6	0.05555608
118	0xbe9ee50e	-0.3103413
119	0x3c92c361	0.01791543
120	0xbee4ab08	-0.44661736
121	0xbd3cb1ed	-0.04606812
122	0xbeac04ae	-0.3359732
123	0xbe8ea682	-0.2786141
124	0xbe65a8ea	-0.22427717
125	0xbf04966c	-0.51792026
126	0xbf3b9d10	-0.73286533
127	0xbebb72d8	-0.36611056
128	0x3e178f05	0.14800651
129	0xbc4bfaaa	-0.0124499
130	0x3e764708	0.24050534
131	0xbe893eb0	-0.2680564
132	0xbd23995f	-0.039941188
133	0xbce29cb7	-0.027662618
134	0xbe13912b	-0.14410846
135	0xbe419d73	-0.18907718
136	0xbe780b8a	-0.24223152
137	0x3e1d2c64	0.15348965
138	0xbe8c1e02	-0.27366644
139	0x3dc31d67	0.095270924
140	0xbd8671b0	-0.06564653
141	0x3ba65290	0.00507576
142	0xbe31ceba	-0.17364016
143	0xbdedced9	-0.11611719
144	0xbc44b113	-0.012005108
145	0x3e69b473	0.22822742
146	0x3bf2b8c8	0.0074072815
147	0x3a6ab432	0.0008953243
148	0x3e0018c9	0.12509455
149	0xbdbbc890	-0.09169114
150	0xbe381a30	-0.1797874
151	0x3d98b489	0.07456309
152	0xbd3d729a	-0.04625187
153	0x3c7e39f6	0.015516749
154	0x3e04a3f4	0.12953168
155	0xbdd005b4	-0.10157338
156	0xbdfa77ef	-0.12229907
157	0x3dfc0b05	0.12306789
158	0x3c3e47c4	0.01161379
159	0x3c978833	0.018497562
160	0xbe9a5254	-0.30140936
161	0xbe346051	-0.17614867
162	0xbc98332e	-0.018579092
163	0xbe2bff35	-0.16796573
164	0xbe1df456	-0.15425238
165	0x3d96cd3b	0.07363363
166	0x3e8f2a5b	0.27962002
167	0x3d62ca05	0.055368442
168	0xbe484db6	-0.19560894
169	0x3d07fded	0.033201147
170	0xbea73883	-0.32660303
171	0xbe020974	-0.12698919
172	0x3ded32fc	0.1158199
173	0xbd44826f	-0.047975954
174	0x3942da04	0.00018582499
175	0xbc1dde9c	-0.009635594
176	0xbda97439	-0.08274121
177	0x3e5a1eb9	0.21300782
178	0x3e2253a8	0.15852225
179	0xbdabe794	-0.083937794
180	0xbc35cc09	-0.011096009
181	0xbe077bea	-0.13230863
182	0xbea4d268	-0.32191777
183	0xbd98f634	-0.074688345
184	0xbda64ee6	-0.081205174
185	0x3e87933d	0.2647952
186	0x3e4dfe9a	0.20116654
187	0x3e274c38	0.16337669
188	0x3d6b3509	0.057423625
189	0x3e992521	0.2991114
190	0xbdc6a90f	-0.09700214
191	0x3e71d156	0.23615012
192	0x3d69da7b	0.057093125
193	0xbf565c0d	-0.8373421
194	0xbd1c755d	-0.038197864
195	0xbedecdfe	-0.43516535
196	0x3d719d3b	0.058987837
197	0x3db00131	0.08593977
198	0xbe7be0af	-0.24597429
199	0x3e0f67c1	0.14004423
200	0xbdeac416	-0.11463182
201	0x3df7eff8	0.12106317
202	0xbe1603b2	-0.14649847
203	0xbe4e3f86	-0.2014142
204	0x3d1be5e9	0.038061056
205	0xbcb6f821	-0.022335114
206	0xbe37bd7d	-0.17943378
207	0xbec9ca33	-0.39412078
208	0xbe9f443a	-0.3110674
209	0xbe26dff7	-0.16296373
210	0x3d31b2d5	0.04338344
211	0xbf1ae286	-0.605019
212	0xbe525332	-0.20539549
213	0xbf38cdde	-0.7218913
214	0xbd54b834	-0.051933482
215	0xbe8b49e7	-0.2720482
216	0xbdd37efd	-0.103269555
217	0xbb00ecbd	-0.0019672357
218	0xbd600271	-0.05468983
219	0xbebd2721	-0.36943915
220	0xbdb329ec	-0.0874823
221	0xbe9c1b8a	-0.3048976
222	0xbebb4a80	-0.36580276
223	0xbf6500b3	-0.8945419
224	0xbdebd59e	-0.115153536
225	0xbdcab2f3	-0.09897413
226	0xbed2514f	-0.4107766
227	0xbec6d5b7	-0.38834926
228	0xbf1c0539	-0.6094547
229	0xbca6edea	-0.020377118
230	0xbed973e4	-0.4247123
231	0xbe419ddc	-0.18907875
232	0xbf06aa62	-0.52603734
233	0xbf048b38	-0.5177493
234	0xbe554aa7	-0.20829259
235	0xbe77e4e0	-0.24208403
236	0x3dce61d9	0.10077257
237	0xbdabddb1	-0.08391894
238	0x3e5fb659	0.21846904
239	0xbdeb471e	-0.11488174
240	0x3dd04b30	0.10170591
241	0xbe9e35cc	-0.3090042
242	0xbf24b627	-0.6434044
243	0xbd9d69ff	-0.07686233
244	0xbbff791a	-0.007796419
245	0x3d20a555	0.039220173
246	0xbe1cd3a8	-0.15315115
247	0xbd9bc41f	-0.076057665
248	0xbdf984ea	-0.121835545
249	0xbe719625	-0.23592432
250	0xbae450a6	-0.0017419055
251	0xbda17ac6	-0.07884745
252	0xbe63203e	-0.22180268
253	0xbe8cde5e	-0.27513403
254	0xbf054e19	-0.5207229
255	0xbde2ddb2	-0.11077441

lstm.bias_hh_l0 f4 [256]
0	0x3dab97ae	0.0837854
1	0xbf5b705e	-0.85718334
2	0xbe336e91	-0.17522646
3	0xbed71329	-0.42006806
4	0x3dd4dd1f	0.10393738
5	0xbe075343	-0.13215356
6	0xbe30cc73	-0.17265491
7	0x3980374d	0.00024455265
8	0xbd845c5b	-0.06462928
9	0x3da4182e	0.080124244
10	0xbec164f8	-0.37772346
11	0xbe6bf425	-0.23042352
12	0x3eb31b27	0.34981653
13	0xbc58d8a9	-0.01323525
14	0xbe930f40	-0.28722572
15	0xbde48d4a	-0.11159761
16	0xbeda2fc8	-0.4261458
17	0xbe8e6298	-0.27809596
18	0xbe40eabe	-0.18839547
19	0xbf21d5ed	-0.6321705
20	0xbec169cb	-0.37776026
21	0xbf24d2cb	-0.64384145
22	0xbd85650c	-0.06513414
23	0xbebf861c	-0.37407005
24	0xbd724ce4	-0.05915536
25	0xbdbd7315	-0.09250466
26	0xbe5fd1c6	-0.21857366
27	0xbe782539	-0.2423295
28	0xbec09a55	-0.37617746
29	0xbe7290ab	-0.23687999
30	0xbe86faea	-0.26363307
31	0xbf5d4258	-0.8642936
32	0xbe1dd482	-0.15413097
33	0x3dc25080	0.094880104
34	0xbe5d802d	-0.21630926
35	0xbeceac86	-0.40366
36	0xbf0a8e22	-0.5412313
37	0x3d5313c0	0.051532507
38	0xbe4669a6	-0.19376239
39	0xbe18b6f8	-0.14913547
40	0xbef1b5e8	-0.47209096
41	0xbe9e79db	-0.30952343
42	0xbcd394e1	-0.025827827
43	0xbe5940da	-0.21216145
44	0xbdd4d90e	-0.103929624
45	0xbdb38b0d	-0.08766756
46	0x3e084445	0.13307293
47	0xbe06975f	-0.13143681
48	0x3da820f4	0.0820941
49	0xbe883df4	-0.26609766
50	0xbf0f5799	-0.5599304
51	0xbdd7ed66	-0.10543327
52	0xb938bb66	-0.00017617419
53	0x3c7e461e	0.015519647
54	0xbe02286a	-0.12710729
55	0xbde9a0bb	-0.1140761
56	0xbe0e76e1	-0.13912536
57	0xbe8c2d64	-0.2737838
58	0xbda339b0	-0.079699874
59	0xbe9980d6	-0.29981107
60	0xbe88af9f	-0.26696488
61	0xbf0132db	-0.50468224
62	0xbf039e0b	-0.5141303
63	0xbe385272	-0.180002
64	0x3dcd2293	0.1001636
65	0xbf416563	-0.7554533
66	0x3c09640a	0.008385668
67	0xbeadab36	-0.33919686
68	0x3d9c4964	0.07631186
69	0xbdcea35d	-0.10089753
70	0xbe81d031	-0.2535415
71	0xbe1f134b	-0.15534703
72	0xbdd719c4	-0.10502961
73	0xbdfdbc22	-0.12389399
74	0xbe726b55	-0.23673756
75	0xbe5fafcd	-0.21844406
76	0x3e3e8737	0.18606268
77	0xbe0851dd	-0.13312478
78	0xbed900f1	-0.4238353
79	0x3e561218	0.2090534
80	0xbe918069	-0.28418282
81	0xbe9589d7	-0.29206726
82	0xbe7b9225	-0.24567468
83	0xbece5d67	-0.40305635
84	0xbe510f66	-0.2041603
85	0xbeba80a0	-0.36426258
86	0x3e56792c	0.20944661
87	0xbdfe39f2	-0.12413396
88	0xbdf08e7b	-0.11745926
89	0xbe42eba8	-0.19035208
90	0xbd8b06ac	-0.06788382
91	0xbed56914	-0.4168173
92	0xbe576bae	-0.2103717
93	0xbe5b24ab	-0.21400706
94	0xbefe7fd1	-0.4970689
95	0xbef28e78	-0.4737432
96	0xbe9fd9d4	-0.31220877
97	0x3ea37096	0.31921834
98	0xbe73467e	-0.2375736
99	0xbf045b4a	-0.51701796
100	0xbe6f4a3a	-0.23368159
101	0xbe6f1b8c	-0.23350352
102	0xbef47870	-0.47748137
103	0xbe825a19	-0.25459364
104	0xbef6c682	-0.48198324
105	0xbe9d5537	-0.30729076
106	0xbe1f7ccd	-0.15574951
107	0xbec36849	-0.381655
108	0xbd9ce73f	-0.07661294
109	0xbe091adf	-0.13389157
110	0xbe642464	-0.22279507
111	0xbe908520	-0.28226566
112	0xbea5bd97	-0.32371208
113	0xbd1b1af2	-0.037867494
114	0xbf28e34a	-0.65971816
115	0xbe59f5a0	-0.21285105
116	0xbe49b2fd	-0.19697185
117	0xbd271161	-0.04078806
118	0xbe480a9b	-0.19535296
119	0xbe2f7292	-0.17133549
120	0xbeaa06d6	-0.3320834
121	0x3d64bd8d	0.055844832
122	0xbebb7f9e	-0.36620802
123	0xbe8a8a22	-0.27058512
124	0xbe5ddfdc	-0.21667427
125	0xbf116421	-0.5679341
126	0xbf27c5a2	-0.6553594
127	0xbeb13f4a	-0.34618598
128	0x3d8e44b6	0.06946699
129	0xbd97c673	-0.07410898
130	0x3e815158	0.25257373
131	0xbea8808e	-0.3291058
132	0xbd833f4e	-0.06408559
133	0xbd8bb52f	-0.068216674
134	0xbe60ac4d	-0.21940728
135	0xbe318d55	-0.1733907
136	0xbe5fc438	-0.21852195
137	0x3e3f678e	0.18691847
138	0xbe3796ae	-0.17928573
139	0x3ce9745d	0.02849787
140	0xbe86a4ec	-0.262977
141	0xbe419009	-0.18902601
142	0xbeaa14dd	-0.33219042
143	0xbe2746bd	-0.16335578
144	0xbe2a31f1	-0.16620614
145	0x3e46838d	0.1938612
146	0xbb3837c0	-0.0028109401
147	0x3dbd5796	0.09245221
148	0x3d5fc299	0.054628942
149	0xbe0179c0	-0.126441
150	0xbe5e1b52	-0.2169011
151	0x3db04357	0.08606594
152	0xbc70122a	-0.014652768
153	0xbc8cf550	-0.017206818
154	0x3e60ff8e	0.21972486
155	0xbe0effab	-0.13964717
156	0xbe9585dc	-0.2920369
157	0x3e354d85	0.17705353
158	0xbc5e80dc	-0.013580527
159	0xbc8f7d19	-0.017515706
160	0xbe69f364	-0.22846752
161	0xbebd9e3f	-0.37034795
162	0x3df4c182	0.11950971
163	0xbe4c4613	-0.19948606
164	0xbd497c8a	-0.049191035
165	0xbe017efa	-0.12646094
166	0x3e6d8149	0.2319385
167	0x398d05ea	0.00026898022
168	0xbe1b3f4c	-0.15160865
169	0x3e3feefb	0.18743508
170	0xbe92d149	-0.28675297
171	0xbe120609	-0.14260115
172	0x3e191c01	0.14952089
173	0xbd3940f9	-0.04522798
174	0xbb8633fe	-0.0040955534
175	0xbd48d38d	-0.049029876
176	0xbe4607dd	-0.19338937
177	0x3e9c6403	0.30545053
178	0x3e0d8022	0.1381841
179	0x3dd14f80	0.102202415
180	0xbd10e512	-0.03537471
181	0xbe010c2c	-0.126023
182	0xbeb1cc4a	-0.34726173
183	0xbe8ca5f0	-0.2747035
184	0xbd2a1615	-0.041524965
185	0x3eb4aaa3	0.35286435
186	0x3d87b5a3	0.06626441
187	0x3d7a451a	0.061101057
188	0x3b072bd7	0.0020625496
189	0x3ebd894b	0.3701881
190	0xbe0309f8	-0.12796772
191	0x3d6ecedd	0.05830275
192	0xbce5b0ce	-0.028038409
193	0xbf83d61a	-1.0299714
194	0xbe0483ac	-0.12940854
195	0xbe8ef02e	-0.27917618
196	0x3e03f309	0.1288568
197	0x3d3db6c1	0.046316866
198	0xbecb10bb	-0.39661202
199	0x3e66bf71	0.22533967
200	0x3ccc367e	0.024928328
201	0x3e70912e	0.23492882
202	0xbe542171	-0.20715882
203	0xbe4813f8	-0.19538867
204	0xba418f42	-0.0007383713
205	0x3e168f5f	0.14703129
206	0xbe98ccff	-0.298439
207	0xbee6c877	-0.45074818
208	0xbed020c6	-0.40650004
209	0xbe164209	-0.14673628
210	0xbd0f7fb7	-0.035033908
211	0xbf31f414	-0.6951306
212	0xbeb658c6	-0.35614604
213	0xbefebc7f	-0.49753186
214	0x3d482ee6	0.04887285
215	0xbe9bdb47	-0.30440733
216	0xbe2b84ff	-0.16749953
217	0xba63e62c	-0.0008693661
218	0xbdbe1eb0	-0.09283197
219	0xbee8e2ab	-0.45485434
220	0xbe1311cb	-0.14362256
221	0xbebc6480	-0.36795425
222	0xbe549981	-0.20761682
223	0xbf4f867d	-0.8106459
224	0xbe3b3c0b	-0.18284623
225	0xbe3aa613	-0.18227415
226	0xbeb67f5b	-0.3564404
227	0xbe88bfad	-0.26708737
228	0xbf102327	-0.5630364
229	0xbe5c9d77	-0.21544443
230	0xbee4d35c	-0.44692504
231	0xbda857aa	-0.082198456
232	0xbf1e128c	-0.6174705
233	0xbef1f126	-0.47254294
234	0xbdcce66b	-0.10004886
235	0xbea25f9a	-0.31713563
236	0x3d627892	0.055290766
237	0xbdd60647	-0.10450416
238	0x3e426eb5	0.18987544
239	0xbe1f0467	-0.15529023
240	0x3e29165c	0.16512436
241	0xbed7a4d0	-0.4211793
242	0xbf0c95a1	-0.54915816
243	0xbe005c78	-0.12535274
244	0x3d3dc6ae	0.046332054
245	0xbe036988	-0.12833226
246	0xbe1869ce	-0.14884111
247	0xbda03585	-0.07822708
248	0xbe3db1b1	-0.18524815
249	0xbe184bf7	-0.14872728
250	0xbd3a06c7	-0.04541662
251	0xbcf46f73	-0.0298383
252	0xbe1fb43a	-0.15596095
253	0xbeeb7c78	-0.459934
254	0xbf1c66f7	-0.6109461
255	0xbde40088	-0.11132914

lstm.weight_ih_l1 f4 [256, 64]
0	0xbf0321d8	-0.51223516
1	0x3e92f5a2	0.28703028
2	0x3ea9874a	0.3311103
3	0x3ef52ad8	0.4788425
4	0xbead329d	-0.33827677
5	0x3ed3421a	0.4126137
6	0xba46175c	-0.00075565814
7	0xbdd879ee	-0.10570131
8	0xbd91eb25	-0.071249284
9	0xbcbd8ce4	-0.023138471
10	0x3dcac1ae	0.09900223
11	0xbd06e160	-0.032929778
12	0x3cf53261	0.02993125
13	0xbe76326b	-0.2404267
14	0x3e82c8dc	0.2554387
15	0xbbb9fa98	-0.005675625
16	0xbd95c781	-0.07313443
17	0xbe584f0c	-0.21123904
18	0x3d1bba92	0.038019724
19	0x3e8031a9	0.25037888
20	0x3e0cf084	0.13763624
21	0xbe1701c4	-0.14746767
22	0x3eabecd8	0.33579135
23	0xbf06a3da	-0.5259377
24	0x3ca483a4	0.020082302
25	0xbea1b64b	-0.3158439
26	0xbe1a7be0	-0.15086317
27	0x3cdee047	0.027206553
28	0x3ec849ca	0.39118797
29	0xbb097fac	-0.002098064
30	0xbdea201b	-0.11431905
31	0x3e665c2a	0.22496095
32	0x3d8be435	0.068306364
33	0x3e3e353c	0.18574995
34	0x3ddbf3f6	0.10739891
35	0xbe63f0f0	-0.22259879
36	0xbc1526cd	-0.009103489
37	0xbe3bfdfa	-0.18358603
38	0xbe17317c	-0.1476497
39	0x3dad95f1	0.08475865
40	0x3b9139ed	0.004431954
41	0x3ebdaed4	0.37047446
42	0x3de490cc	0.1116043
43	0xbd527033	-0.051376533
44	0xbde40720	-0.111341715
45	0xbd67c59f	-0.05658495
46	0x3eaaa338	0.3332765
47	0x3eb06bd2	0.3445726
48	0x3ed63d46	0.41843623
49	0x3eba3a60	0.36372662
50	0xbcf09299	-0.029366778
51	0xbcacef25	-0.021110127
52	0x3dcacd7b	0.099024735
53	0xbd2b402f	-0.041809257
54	0x3ddcd386	0.107825324
55	0x3e8b7e91	0.27245
56	0x3e6700bb	0.22558872
57	0xbedeaada	-0.43489724
58	0x3d207c65	0.039181132
59	0x3db8645b	0.09003516
60	0xbc22ead0	-0.009943679
61	0xbe4b551b	-0.19856684
62	0xbe7e01c7	-0.24805366
63	0xbdc1ac91	-0.094567426
64	0xbea3ec80	-0.32016373
65	0x3bd757a5	0.0065717273
66	0xbe8d9947	-0.27656004
67	0x3e1c0521	0.15236332
68	0xbe039229	-0.12848724
69	0x3d821200	0.063510895
70	0xbd97063c	-0.07374236
71	0x3dc0ff94	0.09423748
72	0xbcc194b2	-0.023630474
73	0x3d5bd746	0.053672098
74	0xbe782911	-0.24234416
75	0xbdd73c10	-0.10509503
76	0x3ea4fee5	0.3222572
77	0x3e975ff9	0.2956541
78	0x3ead6c0d	0.338715
79	0x3d06a1b0	0.03286904
80	0xbe06fa92	-0.13181522
81	0x3baa2e08	0.0051934756
82	0x3d874119	0.06604213
83	0x3f06baa9	0.5262857
84	0xbe706360	-0.23475409
85	0x3d25c59c	0.040471658
86	0x3cb9a975	0.022663811
87	0xbe4360a3	-0.19079833
88	0xbd40b228	-0.047044903
89	0xbe5be2c0	-0.21473217
90	0xbe6a49c9	-0.2287971
91	0xbce848ec	-0.028355084
92	0xbe2cc7c3	-0.16873078
93	0x3e3e8cb1	0.18608357
94	0x3d926d56	0.071497604
95	0xbdb85861	-0.09001232
96	0xbe2817a1	-0.16415264
97	0x3f307967	0.68935245
98	0xbcaffe81	-0.021483662
99	0xbd69c146	-0.057069086
100	0x3e8d2893	0.27570018
101	0x3d015825	0.0315782
102	0x3dcae447	0.09906822
103	0x3e40109d	0.18756337
104	0x3d62d60e	0.05537992
105	0xbeaa2b19	-0.33236006
106	0x3e7d7620	0.24752092
107	0xbed8e2f4	-0.42360651
108	0x3e2f9449	0.1714641
109	0xbd9f6039	-0.07782025
110	0xbdc07d68	-0.09398919
111	0xbe17fa8f	-0.14841674
112	0xbd683d4a	-0.056699075
113	0x3d2c350b	0.042042773
114	0xbda79399	-0.08182449
115	0xbd8c1494	-0.068398625
116	0x3dad4c0a	0.08461769
117	0x3ece8411	0.40335134
118	0x3de5a397	0.11212843
119	0xbe09f45d	-0.13472123
120	0x3e4341f4	0.19068128
121	0xbdcdd004	-0.100494415
122	0xbe72e3bc	-0.23719686
123	0xbe95c036	-0.29248208
124	0xbc2b35e1	-0.010449857
125	0x3e47d33b	0.19514172
126	0xbe81deec	-0.25365388
127	0xbe32c5fa	-0.17458335
128	0xbe2b0f50	-0.1670506
129	0xbe084157	-0.13306175
130	0xbebb29d0	-0.36555338
131	0x3e760243	0.240243
132	0x3e8edf5f	0.27904794
133	0xbe33bd07	-0.17552577
134	0xb7594940	-1.2951263e-05
135	0xbcf06446	-0.02934469
136	0x3d799310	0.060931265
137	0xbec257b7	-0.37957546
138	0xbc688a8d	-0.014193189
139	0xbdbe5990	-0.092944264
140	0x3ecc2b9a	0.39877015
141	0xbd930758	-0.07179135
142	0x3e43cd42	0.19121268
143	0x3d9543bd	0.07288311
144	0x3e279a42	0.16367438
145	0xbe0f755b	-0.14009611
146	0xbe0e1f24	-0.13879067
147	0xbce9ec58	-0.02855508
148	0x3ea052ba	0.31313115
149	0xbd9e2efc	-0.07723805
150	0x3d49d016	0.04927071
151	0xbd9d3ae9	-0.07677252
152	0x3e9ff16f	0.31238887
153	0xbcd96ac3	-0.026540166
154	0xbdbed0cd	-0.09317169
155	0xbe757ccf	-0.23973392
156	0x3e5dbad5	0.21653302
157	0x3e07def1	0.13268639
158	0xbd9c7e4a	-0.07641275
159	0xbdd248bf	-0.102677815
160	0x3e7ad3bf	0.24494837
161	0x3dc2f61b	0.09519597
162	0xbebcad33	-0.3685089
163	0xbe3d9abe	-0.1851606
164	0x3dc4838c	0.09595403
165	0x3e787217	0.24262272
166	0xbdf4d381	-0.11954404
167	0xbe430b4e	-0.19047281
168	0x3eb9f51b	0.36319813
169	0x3ee8350d	0.45352975
170	0x3de2b5ef	0.11069857
171	0xbcce6a75	-0.025197247
172	0xbe2d5e09	-0.16930403
173	0x3dbc1861	0.091843374
174	0x3deff143	0.11715939
175	0x3dfab690	0.12241852
176	0xbf12dba2	-0.57366383
177	0x3e99d694	0.30046523
178	0xbee33137	-0.44373485
179	0xbe47bbfb	-0.19505303
180	0x3e1ca32d	0.15296622
181	0xbe43bdfc	-0.19115442
182	0x3ebfa67c	0.37431705
183	0xbcfcd1ba	-0.030861724
184	0xbdcbcc0c	-0.09951028
185	0xbf1443d3	-0.5791599
186	0xbe8f1431	-0.27945092
187	0x3e32170b	0.17391603
188	0x3e4f525b	0.2024626
189	0xbda61bc0	-0.08110762
190	0xbe76a949	-0.24088015
191	0x3b88d072	0.0041752392
192	0xbf0e4fa2	-0.5559026
193	0xbe355f72	-0.17712191
194	0x3d6899fd	0.05678748
195	0x3e26ad86	0.16277131
196	0xbe804c3f	-0.2505817
197	0x3e1b1a11	0.15146662
198	0x3ef331ae	0.4749884
199	0x3ef056f8	0.46941352
200	0x3e1d304b	0.15350454
201	0x3ee1d4a7	0.44107553
202	0xbef82c12	-0.48471123
203	0x3d585868	0.052818686
204	0x3e3e8341	0.18604757
205	0xbe833aa9	-0.25630692
206	0x3e0df3eb	0.13862579
207	0x3da2e3d3	0.0795361
208	0x3e38873f	0.18020342
209	0x3eb669a1	0.35627463
210	0x3dcf0c45	0.10109762
211	0x3e1e1592	0.15437916
212	0x3dd231a1	0.10263372
213	0xbf36a08b	-0.7133872
214	0x3e47ba68	0.19504702
215	0x3e34f44e	0.1767132
216	0xbde77693	-0.11301913
217	0xbe028a63	-0.12748103
218	0xbe076d6b	-0.13225333
219	0x3c1637df	0.009168594
220	0x3d94dd6f	0.072687976
221	0xbec9a18e	-0.3938107
222	0x3e83302d	0.25622693
223	0x3e81ee47	0.25377104
224	0xbdd75a74	-0.105152994
225	0x3d10e21b	0.03537188
226	0x3ce70474	0.028200366
227	0x3dba4543	0.09095242
228	0xbe9d921a	-0.3077553
229	0xbe8951d9	-0.26820257
230	0xbece3f6a	-0.40282756
231	0x3e66adbf	0.22527216
232	0x3db61568	0.08890802
233	0x3dbbac1f	0.09163689
234	0x3eb5454c	0.35404432
235	0x3eb18472	0.3467136
236	0xbe0999c9	-0.1343757
237	0xbe8313dc	-0.2560109
238	0xbd4c1524	-0.04982485
239	0xbe2b732b	-0.16743152
240	0x3d5f094d	0.05445223
241	0x3d20f57a	0.039296605
242	0xbeb2fa24	-0.34956467
243	0x3e3b6ccd	0.18303223
244	0x3dc180c5	0.09448389
245	0xbea5d278	-0.32387137
246	0x3f0faf96	0.561273
247	0x3efdd585	0.49576965
248	0x3ec3d27f	0.38246533
249	0xbdaef9d7	-0.08543747
250	0xbe700822	-0.23440602
251	0xbe2510d0	-0.16119695
252	0xbebab71f	-0.36467835
253	0x3d5cd806	0.053916954
254	0xbeea3ee7	-0.45751116
255	0xbe07b95b	-0.13254301

lstm.weight_hh_l1 f4 [256, 64]
0	0x3e913437	0.2836015
1	0xbe4f3c22	-0.20237783
2	0xbdce8c8c	-0.10085401
3	0x3ad2b429	0.001607542
4	0xbdd458e8	-0.1036852
5	0x3dcbae23	0.09945323
6	0x3df4b99d	0.119494654
7	0xbd93fcc3	-0.07225945
8	0x3e14a381	0.14515497
9	0xbe1a1b93	-0.15049581
10	0x3e000706	0.12502679
11	0xbdd492c9	-0.103795595
12	0x3da8cd0c	0.082422346
13	0xbe0f1c34	-0.13975602
14	0x3dc5f4a0	0.09665799
15	0xbe0f5ec2	-0.14000991
16	0xbd800368	-0.0625065
17	0xbe03db6a	-0.12876669
18	0x3e40b9cb	0.18820874
19	0xbe9a7ff4	-0.30175745
20	0x3d9456f5	0.07243148
21	0x3dfe7c11	0.124260075
22	0xbda908bf	-0.08253621
23	0x3e61e06c	0.22058266
24	0xbd2d04ae	-0.04224079
25	0xbb00473c	-0.001957371
26	0x3c8cbc10	0.017179519
27	0x3e0e8401	0.13917543
28	0xbc515224	-0.0127759315
29	0x3d92963e	0.07157563
30	0xbe87c70d	-0.2651905
31	0xbea79333	-0.32729492
32	0xbe18aa7e	-0.14908788
33	0xbdb0b356	-0.086279556
34	0xbe62b786	-0.22140321
35	0xbd87f5c8	-0.06638676
36	0xbe2750fa	-0.16339484
37	0x3bc9d839	0.006159809
38	0xbe56533c	-0.20930189
39	0x3e0204fb	0.12697212
40	0xbe6fcf4b	-0.2341892
41	0x3e6c632f	0.2308471
42	0xbe42a183	-0.19006924
43	0xbe25df80	-0.1619854
44	0xbe61aa58	-0.22037637
45	0xbd984a92	-0.07436098
46	0xbc1b686c	-0.009485345
47	0x3dd9dcac	0.10637793
48	0xbe0cd888	-0.13754475
49	0xbe18a664	-0.14907223
50	0x3cd3a6ed	0.025836432
51	0x3e9bf7dc	0.3046254
52	0xbe762e65	-0.24041136
53	0x3e5ac75e	0.21365115
54	0xbd3f0465	-0.04663505
55	0x3d42ed11	0.047589365
56	0x3db56f25	0.0885909
57	0x3e03a2b3	0.12855034
58	0xbd9c4323	-0.07629993
59	0x3eac2f95	0.33630052
60	0xbee013bd	-0.4376506
61	0x3c4d3410	0.01252462
62	0xbe25cd01	-0.16191484
63	0xbe402a56	-0.1876615
64	0x3d563e39	0.052305434
65	0xbe36ba68	-0.17844546
66	0x3e8577f2	0.26068074
67	0xbd104c1c	-0.035228834
68	0x3f142af3	0.57878035
69	0xbd1fe498	-0.039036363
70	0x3d980677	0.07423108
71	0x3db5aba6	0.0887063
72	0xbe8276c2	-0.2548123
73	0xbd539bd3	-0.051662277
74	0x3e917fc0	0.28417778
75	0xbdd83624	-0.105572015
76	0x3d72e059	0.059295986
77	0xbce962f1	-0.028489562
78	0xbd9f5c9d	-0.077813365
79	0xbe3fdecd	-0.18737336
80	0xbdf212b7	-0.11819976
81	0x3e14752e	0.14497826
82	0x3d80ee19	0.062954135
83	0xbe600741	-0.21877767
84	0xbd703592	-0.05864484
85	0x3e2b60a6	0.16736087
86	0x3e3905f5	0.18068679
87	0x3de275db	0.110576354
88	0x3cba2715	0.022723714
89	0xbe9441a6	-0.28956336
90	0xbe188e88	-0.14898121
91	0x3e5fec2e	0.21867439
92	0xbaa8918e	-0.0012860761
93	0xbdb64893	-0.08900561
94	0xb9468366	-0.00018931701
95	0xbbd2ca1a	-0.006432784
96	0x3e654a19	0.22391547
97	0xbb21ef66	-0.0024709343
98	0xbe270132	-0.1630905
99	0x3dd6cd01	0.1048832
100	0x3b9e365a	0.0048282566
101	0xbc65fc6b	-0.014037232
102	0xbe73a190	-0.237921
103	0xbdc36ade	-0.09541868
104	0x3e0ef58f	0.1396086
105	0xbe42c223	-0.1901937
106	0xbe28989f	-0.1646447
107	0xbeb708c4	-0.35748875
108	0xbb976196	-0.0046197874
109	0xbd87aed0	-0.0662514
110	0xbcc463d6	-0.023973387
111	0x3c54b5e1	0.012982816
112	0xbd511f72	-0.05105538
113	0xbdc24de8	-0.09487516
114	0xbe3a0412	-0.18165615
115	0xbe0e1468	-0.13874972
116	0x3e062a77	0.13102137
117	0xbeef1507	-0.4669573
118	0xbd9b3445	-0.07578329
119	0x3cd8169f	0.026377974
120	0xbe6d54b3	-0.23176841
121	0xbddf996a	-0.10917933
122	0x3e21d251	0.15802886
123	0xbe84c5bb	-0.25932106
124	0x3d4066bd	0.04697298
125	0xbe2ddcee	-0.16978809
126	0xbdab19ab	-0.08354505
127	0xbd2f462d	-0.042791534
128	0xbdd20e85	-0.10256676
129	0x3e79a0c5	0.24377735
130	0xbe248722	-0.16067174
131	0xbdda3012	-0.106537
132	0xbddeb2ea	-0.10873969
133	0x3e850b05	0.2598497
134	0x3e02aa44	0.12760264
135	0x3e86b015	0.26306215
136	0x3d7a2615	0.061071474
137	0xbe8c7d9d	-0.27439585
138	0x3e110d45	0.14165218
139	0xbe62a2e2	-0.22132447
140	0x3dc1cb57	0.09462612
141	0xbd84f982	-0.06492902
142	0x3e38bb01	0.18040086
143	0xbe8de5b7	-0.2771432
144	0xbdf361cb	-0.11883887
145	0x3df98607	0.12183767
146	0xbd236323	-0.039889466
147	0xbe0d7446	-0.13813886
148	0x3c173114	0.00922801
149	0xbd09561a	-0.03352938
150	0x3ae8ca96	0.0017760571
151	0x3d080b66	0.033213995
152	0x3dddcb3f	0.10829782
153	0xbe143aa3	-0.14475493
154	0xbe047079	-0.1293353
155	0x3e1f4447	0.1555339
156	0xbeb8178f	-0.35955474
157	0x3dba1f9a	0.09088059
158	0x3e3fc3ad	0.18726988
159	0xbeb05f03	-0.34447488
160	0x3de3ac16	0.11116807
161	0x3d70a3b6	0.058749877
162	0xbd835bcf	-0.064139955
163	0xbdc292cb	-0.09500655
164	0xbc4a4c80	-0.012347341
165	0xbe31219b	-0.17297976
166	0xbdb4ea46	-0.088337466
167	0xbcf5731c	-0.029962115
168	0xbce38bdf	-0.027776657
169	0x3d71c2fc	0.059023842
170	0xbe4850f3	-0.1956213
171	0xbe9bd13d	-0.30433074
172	0xbd5e91c3	-0.054338228
173	0xbeb536e0	-0.3539343
174	0x3e0cd8a9	0.13754524
175	0x3da600f0	0.081056476
176	0xbe109587	-0.1411954
177	0xbea1f78b	-0.31634173
178	0xbd4075aa	-0.046987213
179	0x3ddac878	0.10682768
180	0xbe699a7d	-0.22812839
181	0xbe92c2a2	-0.28664118
182	0x3cb91b2b	0.022595963
183	0x3d9fefb7	0.07809394
184	0x3db40c9d	0.08791468
185	0xbe35c87b	-0.17752258
186	0x3d9ee698	0.07758826
187	0xbe78eba4	-0.2430864
188	0xbb8b98b1	-0.0042601456
189	0x3ad32e74	0.0016111867
190	0x3de6431b	0.11243268
191	0x3d41ac9d	0.047283757
192	0x3cfc659d	0.030810172
193	0xbe973e49	-0.29539707
194	0x3e1e0bf8	0.15434253
195	0x3c2d6ea2	0.010585459
196	0x3e716b36	0.23576054
197	0xbc7bf6fc	-0.01537871
198	0x3e6e14df	0.23250149
199	0xbcff4c93	-0.031164443
200	0xbea0be0b	-0.3139499
201	0xbe4a1919	-0.19736136
202	0xbcfd753a	-0.030939687
203	0xbe1ede4e	-0.1551449
204	0xbc7474f4	-0.014920462
205	0x3ebc9c51	0.3683801
206	0x3dbaae64	0.091152936
207	0xbd5241dc	-0.05133234
208	0xbd021d1f	-0.031766053
209	0x3eb36d0f	0.35044143
210	0x3f00c2ba	0.5029713
211	0x3e4ee7e3	0.20205645
212	0xbdc1bfa5	-0.094603814
213	0x3dbb8911	0.09157003
214	0xbda8e3b8	-0.08246559
215	0x3dc7dc1b	0.09758779
216	0x3c2b043a	0.010438019
217	0xbe365cd5	-0.1780885
218	0xbe86df3b	-0.26342186
219	0x3e18b382	0.14912227
220	0xbed06974	-0.40705454
221	0x3e5196b2	0.20467642
222	0x3e1100ef	0.14160512
223	0xbf02090b	-0.5079505
224	0x3d81786f	0.06321799
225	0x3cfa11ea	0.03052612
226	0xbe0d5f59	-0.13805903
227	0xbd4c5d73	-0.049893808
228	0x3db577ec	0.08860764
229	0xbe0137a2	-0.12618878
230	0xbe9256ec	-0.2858194
231	0x3ddbc95c	0.10731766
232	0xbd852792	-0.06501688
233	0xbeca909f	-0.39563462
234	0xbe382928	-0.1798445
235	0xbeb20907	-0.34772512
236	0xbdbb053f	-0.0913186
237	0xbeb107ce	-0.34576267
238	0x3e85bfa1	0.26122764
239	0x3e574ed0	0.21026158
240	0xbe07cc5d	-0.13261552
241	0x3eaea21f	0.34108064
242	0x3d62f5cb	0.055410188
243	0x3e1178bc	0.14206213
244	0xbe87e389	-0.26540783
245	0x3cdf0c1b	0.027227452
246	0x3ec90e24	0.392686
247	0xbd0caeab	-0.034346264
248	0x3e02b6b2	0.12765005
249	0x3e104f39	0.14092721
250	0xbda20801	-0.07911683
251	0xbe06f41a	-0.13179055
252	0xbe211e26	-0.15734157
253	0xbeb31922	-0.34980112
254	0x3e20a199	0.15686645
255	0x3d7221eb	0.059114378

lstm.bias_ih_l1 f4 [256]
0	0xbe6ff047	-0.23431502
1	0xbf07d629	-0.5306116
2	0xbec87af6	-0.39156312
3	0xbf186908	-0.59535265
4	0xbdec03d9	-0.115241714
5	0xbf280d6b	-0.65645474
6	0xbdaadfe7	-0.08343487
7	0xbf342c43	-0.7038004
8	0xbd1914f1	-0.037373487
9	0xbe6c245a	-0.23060742
10	0xbe8ddba3	-0.27706632
11	0xbe7c458d	-0.24635907
12	0xbed59db5	-0.41721883
13	0xbee13539	-0.43985918
14	0xbdb4ea4e	-0.088337526
15	0xbeab0226	-0.33400077
16	0x3d0423cc	0.0322607
17	0xbf2bc01d	-0.67090017
18	0x3c1cd039	0.0095711285
19	0xbeada9e0	-0.33918667
20	0xbf2604a1	-0.64850813
21	0x3c414c09	0.011797913
22	0xbe11fac4	-0.14255816
23	0xbdccc061	-0.09997631
24	0xbdaaaec0	-0.08334112
25	0x3cd6b6a9	0.026210146
26	0xbf033479	-0.5125194
27	0xbe529812	-0.20565823
28	0x3d800272	0.062504664
29	0xbf089e3d	-0.5336645
30	0xbe46e157	-0.19421898
31	0xbdb69ddc	-0.08916828
32	0xbecf92f7	-0.40541813
33	0x3e13a9c6	0.14420232
34	0xbe85f6d4	-0.26164877
35	0xbe40db5b	-0.18833677
36	0xbe886f19	-0.2664726
37	0xbe97b7ac	-0.29632318
38	0xbf1b25c3	-0.60604495
39	0xbea9a932	-0.33136898
40	0x3d9b6631	0.07587851
41	0xbf50c03a	-0.81543314
42	0xbdb45539	-0.088053174
43	0xbe7a063c	-0.2441644
44	0x3d23440e	0.039859824
45	0x3d32760b	0.043569606
46	0xbee9f96d	-0.4569811
47	0xbe966e73	-0.2938114
48	0xbf1ea67d	-0.6197279
49	0xbecb1ea2	-0.39671808
50	0xbf3dde65	-0.7416747
51	0xbe634244	-0.22193247
52	0xbf36c6cf	-0.7139711
53	0x3d928bd3	0.071555756
54	0xbe54d423	-0.20784049
55	0xbdce868e	-0.10084258
56	0xbe1693c5	-0.14704807
57	0xbf018773	-0.50597304
58	0xbe297b13	-0.16550855
59	0xbe928b1e	-0.28621763
60	0xbe89f163	-0.26941976
61	0xbf12da21	-0.5736409
62	0xbea17996	-0.31538075
63	0xbf0714d6	-0.5276617
64	0xbe4cc090	-0.19995332
65	0xbf19ea19	-0.6012283
66	0xbed54366	-0.41652983
67	0xbf3a3dd8	-0.72750616
68	0xbeb2cfd2	-0.3492418
69	0xbf224443	-0.6338541
70	0xbdf30836	-0.118668005
71	0xbf0b498d	-0.54409105
72	0xbe3697d8	-0.17831361
73	0x3d71b65c	0.059011802
74	0xbe746cd8	-0.23869646
75	0xbe7802eb	-0.24219863
76	0xbf1cb166	-0.6120819
77	0xbea3c530	-0.3198638
78	0xbe447e1b	-0.1918873
79	0xbceea457	-0.029131098
80	0x3e24b8ca	0.16086116
81	0xbee2fefd	-0.44335166
82	0x3b44c67f	0.003002554
83	0xbe47dcc2	-0.19517806
84	0xbeb94ae9	-0.36189964
85	0x3e69613d	0.22791
86	0xbe8ad816	-0.27117985
87	0xbe3c12ca	-0.18366542
88	0xbe86cb7a	-0.26327115
89	0x3e0afa04	0.13571936
90	0xbef65d97	-0.48118278
91	0xbe5d6a79	-0.21622647
92	0xbe1793c8	-0.14802468
93	0xbe982d7f	-0.2972221
94	0xbe23f7e6	-0.16012534
95	0x3d9ee4f2	0.077585116
96	0xbe0d76d3	-0.13814859
97	0x3e0b2554	0.13588458
98	0xbe17c3cb	-0.14820783
99	0xbe1904ac	-0.14943188
100	0xbdd65fbb	-0.10467478
101	0xbe378938	-0.17923439
102	0xbf402cff	-0.7506866
103	0xbde624f0	-0.11237514
104	0x3e7052a7	0.2346903
105	0xbf283559	-0.657064
106	0x3e58df1c	0.2117886
107	0xbec1c127	-0.37842676
108	0xbd79ba72	-0.060968824
109	0xbd837372	-0.06418504
110	0xbdeeda2c	-0.11662707
111	0xbd994e22	-0.07485606
112	0xbf03bd91	-0.5146113
113	0xbe779c87	-0.24180804
114	0xbedbc6d4	-0.4292513
115	0xbeae014e	-0.3398537
116	0xbf5fcbe2	-0.87420475
117	0xbdbaca25	-0.09120587
118	0x3ddade39	0.10686917
119	0xbed4e944	-0.41584218
120	0xbcab7ad1	-0.020932587
121	0xbea68965	-0.325267
122	0xbe7471ef	-0.23871587
123	0xbe6de8f0	-0.2323339
124	0xbe6b56f1	-0.22982384
125	0xbe6ab23c	-0.22919554
126	0xbdfb4f7c	-0.1227102
127	0xbea07d95	-0.3134581
128	0xbc1cdca3	-0.009574088
129	0xbd3c21a8	-0.045930535
130	0x3d4af67e	0.04955148
131	0x3e308712	0.17239025
132	0x3da27daf	0.079341285
133	0x3c967bb7	0.018369539
134	0x3de94fe2	0.113921896
135	0xbe08bba1	-0.13352825
136	0x3e00e841	0.12588598
137	0x3d9e1efc	0.077207536
138	0xbe13ce5f	-0.14434193
139	0x3e81f69d	0.25383464
140	0x3dc45d47	0.09588104
141	0xbd4bd33b	-0.049761992
142	0xbe0849c7	-0.13309394
143	0x3e0f72cb	0.14008634
144	0xbcacc4c7	-0.021089924
145	0xbd088798	-0.033332437
146	0x3d54190b	0.051781695
147	0x3e63722a	0.22211519
148	0xbddb95f8	-0.10721964
149	0xbe2497af	-0.16073488
150	0xbe145f0e	-0.14489385
151	0x3e2bb595	0.16768487
152	0x3dc65cae	0.09685646
153	0x3ce19907	0.02753879
154	0x3e017767	0.12643205
155	0xbe63fe00	-0.22264862
156	0x3dec9420	0.1155169
157	0x3d212cc5	0.039349336
158	0x3c6782ff	0.014130353
159	0x3d9205e4	0.0713003
160	0xbdbd89bc	-0.09254786
161	0x3d9591a9	0.07303173
162	0x3cf0b6cd	0.029384041
163	0x3d6bd84a	0.057579316
164	0x3dc50945	0.09620909
165	0xbe507fe2	-0.20361283
166	0x3cda4c74	0.026647784
167	0x3dd5a958	0.104326904
168	0x3e60bdfd	0.21947475
169	0x3dc23e75	0.09484569
170	0x3d9fac08	0.07796484
171	0x3e65216d	0.22376032
172	0x3e15ee21	0.1464162
173	0x3d9f95d3	0.077922486
174	0x3de6bc2c	0.1126636
175	0xbe1586f6	-0.14602265
176	0x3d9a0f3a	0.075224355
177	0x3befe2e7	0.00732075
178	0x3ea16ff4	0.31530726
179	0x3d7c1f03	0.061553013
180	0x3da5c526	0.08094244
181	0xbe4c5dd7	-0.19957672
182	0xbd81aa04	-0.06331256
183	0xbd8ae290	-0.067814946
184	0x3e14ea5e	0.14542529
185	0x3db73591	0.08945764
186	0xbe1560c2	-0.14587691
187	0xbdb76d55	-0.089564
188	0x3db0c7f0	0.08631885
189	0x3da36c86	0.079796836
190	0xbd4163ff	-0.047214504
191	0xbdcecf33	-0.10098114
192	0xbe8e6376	-0.27810258
193	0xbf075c49	-0.5287519
194	0xbe888433	-0.2666336
195	0xbec73a22	-0.3891154
196	0x3b8045d2	0.003914573
197	0xbee8c4df	-0.454627
198	0xbe440e6e	-0.1914613
199	0xbf0b40d6	-0.54395807
200	0x3ddd89c1	0.1081729
201	0xbdce4887	-0.10072427
202	0xbeab31d5	-0.33436456
203	0xbeb38502	-0.35062414
204	0xbf24a3a6	-0.6431221
205	0xbe8cc1dd	-0.27491656
206	0xbe0af348	-0.13569367
207	0xbeb00e1c	-0.34385765
208	0xbd4d12af	-0.050066646
209	0xbf31d359	-0.69463116
210	0x3df2c846	0.118546054
211	0xbec3a71c	-0.38213432
212	0xbf1c8b80	-0.6115036
213	0x3e6e08c4	0.23245531
214	0xbe92116b	-0.28528914
215	0xbdffaea5	-0.12484483
216	0xbe8b4930	-0.27204275
217	0xbd96f27b	-0.07370468
218	0xbf03fa28	-0.51553583
219	0x3cee9867	0.029125405
220	0xbd49ec17	-0.04929742
221	0xbee64cfd	-0.44980612
222	0xbe92cf5d	-0.2867383
223	0xbd0361b8	-0.032075614
224	0xbe0ec5c9	-0.13942637
225	0x3e00233f	0.12513445
226	0xbeb7e1f5	-0.3591458
227	0xbe218aec	-0.1577565
228	0xbe76d32e	-0.24103996
229	0xbd99e856	-0.07515018
230	0xbf297b38	-0.6620364
231	0xbe39b834	-0.18136674
232	0xbe391df4	-0.18077832
233	0xbf5e646f	-0.86872
234	0x3de87777	0.11350911
235	0xbe8bfd3d	-0.27341643
236	0x3d8d08d9	0.06886453
237	0x3e832272	0.25612217
238	0xbeace340	-0.33767128
239	0xbe7c2d47	-0.24626647
240	0xbf0ac9fe	-0.54214466
241	0xbe7b1468	-0.24519503
242	0xbf05c050	-0.5224657
243	0xbe66b30d	-0.2252924
244	0xbf4e6dff	-0.8063659
245	0xbd23b16c	-0.039964125
246	0xbc047f5d	-0.008087006
247	0xbde66f90	-0.112517476
248	0xbe1bf4d8	-0.15230119
249	0xbe93da97	-0.28877708
250	0x3af46ddb	0.0018648462
251	0xbed6681f	-0.41876313
252	0xbe8a199b	-0.2697266
253	0xbf042d9c	-0.51632094
254	0xbe9dbbdb	-0.30807385
255	0xbee36574	-0.4441334
