backend/telemetry/car13_10s.pt (torch, 216549 bytes, 10 tensors)

lstm.weight_ih_l0 f4 [256, 10]
-0.1271532 0.124203436 -0.13599838 -0.11366245 -0.07347328 0.057111382 -0.008675322 -0.07362191
0.08805422 -0.12454586 -0.06730889 0.124316566 -0.08156599 0.028342834 0.031726006 0.12799525
-0.12301244 -0.073618196 -0.007157293 0.09778467 -0.08128749 -0.002153251 0.12521198 -0.055241756
-0.030248469 -0.04451828 0.031786144 0.008577421 -0.053081375 0.0072265374 -0.046243265 -0.03616531
0.06583607 -0.023616817 0.1284949 -0.02427209 -0.0767971 -0.08965505 0.018603563 0.050489973
0.023850884 -0.069271594 0.081026606 -0.13476372 -0.09579949 -0.14135978 0.117914885 -0.042877804
0.064972036 0.08471916 0.08467413 -0.018438496 0.011606242 0.077800326 -0.111469224 -0.059061427
0.044393197 -0.06312099 0.020133847 -0.051732145 -0.12453121 -0.09572118 0.054943778 -0.05285002
0.10298788 0.08974199 -0.085142955 -0.017030865 0.1223934 -0.022245528 -0.0057462533 0.103416435
-0.0043563647 0.09669757 -0.06970252 -0.053936232 0.0976346 0.0030771564 0.06647863 0.07452523
-0.026035465 -0.053782977 0.08581307 -0.023128627 -0.11757643 0.057690557 0.039032787 -0.10786977
-0.12956081 -0.10842596 -0.08532714 -0.12059063 -0.0695631 -0.09522538 -0.023219267 0.12144225
0.108492866 0.08882567 -0.11259669 0.01224048 -0.01776017 0.03212479 -0.014806002 0.036515076
-0.13900758 -0.11188052 0.117999166 0.0738409 -0.102732465 0.07946446 -0.09998529 0.09094316
-0.01882173 -0.11520021 -0.04625402 0.06850849 0.017454967 -0.120397694 -0.095362976 0.09232078
-0.1164376 0.1023806 -0.08049757 0.07536656 -0.04574168 -0.04276458 0.1038115 0.026951173
-0.073249884 -0.0025196187 -0.12000236 -0.00796233 -0.068085745 0.10007998 0.14442053 -0.05732952
-0.050232887 0.07766578 0.10846465 -0.012416539 -0.10513462 -0.14549106 -0.111413315 -0.10146473
-0.007633698 0.05653461 -0.013766274 -0.045451585 -0.03184045 0.046855543 0.10748522 -0.0027189201
0.015484052 0.13197735 -0.030893067 -0.0010214613 0.08711694 0.031294376 -0.09855855 0.124211274
0.0055183284 0.081545085 0.13530943 0.008805103 -0.009315092 -0.047438174 0.083238676 -0.12609954
0.047785886 -0.09474062 -0.029929921 -0.012913846 0.09991196 0.015544154 0.04480382 -0.07824051
0.04359162 -0.030235834 -0.028180765 0.12316283 0.05092925 0.016985007 -0.030224625 -0.03186861
-0.03755788 -0.091459274 0.054705024 0.043837972 -0.10400348 0.07066166 0.06475574 0.062259614
0.10601294 0.019299066 0.09911876 0.01183441 -0.06348291 -0.051414985 0.10790064 -0.024440978
-0.07558002 -0.11029288 0.00026004508 -0.068977185 -0.05504199 -0.06809417 -0.060414076 0.10972217
-0.05425808 -0.11781831 -0.073851794 -0.080625325 0.01028001 0.112712234 -0.08718347 0.007987707
0.043694362 0.07438167 0.12589514 0.1408793 0.08720031 0.039414145 -0.09676543 -0.13656837
0.07312068 -0.10179877 -0.08298831 -0.10920656 0.04413568 -0.0513847 -0.0069665215 -0.07661735
0.05907266 -0.08144895 0.07241805 -0.09005128 0.010582134 -0.16400418 0.09886317 -0.08995425
0.03595137 -0.1265485 0.10017044 0.09356399 0.13577604 0.13797183 0.023957118 -0.026807223
0.038365953 -0.07796825 -0.01378455 -0.13836078 0.08346691 0.018486524 -0.09339343 -0.06968615
00000000: 7334 02be 5f5e fe3d 2943 0bbe dcc7 e8bd
00000010: 2979 96bd a0ed 693d f022 0ebc 15c7 96bd
00000020: c555 b43d e611 ffbd 3ed9 89bd af99 fe3d
00000030: 120c a7bd 3b2f e83c 21f3 013d 3011 033e
00000040: f2ed fbbd 23c5 96bd ba87 eabb 5443 c83d
00000050: 0e7a a6bd 8f1d 0dbb 9237 003e 2e45 62bd
00000060: a3cb f7bc cd58 36bd 3032 023d 5088 0c3c
00000070: db6b 59bd 97cc ec3b 9469 3dbd 1322 14bd
00000080: 10d5 863d 0e78 c1bc 2b94 033e 43d6 c6bc
00000090: cc47 9dbd 119d b7bd 8066 983c 93ce 4e3d
000000a0: ee62 c33c 44de 8dbd 47f1 a53d 80ff 09be
000000b0: 8632 c4bd 9ec0 10be 5c7d f13d a3a0 2fbd
000000c0: 0f10 853d 3d81 ad3d a169 ad3d 540c 97bc
000000d0: 1b28 3e3c c755 9f3d fa49 e4bd 65ea 71bd
000000e0: a4d5 353d 9445 81bd bdef a43c 16e5 53bd
000000f0: 380a ffbd 7709 c4bd ba0c 613d 4379 58bd
00000100: 4feb d23d a6ca b73d 6e5f aebd 5084 8bbc
00000110: 64a9 fa3d 413c b6bc 114b bcbb ffcb d33d
00000120: d6bf 8ebb 6009 c63d 32c0 8ebd 3dec 5cbd
00000130: a6f4 c73d 1eaa 493b f325 883d afa0 983d
00000140: 5448 d5bc 8a4b 5cbd c3be af3d 3f78 bdbc
00000150: e9cb f0bd ef4c 6c3d d8e0 1f3d d3ea dcbd
00000160: 97ab 04be 6e0e debd ffbf aebd 38f8 f6bd
00000170: 1977 8ebd 8605 c3bd 5536 bebc b7b6 f83d
00000180: 8231 de3d 3cea b53d 1899 e6bd 4b8c 483c
00000190: c77d 91bc 4995 033d e094 72bc d590 153d
000001a0: 0158 0ebe 9d21 e5bd 8ca9 f13d e639 973d
000001b0: 6665 d2bd 43be a23d 16c5 ccbd 6840 ba3d
000001c0: 0730 9abc 16ee ebbd db74 3dbd 2e4e 8c3d
000001d0: b8fd 8e3c 1193 f6bd aa4d c3bd ad12 bd3d
000001e0: d676 eebd ecac d13d e9db a4bd c859 9a3d
000001f0: a15b 3bbd ea29 2fbd 209b d43d b5c8 dc3c
00000200: 0904 96bd 3020 25bb ccc3 f5bd 6f74 02bc
00000210: 8a70 8bbd bcf6 cc3d fae2 133e 5cd2 6abd
00000220: 00c1 4dbd 3d0f 9f3d b722 de3d bd6e 4bbc
00000230: d250 d7bd 9cfb 14be aa2c e4bd becc cfbd
00000240: 1a24 fabb d690 673d f08b 61bc 712b 3abd
00000250: 226b 02bd 99eb 3f3d 3621 dc3d e92f 32bb
00000260: d2b0 7d3c 1225 073e 7513 fdbc 8ee2 85ba
00000270: 5e6a b23d 882e 003d 11d9 c9bd 7b62 fe3d
00000280: 18d3 b43b 1c01 a73d 8e8e 0a3e 4743 103c
00000290: 549e 18bc 884e 42bd 0a79 aa3d 3d20 01be
000002a0: 22bb 433d 5f07 c2bd 982f f5bc 9994 53bc
000002b0: a49e cc3d e8ac 7e3c 3684 373d 8f3c a0bd
000002c0: 208d 323d 24b1 f7bc 59db e6bc cb3c fc3d
000002d0: 309b 503d 2424 8b3c a299 f7bc a988 02bd
000002e0: 4bd6 19bd 004f bbbd 6012 603d 728f 333d
000002f0: c7ff d4bd 0fb7 903d a89e 843d f003 7f3d
00000300: 501d d93d 1319 9e3c c7fe ca3d 1de5 413c
00000310: 5403 82bd 8598 52bd 03fb dc3d 7238 c8bc
00000320: b3c9 9abd 3ce1 e1bd a956 8839 e943 8dbd
00000330: b673 61bd f574 8bbd c074 77bd 04b6 e03d
00000340: b83d 5ebd ba4a f1bd 9c3f 97bd e41e a5bd
00000350: 7d6d 283c acd5 e63d 3f8d b2bd dfde 023c
00000360: dcf8 323d 6b55 983d a8ea 003e aa42 103e
00000370: 1396 b23d ba70 213d f42c c6bd 94d8 0bbe
00000380: 4cc0 953d e07b d0bd c6f5 a9bd b0a7 dfbd
00000390: 9dc7 343d c378 52bd 6b47 e4bb 8fe9 9cbd
000003a0: 2cf6 713d b5ce a6bd ea4f 943d ce6c b8bd
000003b0: b060 2d3c b6f0 27be c678 ca3d ef39 b8bd
000003c0: be41 133d ee95 01be 2926 cd3d 7a9e bf3d
000003d0: e008 0b3e 7d48 0d3e b841 c43c d29a dbbc
000003e0: 9e25 1d3d d1ad 9fbd 98d8 61bc 73ae 0dbe
000003f0: b3f0 aa3d 0d71 973c 0e45 bfbd 9db7 8ebd

lstm.weight_hh_l0 f4 [256, 64]
0.12650156 -0.019454906 0.06447463 0.067528404 0.113986656 0.10168072 0.03216654 -0.040104732
0.07411948 0.1501061 -0.02460276 -0.041039232 0.024686 -0.06696435 0.07054848 -0.08257305
-0.04363827 -0.014407668 -0.04417068 0.14406212 0.039740793 0.05897783 -0.0260103 -0.041893467
0.103853546 -0.09362765 0.08859953 -0.048795354 0.01779705 0.07513528 0.059409678 0.042038526
-0.08647769 -0.11017393 0.0155141475 0.05893423 0.09333176 -0.115772665 0.005791609 -0.05074578
0.047533944 -0.05941395 -0.07563196 0.1424625 -0.016940963 -0.037320167 0.027591115 0.028028853
0.076103106 -0.030084377 -0.097607166 -0.04245983 0.03173235 0.053643037 0.03497903 0.05754382
-0.013177404 -0.08523206 -0.094307214 -0.116692774 0.09773421 -0.00836979 0.030872006 0.031122457
0.027910726 0.085210554 0.02792314 -0.12156004 0.055244707 -0.10927344 -0.034491394 0.055984136
0.10178964 -0.15150948 0.024486564 0.0341183 0.11305607 0.094178595 -0.024980685 0.12001747
-0.025883038 0.0793946 0.1026224 -0.091945074 0.014400877 -0.07111293 0.03883899 -0.056611754
0.101649106 -0.10264993 -0.070587434 0.034714717 0.043283213 0.1022576 0.06509301 0.00610427
0.089681484 0.12785552 -0.023630183 0.10171578 0.020817792 0.056130864 -0.041338146 -0.05162424
-0.032700427 -0.012335145 0.06907597 -0.117105685 0.10021129 0.038540445 -0.08105293 0.08070986
0.0691448 -0.042439282 -0.104859844 0.021625876 -0.02386944 0.09715853 0.0069851186 -0.104452424
-0.07592063 0.10005233 -0.01896427 -0.08487634 0.015345614 -0.093487605 0.022854501 0.030979065
0.03289042 0.03510383 0.024405167 0.074118316 0.01312568 0.08910621 0.03147365 -0.063102804
-0.05516479 -0.12552811 -0.057899557 -0.011505379 -0.020866355 0.14312905 -0.10114862 0.08816233
0.029143684 -0.08973232 -0.031419028 -0.044960964 -0.0022987186 -0.019734234 0.038218092 0.05699695
0.019422563 0.03032786 0.039072033 0.077238545 0.04632783 -0.015344658 0.06677271 -0.0075973044
-0.04453771 -0.0044202073 -0.11632255 0.006860183 -0.0708993 0.11733509 0.059366 0.0023493778
0.08886617 0.0373106 -0.009334221 -0.07639686 0.05590492 0.13805227 -0.06021581 -0.07401256
-0.12169317 -0.012906111 -0.15290324 0.04711305 -0.037000503 0.046915073 -0.12158702 -0.07729795
-0.06885843 0.030960565 -0.007264771 -0.030903071 0.08346914 -0.054725394 0.048286818 -0.1348362
0.02833857 0.058732163 0.095438264 0.006157568 -0.09747067 -0.046393204 -0.013779524 -0.10623805
0.013512927 0.080119684 -0.089496106 -0.07535671 -0.01145976 0.110586196 -0.12250111 0.10194147
-0.1365421 -0.08778365 0.0038107436 -0.086825676 0.10118027 -0.06253007 0.04540669 0.04029882
0.12648651 0.039034642 -0.10257447 -0.007235438 -0.08086436 -0.08363038 -0.049358886 -0.0538007
0.013301305 -0.026441671 -0.11900837 -0.031895824 0.10259735 0.08358658 -0.064924896 0.10701212
-0.076256774 -0.093228236 -0.040461853 0.023997584 -0.013139397 0.051922817 0.059861727 0.06631284
-0.0663434 -0.084784865 0.07421292 -0.054103512 -0.0070453314 -0.1158037 0.08348758 -0.044924296
-0.0052501704 -0.09619605 -0.103568494 -0.09430846 -0.08184436 -0.15028599 0.0865731 0.0029710953
00000000: a089 013e e55f 9fbc 460b 843d 554c 8a3d
00000010: d671 e93d fb3d d03d 10c1 033d dc44 24bd
00000020: f4cb 973d 6ab5 193e ba8b c9bc c118 28bd
00000030: 4b3a ca3c 9b24 89bd b97b 903d 0f1c a9bd
00000040: 0bbe 32bd 240e 6cbc 51ec 34bd 0585 133e
00000050: 3ec7 223d bd92 713d 8d13 d5bc 7c98 2bbd
00000060: 2bb1 d43d dabf bfbd ac73 b53d a3dd 47bd
00000070: 1ecb 913c 87e0 993d 9057 733d 9730 2c3d
00000080: 371b b1bd dfa2 e1bd 0d2f 7e3c 0565 713d
00000090: b924 bf3d 381a edbd 8ac7 bd3b cfda 4fbd
000000a0: f4b2 423d 0b5c 73bd eee4 9abd b1e1 113e
000000b0: c6c7 8abc 08dd 18bd c306 e23c c49c e53c
000000c0: f2db 9b3d 8373 f6bc 44e6 c7bd 5cea 2dbd
000000d0: c8f9 013d cdb8 5b3d 2c46 0f3d 12b3 6b3d
000000e0: 0ae6 57bc 258e aebd 2424 c1bd 9ffc eebd
000000f0: e028 c83d 7221 09bc 4ae7 fc3c 86f4 fe3c
00000100: 09a5 e43c df82 ae3d 12bf e43c 78f4 f8bd
00000110: 4648 623d c1ca dfbd d946 0dbd 9f4f 653d
00000120: 1677 d03d 4d25 1bbe 0c98 c83c a1bf 0b3d
00000130: f189 e73d b5e0 c03d 4ba4 ccbc b8cb f53d
00000140: aa08 d4bc a399 a23d b12b d23d b34d bcbd
00000150: a8f1 6b3c a8a3 91bd a215 1f3d bae1 67bd
00000160: 682d d03d 203a d2bd 2590 90bd 0531 0e3d
00000170: bd49 313d 6f6c d13d 7c4f 853d 5406 c83b
00000180: edaa b73d 8fec 023e 1694 c1bc 5d50 d03d
00000190: 138a aa3c 7ae9 653d 3052 29bd f073 53bd
000001a0: e2f0 05bd 5919 4abc b477 8d3d 1bd5 efbd
000001b0: 943b cd3d 96dc 1d3d 14ff a5bd 364b a53d
000001c0: ca9b 8d3d d0d4 2dbd c2c0 d6bd c028 b13c
000001d0: d889 c3bc 0dfb c63d 6ce3 e43b 27eb d5bd
000001e0: 467c 9bbd 3ce8 cc3d f55a 9bbc a6d3 adbd
000001f0: 2c6c 7b3c 6e76 bfbd 5d39 bb3c cfc7 fd3c
00000200: 1bb8 063d 09c9 0f3d 58ed c73c 58cb 973d
00000210: 180d 573c 517d b63d 84ea 003d 0b3c 81bd
00000220: 7af4 61bd 718a 00be 1628 6dbd 0f81 3cbc
00000230: ebef aabc 6c90 123e 0227 cfbd 748e b43d
00000240: bcbe ee3c 94c5 b7bd 3db1 00bd fd28 38bd
00000250: 19a6 16bb b0a9 a1bc 938a 1c3d a275 693d
00000260: 111c 9f3c 2272 f83c ff09 203d 3e2f 9e3d
00000270: 40c2 3d3d 2968 7bbc 21c0 883d cff2 f8bb
00000280: 2c6d 36bd 63d7 90bb 843a eebd 63cb e03b
00000290: a733 91bd 614d f03d c329 733d 05f8 193b
000002a0: 77ff b53d 00d3 183d 8fee 18bc f575 9cbd
000002b0: 8ffc 643d 935d 0d3e daa4 76bd e693 97bd
000002c0: 453a f9bd 2774 53bc ab92 1cbe 9df9 403d
000002d0: d78d 17bd 052a 403d 9e02 f9bd 634e 9ebd
000002e0: a605 8dbd 03a1 fd3c 510d eebb 7028 fdbc
000002f0: def1 aa3d bc27 60bd 66c8 453d 8012 0abe
00000300: 4a26 e83c 2391 703d 2375 c33d 6dc5 c93b
00000310: b49e c7bd cd06 3ebd 83c3 61bc 5693 d9bd
00000320: 5365 5d3c ca15 a43d bc49 b7bd 9e54 9abd
00000330: b8c1 3bbc 047b e23d dde1 fabd b0c6 d03d
00000340: b1d1 0bbe eac7 b3bd abbd 793b a9d1 b1bd
00000350: 9a37 cf3d c40f 80bd 5efc 393d 6010 253d
00000360: ae85 013e cae2 1f3d 9012 d2bd 4117 edbb
00000370: 379c a5bd 6846 abbd 8b2c 4abd 1f5e 5cbd
00000380: b7ed 593c 349c d8bc a9ba f3bd 32a5 02bd
00000390: 8f1e d23d 712f ab3d 58f7 84bd 2c29 db3d
000003a0: 832c 9cbd 72ee bebd 54bb 25bd 9596 c43c
000003b0: a046 57bc 05ad 543d 9231 753d 07cf 873d
000003c0: 0cdf 87bd b0a3 adbd f2fc 973d a59b 5dbd
000003d0: 86dc e6bb 7e2a edbd 89fb aa3d 8a02 38bd
000003e0: 9f09 acbb 6f02 c5bd b81b d4bd cb24 c1bd
000003f0: 049e a7bd 92e4 19be 3d4d b13d b5b6 423b

lstm.bias_ih_l0 f4 [256]
-0.050080284 -0.00913291 -0.07403066 0.087750725 0.11395624 -0.024650246 0.12114308 -0.034599498
-0.05522061 0.11208093 -0.041821234 0.1407269 -0.07629665 -0.056204107 0.045051567 -0.04476556
0.08089252 0.14706492 0.0275601 -0.045584477 -0.07145512 -0.05824092 0.034883652 0.01109373
-0.078215934 0.013641308 -0.0031046679 0.13299647 -0.064897135 -0.06757011 -0.06285747 0.14110868
0.12722337 0.0680202 0.12832177 0.06659401 -0.030123755 -0.046483163 0.09934831 0.044605687
-0.01531767 0.09763636 -0.047474466 0.05198337 0.080432095 -0.0761626 -0.047851186 -0.036659054
0.14564103 0.009974384 -0.016846681 0.13546087 0.11475057 -0.03608103 -0.0035540024 -0.00682762
-0.043139048 0.011168317 0.061723392 0.025817389 0.10503775 0.10701982 -0.02951192 -0.038572773
0.13418376 0.105206974 0.055497974 0.08774151 -0.080960356 -0.07002924 0.053149875 0.038004167
-0.0011053453 0.034029998 -0.059923355 0.07915245 0.06850312 0.06952498 0.074891545 0.11834815
-0.013385595 0.012314564 0.07099628 -0.100596085 -0.018460251 -0.06065616 0.007007735 0.0032371464
-0.060777556 0.09496209 -0.014111743 0.13199425 0.068251185 0.047676872 0.051331818 -0.015649807
-0.091262095 -0.054013602 0.12168434 0.016355436 0.042023923 -0.007673732 0.16425818 0.107789814
-0.0018081374 -0.05346782 0.13246523 0.1472372 0.09521473 0.115865216 -0.06794453 0.10780545
-0.06013985 0.1152748 0.1262431 -0.086248875 0.048414197 -0.037232224 0.03989317 0.021812668
0.13794428 0.10498246 0.01835077 0.042469226 -0.038235012 0.020985426 0.10795907 -0.048011303
-0.0027974362 0.12748025 -0.0065543875 -0.07993865 -0.1235043 -0.06256343 0.06560185 -0.0037196728
-0.10837723 -0.057932727 -0.14248523 -0.11381407 -0.037029307 -0.0412211 0.05291357 -0.08858014
0.053663183 0.047803152 0.06904123 -0.039086267 0.050286423 -0.017369928 -0.12134073 -0.101948485
0.11836491 0.06583905 0.02063045 0.06289044 0.12545438 0.032886963 -0.05612871 -0.026432365
-0.07233687 0.09060107 -0.1379426 0.09635074 -0.030758983 0.0010478782 0.018451167 -0.06669037
-0.052369557 -0.027400361 0.062781736 -0.04166761 0.031184545 0.0576645 0.09653382 -0.07121898
0.09465406 -0.030356776 0.0031416162 -0.11073191 0.06763182 -0.026699113 0.1277131 -0.079044156
-0.06766364 -0.1049889 -0.0012278839 -0.09624837 0.018519744 -0.09000492 -0.041858524 0.005470289
-0.06822947 -0.061915044 0.005604483 0.031025693 -0.025823995 0.12451427 0.048431236 0.16883616
0.060456038 -0.00737425 -0.09565957 0.1199338 -0.020973563 0.124465026 -0.014808982 0.050259132
-0.025679499 0.044014115 -0.06545602 -0.010544136 -0.054794848 0.115633115 0.083821006 0.07503215
0.1378169 0.083787814 -0.029695349 0.057243437 -0.020722507 -0.09623801 0.0035819022 -0.0016364404
-0.09675127 -0.0036387104 0.03160702 0.11984111 -0.0650628 -0.0736928 0.08279236 0.0919942
-0.056435026 0.112165585 0.040518757 0.13244624 0.038377672 0.039192215 0.07060625 -0.04655974
0.10307492 -0.0043024453 -0.06995686 0.079720445 -0.022138035 -0.05519269 -0.06719152 0.09869441
0.05107538 0.14295897 0.0528553 0.06525281 0.10233191 0.12557885 0.02656883 -0.049279686
00000000: fc20 4dbd 33a2 15bc 639d 97bd a7b6 b33d
00000010: e461 e93d 50ef c9bc dd19 f83d 34b8 0dbd
00000020: 022f 62bd b08a e53d be4c 2bbd b61a 103e
00000030: 6b41 9cbd 4736 66bd fe87 383d 185c 37bd
00000040: faaa a53d 3098 163e b8c5 e13c cab6 3abd
00000050: 1057 92bd 088e 6ebd 29e2 0e3d 7ac2 353c
00000060: ad2f a0bd cb7f 5f3c af77 4bbb 3a30 083e
00000070: cae8 84bd 3362 8abd 6bbb 80bd cb7e 103e
00000080: d846 023e 2d4e 8b3d c866 033e 7162 883d
00000090: 18c6 f6bc 2165 3ebd 2077 cb3d 74b4 363d
000000a0: f7f6 7abc 92f5 c73d 9674 42bd 84ec 543d
000000b0: 95b9 a43d 23fb 9bbd 9bff 43bd ce27 16bd
000000c0: ec22 153e 996b 233c 0d02 8abc 41b6 0a3e
000000d0: 5902 eb3d b4c9 13bd 44ea 68bb 3aba dfbb
000000e0: 92b2 30bd 51fb 363c abd1 7c3d fd7e d33c
000000f0: 081e d73d 352d db3d fbc2 f1bc 7cfe 1dbd
00000100: 7867 093e c176 d73d d851 633d d2b1 b33d
00000110: 8bce a5bd 7d6b 8fbd afb3 593d 42aa 1b3d
00000120: 3ce1 90ba 0a63 0b3d 3172 75bd ae1a a23d
00000130: 5d4b 8c3d 1d63 8e3d bd60 993d 8460 f23d
00000140: 414f 5bbc 06c3 493c 7f66 913d 5205 cebd
00000150: f439 97bc 9872 78bd 24a1 e53b 4e26 543b
00000160: e3f1 78bd 7c7b c23d f134 67bc 8029 073e
00000170: 47c7 8b3d d348 433d 5041 523d 0634 80bc
00000180: 9fe7 babd 5e3d 5dbd a435 f93d d6fb 853c
00000190: 4721 2c3d ee73 fbbb 4c33 283e e8c0 dc3d
000001a0: 06ff ecba 1301 5bbd f7a4 073e 59c5 163e
000001b0: f1ff c23d be4a ed3d 8026 8bbd 1bc9 dc3d
000001c0: 3455 76bd 3215 ec3d df45 013e 40a3 b0bd
000001d0: f74d 463d d180 18bd 0567 233d 7bb0 b23c
000001e0: 4441 0d3e 0b01 d73d 5b54 963c 36f4 2d3d
000001f0: 519c 1cbd a1e9 ab3c a519 dd3d 80a7 44bd
00000200: 3155 37bb 2f8a 023e 30c6 d6bb e0b6 a3bd
00000210: d3ef fcbd 4121 80bd 435a 863d c1c5 73bb
00000220: e2f4 ddbd de4a 6dbd a6e7 11be 5a17 e9bd
00000230: 0bac 17bd 75d7 28bd e6bb 583d 8169 b5bd
00000240: edcd 5b3d 3dcd 433d 7d65 8d3d ec18 20bd
00000250: 23f9 4d3d 614b 8ebc 7d81 f8bd 5eca d0bd
00000260: 4d69 f23d a0d6 863d 3101 a93c b4cc 803d
00000270: 1d77 003e 7bb4 063d 38e7 65bd b088 d8bc
00000280: 5a25 94bd 0e8d b93d d340 0dbe 8953 c53d
00000290: 43fa fbbc f558 893a e726 973c f694 88bd
000002a0: 7681 56bd b976 e0bc b693 803d a8ab 2abd
000002b0: bb76 ff3c 9c31 6c3d 86b3 c53d 42db 91bd
000002c0: fdd9 c13d c6ae f8bc 93e3 4d3b 69c7 e2bd
000002d0: 8d82 8a3d 19b8 dabc 39c7 023e e7e1 a1bd
000002e0: 3c93 8abd 6c04 d7bd f2f0 a0ba de1d c5bd
000002f0: b8b6 973c 8054 b8bd d873 2bbd 1c40 b33b
00000300: e4bb 8bbd a19a 7dbd d0a5 b73b 9829 fe3c
00000310: d88c d3bc 5601 ff3d d55f 463d 63e3 2c3e
00000320: c0a0 773d b1a3 f1bb 2ae9 c3bd da9f f53d
00000330: c0d0 abbc 85e7 fe3d 5fa1 72bc 85dc 4d3d
00000340: d05d d2bc 2548 343d ce0d 86bd 50c1 2cbc
00000350: 9070 60bd 0ed1 ec3d 59aa ab3d 75aa 993d
00000360: e01f 0d3e f298 ab3d a943 f3bc 1878 6a3d
00000370: 3fc2 a9bc 6f18 c5bd 59be 6a3b d47d d6ba
00000380: 8825 c6bd 6e77 6ebb 5d76 013d 426f f53d
00000390: a53f 85bd 40ec 96bd 0a8f a93d 7567 bc3d
000003a0: 6a28 67bd 12b7 e53d fff6 253d fd9f 073e
000003b0: e831 1d3d 0488 203d 029a 903d 6db5 3ebd
000003c0: f218 d33d 87fb 8cbb 8b45 8fbd 7944 a33d
000003d0: d35a b5bc bb11 62bd b59b 89bd 4b20 ca3d
000003e0: 6b34 513d d663 123e cd7e 583d 44a3 853d
000003f0: 6493 d13d be97 003e e0a6 d93c 7fd9 49bd

lstm.bias_hh_l0 f4 [256]
-0.10708853 0.08251811 0.06928134 0.08752275 0.15010059 0.07511671 0.09237633 -0.010975395
-0.071955025 -0.070920125 0.00091414974 0.08934165 0.04189526 0.15243378 0.04511141 0.12379374
0.047920424 -0.027615309 0.075072296 -0.025707942 0.12909085 -0.015903162 -0.035082873 -0.060322966
-0.03398759 0.112314366 0.11862342 -0.024072569 0.04902115 0.066788316 0.088513054 0.026723139
0.14049004 0.0016010277 0.05948978 0.045306835 -0.016093275 0.15477104 0.10767752 -0.059824854
0.16803277 0.097851336 0.035927895 0.027174436 0.056238152 -0.043956783 0.13169166 0.0011329905
-0.064703435 0.029129524 0.03192855 -0.048351545 0.16174209 0.007604551 0.12366593 0.095035546
0.11046979 -0.02576301 -0.092295356 0.14426044 0.10648225 0.0822542 -0.05914564 0.10406917
0.074385956 0.13664217 0.1397438 0.13262568 -0.078361236 -0.06646661 -0.07625721 0.12389419
0.06596761 -0.1027993 -0.028801609 -0.039559945 0.081560805 -0.024365146 0.14510891 -0.07030639
0.047020793 0.11765036 0.11035165 -0.060632322 0.0036584514 0.10961037 0.14164129 -0.08566737
-0.0030428672 0.11071174 -0.011958824 0.14711182 0.14853789 0.0133551005 0.13622256 -0.016993355
-0.0712469 -0.09024367 -0.08570199 -0.091065206 0.09033158 0.058329977 0.10556218 0.13697457
0.02384568 0.012718049 0.039757155 0.050364997 0.09796498 -0.009113213 -0.088382185 0.035749618
0.008147464 0.0236434 0.108139835 -0.026060143 0.08577905 0.13442309 0.10689594 -0.0868137
0.0123446 0.066400014 -0.054251723 0.11966986 0.11494927 -0.07145081 0.14363576 0.12818311
0.13092197 -0.06445079 -0.08310642 -0.041784644 -0.09371344 -0.055791333 -0.0042404835 0.022130644
0.089853525 -0.06915886 -0.009119462 -0.03503976 0.1371893 0.08760815 -0.042821743 0.116786174
-0.10728369 -0.079501115 0.099788606 -0.10603554 -0.025305567 -0.1255008 0.073040925 -0.048208985
0.0136335995 0.011656573 -0.10013383 0.059793737 -0.05287257 0.041570526 0.027082596 0.11649843
-0.045936346 -0.019836582 -0.01820031 -0.02696418 0.013486906 0.05420547 -0.14029202 0.020883637
-0.07644384 -0.05554929 0.11090076 0.08157471 0.112185284 0.08690799 0.06810329 -0.05381547
0.046225786 -0.116587505 0.11913307 0.03317103 0.014804949 0.061232515 -0.029338194 0.05883127
-0.05404853 0.0035498666 -0.056293067 -0.058726016 -0.07295824 -0.0054469416 0.030145908 -0.039165866
0.0002039717 0.028743364 0.021680975 0.15341564 -0.07219291 0.12685375 -0.051398177 -0.04587104
-0.0056952396 0.1338795 0.0062135663 0.030489638 0.079952754 0.1625705 -0.08248419 -0.010833921
-0.001850418 -0.040373545 0.0042011295 -0.07426207 0.004210946 0.052838497 -0.06944129 -0.017021695
0.10261156 -0.0153765725 0.042560257 -0.010889343 0.12130682 0.10425075 0.10148417 0.035200242
-0.002332978 -0.07370452 0.045056134 0.006489395 -0.007437136 -0.035206925 -0.02442402 0.103587866
0.008817471 0.018415516 -0.08598016 0.09247201 0.11253525 0.10215698 0.04862836 0.018533753
0.09342333 0.16325387 0.10662276 0.010791123 -0.08123535 0.1449538 -0.054442346 -0.002128401
0.15709758 0.15939875 -0.07783751 0.14395535 0.03220177 0.040014077 -0.067398645 -0.05014168
00000000: 3b51 dbbd 41ff a83d 60e3 8d3d 213f b33d
00000010: f8b3 193e cad6 993d cd2f bd3d 25d2 33bc
00000020: 285d 93bd 923e 91bd 8da3 6f3a c1f8 b63d
00000030: 5d9a 2b3d 9a17 1c3e bec6 383d 9387 fd3d
00000040: 3548 443d 8039 e2bc 81bf 993d 7699 d2bc
00000050: 6430 043e 5947 82bc 0fb3 0fbd 3715 77bd
00000060: 9236 0bbd 1305 e63d d6f0 f23d d633 c5bc
00000070: 67ca 483d 50c8 883d 5546 b53d 7cea da3c
00000080: 9fdc 0f3e 93d9 d13a 8eab 733d a993 393d
00000090: 0bd6 83bc 4d7c 1e3e 0886 dc3d e80a 75bd
000000a0: c810 2c3e 4866 c83d 2129 133d ec9c de3c
000000b0: fa59 663d 070c 34bd 2eda 063e da80 943a
000000c0: 3c83 84bd 0aa1 ee3c 83c7 023d 450c 46bd
000000d0: b89f 253e 992f f93b 9044 fd3d ffa1 c23d
000000e0: fc3d e23d f30c d3bc 5905 bdbd 02b9 133e
000000f0: 5e13 da3d e474 a83d b342 72bd 3822 d53d
00000100: aa57 983d edeb 0b3e 0019 0f3e 07cf 073e
00000110: db7b a0bd a51f 88bd bd2c 9cbd 3dbc fd3d
00000120: 071a 873d 7088 d2bd 5af1 ebbc 9c09 22bd
00000130: 5a09 a73d 6a99 c7bc 6e97 143e ccfc 8fbd
00000140: e098 403d acf2 f03d 0c00 e23d 9959 78bd
00000150: a1c2 6f3b 677b e03d 6a0a 113e 6072 afbd
00000160: d76a 47bb d6bc e23d f1ee 43bc 7ba4 163e
00000170: 511a 183e 5acf 5a3c ed7d 0b3e a635 8bbc
00000180: e5e9 91bd acd1 b8bd 8684 afbd 6580 babd
00000190: c3ff b83d 6aeb 6e3d fc30 d83d 1043 0c3e
000001a0: 0458 c33c 5d5f 503c 66d8 223d 874b 4e3d
000001b0: dda1 c83d 964f 15bc b801 b5bd 316e 123d
000001c0: f17c 053c ceaf c13c 6b78 dd3d 157c d5bc
000001d0: edac af3d 35a6 093e 42ec da3d 62cb b1bd
000001e0: 0141 4a3c bbfc 873d 0e37 5ebd 7915 f53d
000001f0: 866a eb3d cd54 92bd 4115 133e 6f42 033e
00000200: 6910 063e c7fe 83bd b333 aabd 6026 2bbd
00000210: d5ec bfbd 7485 64bd c1f3 8abb 534b b53c
00000220: 2005 b83d 29a3 8dbd cc69 15bc da85 0fbd
00000230: 5a7b 0c3e e76b b33d da65 2fbd 972d ef3d
00000240: 8db7 dbbd 7bd1 a2bd f85d cc3d 2929 d9bd
00000250: 9f4d cfbc 4883 00be 7b96 953d c976 45bd
00000260: 765f 5f3c 36fb 3e3c f712 cdbd 47ea 743d
00000270: e890 58bd db45 2a3d 52dc dd3c bb96 ee3d
00000280: c027 3cbd 5480 a2bc d118 95bc fce3 dcbc
00000290: 2ff8 5c3c 8e06 5e3d b6a8 0fbe 2914 ab3c
000002a0: 978e 9cbd a787 63bd f01f e33d a410 a73d
000002b0: 66c1 e53d d1fc b13d bd79 8b3d 9c6d 5cbd
000002c0: 4057 3d3d 6ec5 eebd 0afc f33d 59de 073d
000002d0: 7590 723c f2ce 7a3d a756 f0bc 0ff9 703d
000002e0: fe61 5dbd e1a4 683b 8f93 66bd b18a 70bd
000002f0: 216b 95bd 427c b2bb 8df4 f63c 636c 20bd
00000300: 3ce1 5539 3477 eb3c 4d9c b13c fd18 1d3e
00000310: e0d9 93bd f3e5 013e e586 52bd 46e3 3bbd
00000320: 229f babb b517 093e 2c9b cb3b 68c5 f93c
00000330: 45be a33d e278 263e 79ed a8bd c280 31bc
00000340: ba89 f2ba bb5e 25bd a1a9 893b b616 98bd
00000350: fafb 893b 2e6d 583d 3c37 8ebd 1571 8bbc
00000360: 0226 d23d 05ee 7bbc aa53 2e3d 3769 32bc
00000370: b66f f83d 6b81 d53d efd6 cf3d 212e 103d
00000380: e0e4 18bb 65f2 96bd c88c 383d fea4 d43b
00000390: 38b3 f3bb 2335 10bd e214 c8bc e025 d43d
000003a0: 2777 103c 23dc 963c 5e16 b0bd f761 bd3d
000003b0: e278 e63d ae37 d13d 882e 473d 19d4 973c
000003c0: bb54 bf3d 062c 273e 095d da3d 40cd 303c
000003d0: b85e a6bd c56e 143e f0fe 5ebd a57c 0bbb
000003e0: 30de 203e 6d39 233e 4669 9fbd 0869 133e
000003f0: 01e6 033d cde5 233d 4d08 8abd 5d61 4dbd

lstm.weight_ih_l1 f4 [256, 64]
0.07871449 -0.11941804 0.041495237 0.097826324 -0.1470554 0.08030686 -0.047333278 -0.07430665
0.023476303 0.075959995 -0.063634425 -0.0068124305 0.02998394 -0.06626959 -0.028020049 0.06170128
-0.12441853 -0.048933573 -0.026470063 -0.10707535 0.09237362 -0.047431964 0.036242824 -0.06847392
0.09379278 0.054282 0.054150272 -0.039634928 -0.038068 0.04787019 -0.06564268 -0.0727186
-0.05566998 -0.07887558 0.037851974 -0.027213503 0.010610553 0.028879639 0.08515873 0.08952181
0.11731208 0.09026688 0.06676601 -0.074615195 -0.0709833 -0.016993403 0.011810783 0.06989234
-0.01109831 0.03181306 -0.07830998 -0.09671137 0.05453896 0.05301955 0.0064128647 -0.087604016
-0.06956929 0.11273398 0.072928526 0.07882386 -0.12689576 -0.04867805 0.04881727 -0.041117176
0.14372309 -0.13803722 -0.06353017 -0.15638655 -0.13189645 0.066389665 0.058749776 -0.0921582
-0.118399985 -0.022928879 0.03578288 -0.066687405 -0.092809394 0.111690454 -0.025107773 0.07066944
0.0813705 0.017167274 -0.12796882 0.016304825 0.06589879 -0.04293337 0.08681425 0.06517094
0.13992997 0.032106932 -0.015302749 -0.007597155 -0.11515902 0.050414685 0.13932183 -0.087212145
0.0050265174 0.09223657 -0.085691385 0.060405023 -0.03601216 -0.058586758 -0.016903184 0.0028335832
-0.038639624 -0.017708197 -0.053097066 0.026725462 -0.06689572 0.14093956 0.1156269 -0.060117655
0.04870233 0.09844503 -0.03113662 0.09388484 0.1531902 0.1067235 -0.113360986 -0.017836178
-0.03056958 0.11319559 0.119638234 -0.15939762 0.0048752027 -0.029283835 -0.061963145 0.11951609
0.0628666 0.010342944 -0.024654018 0.0012612857 -0.07839977 -0.013213675 -0.010021421 0.13203993
0.02478525 -0.048702613 0.0607836 0.06431601 -0.041014142 -0.08235758 -0.024240535 -0.11467604
-0.122669145 0.06799089 -0.15598977 0.092759386 -0.04461282 -0.14738533 0.10762313 -0.091606684
0.075261556 -0.06305517 -0.123723894 0.10691709 0.08163512 0.045775436 0.058955256 0.017742474
0.010516705 0.058257297 0.04620064 0.08159256 -0.039982114 0.005719565 0.06465877 -0.07755511
-0.076775394 -0.10856722 -0.045786466 0.05209174 0.084759645 0.06752035 -0.023653256 -0.060694203
0.020508448 0.083690375 -0.028357027 -0.08224573 -0.106985934 0.0942141 -0.034607165 0.06844652
-0.06105424 -0.0016347328 -0.043398857 0.10053075 -0.07645913 -0.017093424 -0.03663298 0.05135833
0.123366795 0.08812809 -0.039099913 0.010481758 -0.12256689 0.031756625 -0.06557686 -0.07471104
-0.036472805 -0.12136476 -0.09479728 0.034160934 -0.009988177 -0.10808966 -0.07772289 0.09166522
-0.07146046 -0.032768905 0.10548619 0.08542708 -0.12069582 -0.11179123 -0.047370154 -0.10103829
0.09379525 -0.029508617 -0.028582543 0.11017467 -0.07289908 -0.074144416 -0.025052255 -0.06432343
-0.11400393 -0.095195115 0.01569722 -0.083109275 -0.08791396 0.06412051 -0.07660087 -0.10730176
0.04211532 0.0939493 -0.07309048 -0.030474849 0.09790333 -0.05515148 -0.013990938 -0.026379995
-0.06467644 -0.02798178 0.060835157 -0.008939788 0.01201094 0.06675914 -0.08644854 0.06569303
0.022681167 0.11540781 0.03348654 -0.05494218 0.047855187 -0.0068773567 -0.06747069 0.02515833
00000000: 1035 a13d 7291 f4bd e9f6 293d 2b59 c83d
00000010: b195 16be ec77 a43d 8ae0 41bd 162e 98bd
00000020: 6051 c03c ea90 9b3d c452 82bd cf3a dfbb
00000030: e1a0 f53c 5ab8 87bd 4d8a e5bc 7bba 7c3d
00000040: 24cf febd 926e 48bd bfd7 d8bc 524a dbbd
00000050: 612e bd3d 0548 42bd 5b73 143d 0e3c 8cbd
00000060: 6e16 c03d cd56 5e3d adcc 5d3d 3c58 22bd
00000070: 31ed 1bbd 8813 443d ab6f 86bd 7ded 94bd
00000080: 3406 64bd 8589 a1bd ac0a 1b3d daee debc
00000090: e3d7 2d3c fe94 ec3c b367 ae3d 3657 b73d
000000a0: 5141 f03d d8dd b83d 9ebc 883d dacf 98bd
000000b0: b15f 91bd c035 8bbc 0482 413c b723 8f3d
000000c0: b0d5 35bc 694e 023d fc60 a0bd 9c10 c6bd
000000d0: 3f64 5f3d 072b 593d 0223 d23b bc69 b3bd
000000e0: 587a 8ebd 13e1 e63d 8d5b 953d 676e a13d
000000f0: f6f0 01be a362 47bd 9ef4 473d 7c6a 28bd
00000100: 252c 133e a159 0dbe 1b1c 82bd cc23 20be
00000110: dd0f 07be 4ef7 873d 9ba3 703d 70bd bcbd
00000120: b17b f2bd 58d5 bbbc 1291 123d 6893 88bd
00000130: da12 bebd f7bd e43d d1ae cdbc 24bb 903d
00000140: 94a5 a63d 62a2 8c3c 420a 03be b291 853c
00000150: f2f5 863d e7da 2fbd abcb b13d 5778 853d
00000160: cd49 0f3e 8f82 033d 62b8 7abc 8ef1 f8bb
00000170: 7ed8 ebbd a17f 4e3d 62aa 0e3e 489c b2bd
00000180: 7cb5 a43b 87e6 bc3d f77e afbd 426b 773d
00000190: 7d81 13bd abf8 6fbd 8c78 8abc a3b3 393b
000001a0: 9544 1ebd c810 91bc 4f7c 59bd 5bef da3c
000001b0: a000 89bd 7652 103e cccd ec3d ee3d 76bd
000001c0: 187c 473d 8c9d c93d 3a12 ffbc b246 c03d
000001d0: e4dd 1c3e da91 da3d ce29 e8bd 2d1d 92bc
000001e0: 0e6d fabc 17d3 e73d e404 f53d 2139 23be
000001f0: 2ac0 9f3b a7e4 efbc 11cd 7dbd dac4 f43d
00000200: 34c0 803d 7475 293c 39f7 c9bc ba51 a53a
00000210: 0f90 a0bd 2b7e 58bc e330 24bc 7a35 073e
00000220: 700a cb3c 647c 47bd 39f8 783d 1db8 833d
00000230: 72fe 27bd 17ab a8bd 1694 c6bc 46db eabd
00000240: f639 fbbd cf3e 8b3d c8bb 1fbe a2f8 bd3d
00000250: efbb 36bd 2eec 16be 8469 dc3d 499c bbbd
00000260: bb22 9a3d 1223 81bd f462 fdbd 59f7 da3d
00000270: 5030 a73d 067f 3b3d 117b 713d aa58 913c
00000280: 424e 2c3c 349f 6e3d e23c 3d3d 001a a73d
00000290: 49c4 23bd 306b bb3b d16b 843d 37d5 9ebd
000002a0: 6b3c 9dbd 7e58 debd 978a 3bbd 265e 553d
000002b0: 7796 ad3d 1c48 8a3d 79c4 c1bc 7c9a 78bd
000002c0: 5501 a83c dc65 ab3d ff4c e8bc 7370 a8bd
000002d0: 711b dbbd 52f3 c03d 3ec0 0dbd b02d 8c3d
000002e0: 0314 7abd 8844 d6ba 00c3 31bd 11e3 cd3d
000002f0: 9b96 9cbd 8207 8cbc 770c 16bd 1d5d 523d
00000300: bba7 fc3d 807c b43d 3b27 20bd aebb 2b3c
00000310: 5a04 fbbd 3c13 023d 294d 86bd 1a02 99bd
00000320: 8264 15bd 168e f8bd 1425 c2bd 56ec 0b3d
00000330: 73a5 23bc 1d5e ddbd 2e2d 9fbd faba bb3d
00000340: dd59 92bd b038 06bd 2509 d83d 65f4 ae3d
00000350: 5f2f f7bd cdf2 e4bd 3507 42bd 2aed cebd
00000360: b917 c03d 0ebc f1bc f025 eabc 42a3 e13d
00000370: 1d4c 95bd 07d9 97bd 633a cdbc 01bc 83bd
00000380: e47a e9bd a8f5 c2bd 7597 803c 3235 aabd
00000390: 3c0c b4bd 9d51 833d ebe0 9cbd 06c1 dbbd
000003a0: 1d81 2c3d 7e68 c03d 76b0 95bd 64a6 f9bc
000003b0: 8b81 c83d 85e6 61bd 3f3a 65bc dc1a d8bc
000003c0: 1575 84bd 0c3a e5bc 492e 793d 3078 12bc
000003d0: 89c9 443c 04b9 883d ef0b b1bd 118a 863d
000003e0: dbcd b93c ee5a ec3d 2f29 093d 0d0b 61bd
000003f0: cd03 443d 735b e1bb 132e 8abd d818 ce3c

lstm.weight_hh_l1 f4 [256, 64]
0.10107507 0.102830276 -0.059378393 -0.049871508 -0.09722409 0.13074979 -0.029972197 -0.0839473
0.013789074 0.075046904 0.1329966 -0.11701947 0.071259595 0.059116628 0.10656665 0.03204728
0.03711487 0.012418224 0.07254056 0.031277496 0.1007412 0.08800706 -0.029425345 -0.024183372
0.088500634 -0.048527397 0.13499476 -0.06853294 -0.12374214 -0.087516606 -0.010180473 -0.09286931
0.03194785 -0.000782749 0.02743195 0.101321824 -0.0122011695 -0.062490374 0.050790638 0.12685563
-0.060273875 -0.06935561 0.103217766 -0.089293525 -0.014366791 0.029058363 -0.08719884 -0.052131526
-0.006504077 -0.012972799 -0.033756215 -0.07324361 0.0062902784 0.033870988 0.0640512 -0.06395059
-0.04461095 -0.009054174 0.060885668 0.058672998 0.11544214 -0.030053066 0.0016832256 -0.0032390296
-0.09866725 0.091969565 -0.13946265 0.043213524 -0.102229685 0.07114834 -0.0641481 0.05011103
-0.067984745 0.055855352 -0.051699877 0.019913483 -0.073763534 0.023175275 -0.019108474 -0.020062
-0.112650156 0.03854844 -0.13680552 -0.09193254 0.07604741 0.07392209 -0.008218486 -0.014648321
-0.101541124 -0.0016982547 0.0616679 -0.003724131 0.054440532 0.03053331 -0.06050987 -0.07774134
-0.067612335 -0.14058958 0.097800314 0.12324827 0.08463838 0.0621771 -0.07682409 0.045583524
-0.0008242604 0.08412854 0.09849202 -0.02013982 -0.034432787 -0.01759952 -0.02622166 0.03988012
-0.040914536 -0.069174014 0.078896716 -0.013435697 -0.08911847 0.109951966 -0.04713631 -0.043354463
-0.07257168 0.07974898 -0.094306 -0.12873226 0.021660658 -0.0663599 -0.047597233 -0.08407093
-0.09947039 -0.046100914 0.06126103 0.06859992 -0.0763585 0.10568977 -0.09928358 -0.01759814
-0.071872465 0.14861411 0.14648885 -0.13668178 0.086590126 -0.08391184 0.09759315 0.00535827
0.024476256 0.1293253 -0.05675628 0.089550525 -0.07570937 -0.088802315 0.026359592 -0.037496313
-0.13099204 -0.14043614 -0.050335623 -0.037926767 -0.0027384877 0.048791714 -0.049045708 -0.09384875
-0.09624799 0.09832543 0.06626049 -0.080590345 0.09783943 0.06445442 -0.058386896 0.11506444
-0.020579418 0.11904292 0.0002597114 0.058652353 -0.077525094 -0.08099168 -0.023773113 0.13330473
-0.015954167 0.063481085 0.084909104 0.08974974 0.07349755 -0.001949203 0.072571374 0.032149643
-0.00783802 0.102358885 0.08332565 -0.11129079 0.09746732 -0.011163148 0.005387862 0.012816785
-0.034626618 -0.02995202 -0.12597242 0.008490024 -0.09110896 0.124957964 0.011538341 -0.067492545
-0.033024404 -0.0023092164 0.005780604 0.08050114 0.08745089 -0.11512351 -0.03954996 0.04133125
-0.003263517 0.079723544 0.030625409 0.10260461 -0.08858711 0.05783611 0.16170755 0.028046973
-0.11468547 0.03564203 0.0052764574 0.015704121 0.035983454 0.0823619 0.03367518 -0.064952694
-0.08651535 -0.1069231 0.08627524 0.005110345 0.11573054 0.013997573 -0.07241058 0.0032126207
-0.022605726 -0.034461133 0.01153575 0.017247798 0.07691595 0.02380001 -0.09683461 -0.068436995
0.05614232 0.08102993 0.0075596753 -0.07667024 0.07923457 -0.09995288 -0.045321684 0.12189577
-0.030729609 -0.042583153 -0.14093533 -0.08433966 0.053445183 -0.1239228 -0.05841458 0.15315548
00000000: 7200 cf3d ae98 d23d c236 73bd 1146 4cbd
00000010: 6c1d c7bd 46e3 053e 4188 f5bc 90ec abbd
00000020: 91eb 613c 31b2 993d 4330 083e e7a7 efbd
00000030: 8df0 913d 4724 723d 9e3f da3d 0244 033d
00000040: c305 183d ce75 4b3c 2590 943d d51c 003d
00000050: 6751 ce3d 0c3d b43d 6c0d f1bc 351c c6bc
00000060: d23f b53d aac4 46bd 113c 0a3e ff5a 8cbd
00000070: 856c fdbd e83b b3bd 00cc 26bc 4432 bebd
00000080: c0db 023d 6531 4dba f8b8 e03c d181 cf3d
00000090: 6ae7 47bc e8f5 7fbd d809 503d 71e6 013e
000000a0: bde1 76bd 500a 8ebd d663 d33d 86df b6bd
000000b0: b062 6bbc ce0b ee3c 4e95 b2bd de87 55bd
000000c0: 2720 d5bb dd8b 54bc f543 0abd bf00 96bd
000000d0: ae1e ce3b 4ebc 0a3d 472d 833d 87f8 82bd
000000e0: f9b9 36bd f557 14bc 4063 793d 1953 703d
000000f0: ee6c ec3d d931 f6bc ae9f dc3a e645 54bb
00000100: 0e12 cabd 8a5a bc3d 4ccf 0ebe aa00 313d
00000110: cc5d d1bd 39b6 913d 1460 83bd 3941 4d3d
00000120: 963b 8bbd 95c8 643d 40c3 53bd 9a21 a33c
00000130: 5611 97bd 13da bd3c 6089 9cbc 1059 a4bc
00000140: 20b5 e6bd f8e4 1d3d bf16 0cbe 2147 bcbd
00000150: bfbe 9b3d 7764 973d d4a6 06bc 83ff 6fbc
00000160: cbf4 cfbd f997 deba 7b97 7c3d 8d10 74bb
00000170: 09fd 5e3d fe20 fa3c 33d9 77bd da36 9fbd
00000180: 5678 8abd b7f6 0fbe 884b c83d 9769 fc3d
00000190: e356 ad3d 6aad 7e3d f355 9dbd cab5 3a3d
000001a0: 2e13 58ba 954b ac3d 2fb6 c93d 44fc a4bc
000001b0: 6509 0dbd de2c 90bc cfce d6bc 5659 233d
000001c0: 0096 27bd 1bab 8dbd 9a94 a13d 6621 5cbc
000001d0: bf83 b6bd 7f2e e13d 0112 41bd 7394 31bd
000001e0: 76a0 94bd 6f53 a33d 8123 c1bd 64d2 03be
000001f0: b171 b13c b3e7 87bd 51f5 42bd 612d acbd
00000200: 22b7 cbbd 50d4 3cbd d9ec 7a3d 1d7e 8c3d
00000210: d861 9cbd e173 d83d 3155 cbbd f929 90bc
00000220: df31 93bd 4c2e 183e 2c01 163e 4ff6 0bbe
00000230: 2a56 b13d f9d9 abbd ebde c73d 6d94 af3b
00000240: 6e82 c83c da6d 043e 4679 68bd 4466 b73d
00000250: 840d 9bbd fddd b5bd 12f0 d73c bc95 19bd
00000260: c722 06be 7ece 0fbe ba2c 4ebd 1959 1bbd
00000270: 3378 33bb d2d9 473d 27e4 48bd c633 c0bd
00000280: ab1d c5bd d85e c93d 94b3 873d 8d0c a5bd
00000290: 0a60 c83d ae00 843d 1927 6fbd e8a6 eb3d
000002a0: 2b96 a8bc c6cc f33d e029 8839 733d 703d
000002b0: 7ac5 9ebd f7de a5bd d5bf c2bc 0981 083e
000002c0: 50b2 82bc 5f02 823d d3e4 ad3d b6ce b73d
000002d0: e285 963d 667c ffba 4da0 943d 58af 033d
000002e0: 0a6b 00bc 89a1 d13d a3a6 aa3d 6dec e3bd
000002f0: f29c c73d a3e5 36bc aa8c b03b 7efd 513c
00000300: a4d4 0dbd f05d f5bc eafe 00be be19 0b3c
00000310: 5697 babd f6e9 ff3d 4f0b 3d3c 8839 8abd
00000320: 9944 07bd 3956 17bb 396b bd3b c8dd a43d
00000330: 7419 b33d e0c5 ebbd 24ff 21bd f54a 293d
00000340: bbe0 55bb 1946 a33d 23e2 fa3c 5e22 d23d
00000350: 296d b5bd 8fe5 6c3d aa96 253e c4c2 e53c
00000360: 37e0 eabd 61fd 113d 22e6 ac3b eea5 803c
00000370: 6363 133d 5bad a83d fcee 093d eb05 85bd
00000380: f62e b1bd 80fa dabd 13b1 b03d ae74 a73b
00000390: 2204 ed3d 1456 653c 004c 94bd d58a 523b
000003a0: a52f b9bc 1e27 0dbd 7100 3d3c 414b 8d3c
000003b0: 1c86 9d3d 3df8 c23c 3951 c6bd b228 8cbd
000003c0: 7df5 653d 05f3 a53d 27b7 f73b 4905 9dbd
000003d0: bc45 a23d 18b4 ccbd 3ba3 39bd 7da4 f93d
000003e0: a9bc fbbc ac6b 2ebd 5a51 10be 46ba acbd
000003f0: 56e9 5a3d 3dcb fdbd 2044 6fbd cad4 1c3e

lstm.bias_ih_l1 f4 [256]
0.06256647 0.059150416 0.10374653 -0.039513078 -0.084942 -0.06180218 -0.0037141598 -0.01908915
0.14808987 0.10465997 -0.077789396 0.107902475 -0.022881119 -0.07639049 0.08816279 -0.1147448
0.12718529 0.049620524 -0.036447357 -0.06547526 0.12172995 0.109609194 0.00081302354 -0.07119825
0.12768927 0.0950537 -0.07448338 0.11965592 -0.034733318 -0.0579374 -0.008723987 0.121487364
0.034502205 0.025027536 0.021600435 0.09062338 0.018576706 0.14402078 0.13498351 0.13365701
-0.0059531364 0.056546353 0.0093713235 -0.055615406 0.12252799 0.112235315 0.0065207877 0.050385855
0.07180267 -0.053254697 -0.08767319 0.011610297 0.05852085 0.15356563 0.057115175 -0.015535958
-0.088051975 -0.07237651 0.041187853 -0.010057675 0.018552797 0.039494727 -0.02347479 0.110596985
0.07540369 0.09762139 0.009499162 -0.06366934 0.10435703 0.097598396 0.1262892 0.033947352
0.024992017 -0.07704622 0.049308814 -0.06155028 0.08082455 -0.045436002 -0.049204327 -0.049539372
0.0103090005 0.0973444 0.044803236 -0.004415325 0.10659259 0.123444565 0.10613915 0.117980294
0.05232209 0.044266384 0.123034686 0.018449262 0.02441065 -0.048131887 0.029093089 0.04301688
0.14126985 0.10822584 -0.008376603 -0.07718097 0.07425392 0.03413191 0.013856091 -0.04141733
0.052185714 -0.026293017 0.023505542 0.08174606 0.10051775 0.10716061 -0.004546685 0.066199474
0.0979233 0.017265202 0.044818744 -0.06568619 -0.09383599 -0.021074265 -0.0802979 -0.05335164
-0.08681829 0.015347963 -0.08554194 -0.012370659 0.030502459 -0.009095967 -0.027254136 0.12931351
-0.061785355 0.111295685 -0.11089238 0.07477176 0.09553299 0.055503838 0.073767126 -0.024188112
0.07826682 0.053682297 0.04167965 -0.050586008 -0.08012243 -0.006081879 -0.007378579 0.07948389
-0.016115287 0.046459273 -0.0047928323 0.01997679 0.046253256 0.11218017 0.05297323 -0.025220517
0.09665774 -0.0018396216 0.06781177 0.07763661 0.016166763 0.12164767 -0.14090915 -0.022245917
-0.0049535986 -0.09482747 -0.06375529 -0.031343408 0.09267684 -0.06834002 -0.11662207 0.023224844
-0.07718658 0.009799381 0.040782668 0.052313045 -0.016308386 -0.025386332 -0.12364668 0.005855957
-0.10639248 0.1283494 0.0454045 0.0031626157 -0.06312282 -0.037212797 -0.04355528 0.051277373
0.09134799 0.11734749 -0.089774065 -0.033693325 -0.07501819 0.028218012 0.06384975 -0.07144639
0.06342165 0.022554323 0.07071636 0.1042098 -0.08444125 0.08484646 0.13348283 -0.036320664
0.15052693 -0.006527125 -0.021538641 0.057932857 0.13872497 -0.028262682 -0.047829203 -0.06995935
0.023271147 -0.07968141 0.03673951 -0.060719732 0.12708932 0.05005681 -0.05125305 0.04086069
0.12371315 0.124885716 0.03828059 -0.038223915 0.074104026 0.12552217 0.04067072 0.08316885
-0.0141654825 0.074525386 -0.025794735 0.14292918 -0.054551266 0.1394146 -0.0037185415 0.14100897
0.054127872 0.040413346 0.020605268 0.031482793 0.09722777 0.119836725 0.074820384 0.12037761
0.16980493 0.054369498 0.07880848 -0.09777966 -0.09576578 -0.06002932 0.00753847 0.08557637
-0.109848544 0.13574217 -0.08535578 -0.018930634 -0.017574375 0.11408313 -0.00033085956 0.04150768
00000000: d922 803d b547 723d 1079 d43d 77d8 21bd
00000010: 12f6 adbd 4824 7dbd 4369 73bb d960 9cbc
00000020: dfa4 173e f757 d63d 0c50 9fbd f9fb dc3d
00000030: 2f71 bbbc 9e72 9cbd b18e b43d 52ff eabd
00000040: dc3c 023e e43e 4b3d d349 15bd e517 86bd
00000050: 8d4d f93d c97a e03d 1621 553a 63d0 91bd
00000060: fac0 023e 84ab c23d be8a 98bd 2a0e f53d
00000070: 8644 0ebd c44f 6dbd 0eef 0ebc 5ece f83d
00000080: 2f52 0d3d 8c06 cd3c 65f3 b03c c098 b93d
00000090: 2d2e 983c 2f7a 133e 1e39 0a3e 62dd 083e
000000a0: 8712 c3bb 269d 673d 2e8a 193c fbcc 63bd
000000b0: f4ef fa3d a1db e53d 55ac d53b 6661 4e3d
000000c0: 470d 933d 9921 5abd 008e b3bd 1d39 3e3c
000000d0: 8fb3 6f3d 4f40 1d3e 9af1 693d 888a 7ebc
000000e0: 9854 b4bd 233a 94bd 98b4 283d f2c8 24bc
000000f0: 09fc 973c 39c5 213d 344e c0bc ac80 e23d
00000100: 406d 9a3d b9ed c73d 60a2 1b3c 1265 82bd
00000110: 23b9 d53d abe1 c73d f551 013e 610c 0b3d
00000120: 0fbc cc3c 69ca 9dbd 0af8 493d 251c 7cbd
00000130: 5787 a53d 1a1b 3abd 7a8a 49bd cce9 4abd
00000140: 15e7 283c 805c c73d 9983 373d 6eae 90bb
00000150: 374d da3d 81d0 fc3d 7c5f d93d a79f f13d
00000160: b04f 563d ab50 353d 9cf9 fb3d e822 973c
00000170: d8f8 c73c f125 45bd a154 ee3c 7832 303d
00000180: 0ba9 103e 82a5 dd3d 053e 09bc 0e11 9ebd
00000190: 7012 983d e7cd 0b3d a804 633c 38a5 29bd
000001a0: b0c0 553d 7464 d7bc b28e c03c 7a6a a73d
000001b0: 40dc cd3d 0677 db3d 5cfc 94bb 9793 873d
000001c0: 038c c83d c16f 8d3c dc93 373d 7b86 86bd
000001d0: 152d c0bd f0a3 acbc 3a73 a4bd 4087 5abd
000001e0: cacd b1bd 0676 7b3c 9d30 afbd 4eae 4abc
000001f0: 4be0 f93c 4007 15bc 1144 dfbc c36a 043e
00000200: a412 7dbd feee e33d 8b1b e3bd f021 993d
00000210: cda6 c33d fe57 633d 3813 973d 2626 c6bc
00000220: 5b4a a03d f8e1 5b3d 48b8 2a3d 4633 4fbd
00000230: 3b17 a4bd 804a c7bb 02c8 f1bb 73c8 a23d
00000240: 3504 84bc 144c 3e3d 310d 9dbb 5da6 a33c
00000250: 0e74 3d3d b8be e53d 75fa 583d 429b cebc
00000260: 7ef4 c53d 751f f1ba e6e0 8a3d f1ff 9e3d
00000270: 2970 843c 6a22 f93d 7d4a 10be 123d b6bc
00000280: cc51 a2bb e834 c2bd 2292 82bd f261 00bd
00000290: 5bcd bd3d daf5 8bbd 8dd7 eebd 0742 be3c
000002a0: ff13 9ebd 958d 203c ba0b 273d 3446 563d
000002b0: 2a99 85bc fff6 cfbc 783a fdbd 54e3 bf3b
000002c0: 4de4 d9bd 066e 033e 12fa 393d e343 4f3b
000002d0: 8946 81bd 726c 18bd 0567 32bd 3908 523d
000002e0: a814 bb3d e153 f03d 77db b7bd 0302 0abd
000002f0: 23a3 99bd 7629 e73c a8c3 823d 7c52 92bd
00000300: 36e3 813d d8c3 b83c bdd3 903d f36b d53d
00000310: 89ef acbd fbc3 ad3d b9af 083e fac4 14bd
00000320: bb23 1a3e 7ee1 d5bb ce71 b0bc 014b 6d3d
00000330: eb0d 0e3e 2487 e7bc 8ee8 43bd d946 8fbd
00000340: 22a3 be3c 0230 a3bd 2b7c 163d 41b5 78bd
00000350: b423 023e 5f08 4d3d b8ee 51bd 8a5d 273d
00000360: 525d fd3d 15c4 ff3d 1ccc 1c3d ae90 1cbd
00000370: dac3 973d e288 003e 5796 263d 6e54 aa3d
00000380: 5716 68bc c4a0 983d 7b4f d3bc 075c 123e
00000390: 2671 5fbd b3c2 0e3e c6b2 73bb a864 103e
000003a0: 30b5 5d3d 7788 253d 61cc a83c 1af4 003d
000003b0: 5a1f c73d f56c f53d 6e3b 993d 8988 f63d
000003c0: 58e1 2d3e 8db2 5e3d 5766 a13d b440 c8bd
000003d0: d920 c4bd 4ee1 75bd 4505 f73b aa42 af3d
000003e0: 46f8 e0bd ffff 0a3e 03cf aebd 6b14 9bbc
000003f0: 23f8 8fbc 6ba4 e93d 3877 adb9 f503 2a3d
